financial/finance/trained_models/TD3__time__ExponentialUtility/actor.pth (torch, 9687 bytes, 9 tensors)

fc1.weight f4 [24, 8]
00000000: 7001 28be 5e6e 023e eeff f23d e18c 4e3e
00000010: fef9 6bbd 45af b93c 734e 093d 6d7b 4f3e
00000020: 0fcb 223e 6c4b 0bbe 21e7 51be 0f43 5cbe
00000030: 41b9 13be 436f 4a3c c54d b1bc 3ef4 643e
00000040: 6f21 263e f87a 633c 69c9 ecbd c061 573e
00000050: 2c9d 323e a8f1 ca3d f4be c6bd b6af 3b3e
00000060: 0832 983c 9436 0a3e 887a ae3d 70fc dd3d
00000070: ac69 37be 7ccc e7bd 74bb fa3d 2430 2ebd
00000080: 8cd8 35be e215 3e3e c0a5 90bb 989d 283e
00000090: 4160 23be 44ee 8f3d 0677 9dbd 98eb afbd
000000a0: 0c57 5d3d c208 a93c d40c 553e c5ce 693d
000000b0: 16ad 763e 6312 243c 4bc9 a9bd f585 ccbb
000000c0: 72e6 29be dbb7 1dbd 542f 2bbe 5477 80bc
000000d0: 3b66 ca3c a320 013c 7867 c1bd 5700 2d3e
000000e0: 6c6f eb3d 7cfe 4dbd 2a2c a5bd 2869 033e
000000f0: eeda 353e c063 3fbe 40a5 34bd b02e 9bbc
00000100: 22f1 febd e649 fb3d 3c9b a7bd 70c6 f73d
00000110: e611 86bd dacc 29be 77f2 81bd 0268 a1bc
00000120: bb7d d33d 26af 003e f67d d53c c484 663e
00000130: f3d7 2dbe 2fd4 b6bd 0482 323c 6070 50bd
00000140: 98fb 453e f47b 0a3d be2c fbbd da21 aabd
00000150: 8d52 d13d 1182 82bd 0e39 1d3d 3ad4 5c3e
00000160: 9455 983d 5edd 61bc 3734 663d 28b1 e6bd
00000170: 9fe9 2abe 8480 18be da3c 23be 3e94 613d
00000180: 58db 223d 02a8 b1bd c374 4cbe 2875 e23d
00000190: 0d34 edbd 7095 0bbd 1a43 2fbe 1fd8 ebbd
000001a0: fd38 cb3d 6723 35be a867 d3bd f578 293e
000001b0: 560a dabd 360e 18bd 6975 c6bc add5 df3d
000001c0: 05bd 13be b12c ff3b 7c6b 903d b10d d0bc
000001d0: 5c64 d73c 3578 2abe 870e c03d 475b 423d
000001e0: b815 743d 98fe a9bd 40d1 2a3e 7b7f 5e3e
000001f0: 3e02 5a3c a1d4 3ebd 2aad 47bc f2b9 13bd
00000200: 6c5f 023c 237b 653e 094b 9a3c 467a 13be
00000210: 9f82 c5bb db7c b03c 4be9 a5bd 2d60 27bc
00000220: 851f 583e ecc6 1a3e 3f6b 243c 81b3 643d
00000230: ae42 313c 2126 a3bd cfa9 94bd ff5d cdbb
00000240: ce84 2c3d dfbd 123c eee2 893c 9fd4 97bd
00000250: 70c0 623d d362 26be 8f69 a33c 9e33 d33d
00000260: fdb6 3fbc 79c6 18be d453 073c 5b0f 1f3c
00000270: cdad 2bbe 0140 10be a7de d03d 82c6 433e
00000280: 99ac b53d 148f ec3d 241f 573d 0a92 b43d
00000290: 75aa d93d cd08 9fbd 0926 6abd 43f0 e23d
000002a0: 0836 8d3b 69d8 03be 42a9 1dbe 0523 f13d
000002b0: 1c17 303e ae6a 253e acd5 a43c 9228 bb3d
000002c0: 1d8f 5ebe ffa2 37be 290b 6bbe 318d 013e
000002d0: 7cef 8cbd b32d 82be dfe0 52bd f083 58bb
000002e0: 733a 49be bde4 2f3c e65e fbbc 66f7 5ebe
000002f0: 046b 7fbe b28e f1bd 69b6 963d df5b 403d
-0.16406798 0.12737414 0.11865221 0.20170929 -0.057611458 0.022666583 0.03352208 0.20261927
0.15897773 -0.1360299 -0.20498325 -0.21509956 -0.14426138 0.012355628 -0.021643529 0.22358796
0.16223691 0.0138842985 -0.115618534 0.21033382 0.17442769 0.099093735 -0.0970439 0.18328747
0.018578544 0.13497382 0.08519465 0.10839164 -0.17911404 -0.11318299 0.12242785 -0.04252638
-0.17758387 0.18563035 -0.00441429 0.16466367 -0.15954687 0.070278674 -0.076887175 -0.08589858
0.054038092 0.020634059 0.20805675 0.057081956 0.24089465 0.010014149 -0.08290347 -0.006241555
-0.16591814 -0.038505416 -0.16717273 -0.0156819 0.02470695 0.007881316 -0.09443563 0.16894661
0.114958614 -0.050291523 -0.08065064 0.12833083 0.17759296 -0.18690395 -0.044102907 -0.01894316
-0.12448336 0.122699544 -0.081839055 0.12098396 -0.065463826 -0.16582051 -0.063450746 -0.019702915
0.103267156 0.12566814 0.02606104 0.22511584 -0.1697691 -0.089271896 0.010895256 -0.05088842
0.19334257 0.033809617 -0.12264393 -0.08307238 0.102208234 -0.063724644 0.03838449 0.21565333
0.07438198 -0.013785688 0.05620214 -0.112642586 -0.16690682 -0.14892775 -0.15941182 0.055073015
0.039759964 -0.08674623 -0.19966416 0.11057502 -0.115821935 -0.03407806 -0.17115441 -0.11515831
0.09922979 -0.17689286 -0.10322505 0.16550048 -0.10646503 -0.037122928 -0.024225907 0.10929427
-0.14427574 0.00778731 0.07051751 -0.025397154 0.026292972 -0.16647418 0.09377771 0.04745033
0.059591025 -0.08300513 0.16681385 0.21728317 0.013306199 -0.046589497 -0.012187282 -0.036066003
0.007957321 0.22410254 0.018834608 -0.14402112 -0.006027534 0.02154391 -0.08101138 -0.010215801
0.21105774 0.15114945 0.010035335 0.05583525 0.01081912 -0.07966257 -0.07258951 -0.0062673087
0.04211884 0.008956402 0.016831841 -0.07413601 0.055359304 -0.16248636 0.019947795 0.103125796
-0.011701343 -0.14919461 0.008259732 0.009708251 -0.16765518 -0.14086916 0.101987176 0.19118693
0.08870811 0.115507275 0.052519932 0.08816917 0.10628215 -0.077653505 -0.05716518 0.110809825
0.0043094195 -0.12875523 -0.15396598 0.117742576 0.17196316 0.16153976 0.020121418 0.091385975
-0.21734281 -0.17933272 -0.22953476 0.12651516 -0.068816155 -0.2542549 -0.051483985 -0.0033037625
-0.19651203 0.010735688 -0.0306849 -0.21774063 -0.24943167 -0.11794795 0.07359011 0.046962615

fc1.bias f4 [24]
00000000: 8360 80be f856 b63c b093 68be eb4b 47be
00000010: 40f6 52be d833 4b3e 5ac8 38be 00c2 fcbb
00000020: e541 863d c68e 813e db84 83be 709d 6bbe
00000030: d038 52be c13c 7d3e 1b36 1fbe 2d6c ab3e
00000040: ecf8 4a3e 9627 0d3e e34d a0bd 6305 07be
00000050: dbe1 183d 993d ecbd bd32 853d a91e 473d
-0.25073633 0.022258267 -0.22712588 -0.19462554 -0.2060175 0.19843996 -0.18045178 -0.0077135563
0.06555537 0.2530424 -0.25687298 -0.23009276 -0.20529485 0.24730207 -0.15547983 0.3348097
0.19821519 0.13784632 -0.07827356 -0.13185649 0.037324768 -0.11535186 0.06503818 0.048613224

fc2.weight f4 [48, 24]
00000000: e7b5 8e3e de51 d23e 8157 5d3e b776 8abe
00000010: 05f4 70be 624f 233d 594e ba3e ff01 dc3d
00000020: 8177 bd3d 568e 80bd 65c4 cc3e 5346 c33e
00000030: 702b ecbd b6eb 8d3e 1baf ba3e f832 0dbd
00000040: 72c0 44bc 9e5f bb3b 1447 5f3e 84ee fd3e
00000050: a79b 613e d1fb 2e3e 5112 27bd d716 123e
00000060: a08a 9b3e 81cd fa3d 5ba9 123d 5aaa 75bd
00000070: 3c5c 13be ebff fabc 1937 5f3e 4202 5fbd
00000080: a4b7 0b3e 9e17 513e 358c 0a3e 7a2d 5a3e
00000090: bcb2 ffbd 0222 743e 0e06 9b3e 2b13 163e
000000a0: ea29 493e 15c1 02be 1634 163e d4fc 6a3e
000000b0: cc17 273d 3bc3 603e af71 c33b 4fc0 e23d
000000c0: c2b8 3a3e fea0 963e 8681 f9bb a260 19be
000000d0: 2365 40bd 3a8a 4b3d 30af 8d3e 6f6e 8a3d
000000e0: 65f8 703e d90a da3e 1464 853e 0d90 c63e
000000f0: 303f 82bd 1b32 513e c029 183e 3e33 cd3e
00000100: de5e 8f3e 2133 253d 1959 cd3d 97ed 623e
00000110: d780 243e 87f1 e13e bb1f 5c3e baec b83e
00000120: 3a8c 0bbe 004f 81bc 9b5b 9f3d 681a dc3d
00000130: 9ab9 163e 7f20 413e 3332 4dbd 2cd9 a73c
00000140: 40df 723c 2420 703e d584 e43c 87ab 09be
00000150: 4070 143e 9e16 9fbd 5aaf 28bd 50fa ad3d
00000160: 0c62 b13d 391e 0a3e f25d 02be 8468 27be
00000170: 2e22 06be 0f2c 54bd c586 813e db76 b63d
00000180: ab94 b5bd a0e9 fbbb 9d34 35bd f8e5 50bd
00000190: b590 a43a 3271 07bd 3e5d a03d 9f34 c7bd
000001a0: 43f9 203c 4016 99bd 1a6e 41bd 752a f03d
000001b0: dc9f 31bd 2a44 3bbc 2daf 0b3e 563e 583d
000001c0: 2772 78bd 4269 8ebd c26a 58bd 4469 40bd
000001d0: 6de7 763d a92d 0bbd 93e7 fb3d 5950 93bd
000001e0: 28e9 dbbd 7fbd b2bc a1ff 203d 5019 cf3d
000001f0: 2464 3dbc dd02 d73d 24a3 11be 6b5a ee3d
00000200: d8cf 213c 2e1a 803d e312 4dbe 1d0a 5bbe
00000210: 236a 343d 0170 b8bd dde6 3f3d bc4f 653e
00000220: a19f 3e3e 7bb4 2c3e f896 fdbd 3f6d 033c
00000230: b8ab 90bc 28ad 45bc 8f9b df3d 7999 3bbd
00000240: e7c9 f2bc 1454 0abe c097 f83c 49db f8bd
00000250: fdf3 4b3d fb1d babd 6090 9ebd 7535 46bd
00000260: 001e 313e 3735 b5bd 191e 2c3d 4b5b 253d
00000270: 8c14 aa3d 5560 863c bf96 373d eabc 0b3e
00000280: e77e 6e3d 0ead 263d af33 09be 317d 85bd
00000290: 3bb4 44bc 1543 88bc 5ec9 55bd 0d63 22be
000002a0: 2857 8ebb 69a6 a23d 3e56 2b3e 754e 3bbd
000002b0: b7ea 1c3e 8006 51be b392 f1bd 9388 2fbe
000002c0: 765f 6ebd 9a72 5e3d 65e5 a8bd 088b 0f3e
000002d0: cedf 5a3e be8a d63c 8b37 113e 84aa 82bd
000002e0: c8b5 b4bd ae4c 81bd 8e42 3d3d 162e 8cbd
000002f0: 5029 bdbd ff85 b73d db06 143c 32f6 4b3e
00000300: bdd2 933e f7a9 c93e 7dae 033e a4fd a1bd
00000310: eadb 1ebe 009c f33d 3f7b ba3e 6165 8f3e
00000320: b774 a03d 1cef 3d3d 3c9f cb3e 1e69 4f3e
00000330: cec1 32bc 49e4 ae3e d98f e93e f309 02bc
00000340: a507 91bd 0ef7 4dbb aeec 943e d835 dd3e
00000350: bbf8 a93e d573 db3e 5771 073c b867 653e
00000360: f69b 703e 3e81 853e 0f49 443e 5f7e 9dbd
00000370: dac1 51be 7901 353a 358d fc3d f494 693e
00000380: ec17 0abe 8fdb 84bd 5e88 113d 63f8 573e
00000390: c700 50be ead2 a93e 0681 a23d e74d 88bd
000003a0: cb04 95bd 6078 263d 7909 d33e 0439 b93e
000003b0: 5aec 743e dd94 303c 473f 9dbc 6862 b33d
000003c0: f304 5bbc 9c05 853d 65cd d53d 56a9 013e
000003d0: 0baa be3d e8cb f6bd 64e8 683c 42b0 08bd
000003e0: efaa 02be 258f a7bc c360 a3bb 2ed6 06be
000003f0: 10b1 203e 9132 d1bb c140 03be 71cf de3d
0.27873155 0.41078085 0.21615411 -0.27043697 -0.23530586 0.039870627 0.363879 0.10742568
0.09251309 -0.062771484 0.39993587 0.3813959 -0.115317225 0.27718896 0.3646172 -0.034472436
-0.012008773 0.0057181856 0.21804458 0.49596035 0.22032033 0.17088248 -0.040788952 0.14266525
0.303792 0.12246228 0.03580604 -0.059976913 -0.14390653 -0.03063961 0.21798362 -0.054445513
0.13644272 0.20419165 0.13530047 0.2130641 -0.12485263 0.23841098 0.30278057 0.1465575
0.19644895 -0.12768967 0.14668307 0.22948009 0.04079418 0.21949475 0.00596448 0.11071836
0.18234542 0.29419702 -0.0076143174 -0.14978269 -0.04697145 0.04969237 0.2767272 0.06759345
0.23532255 0.425864 0.26052916 0.38781777 -0.06359708 0.2042927 0.14859676 0.40078157
0.28002065 0.040331963 0.1002676 0.22160946 0.16064773 0.44129583 0.21496479 0.36118108
-0.13627711 -0.01578474 0.07781144 0.10747224 0.14719239 0.18860053 -0.0500967 0.020489298
0.014823735 0.2344976 0.02789537 -0.13444339 0.14495945 -0.07767986 -0.041182853 0.08495009
0.08661279 0.13488092 -0.1273115 -0.16348463 -0.13098976 -0.05179983 0.25298133 0.08909389
-0.08866247 -0.0076877624 -0.04423963 -0.051000565 0.0012555333 -0.033066936 0.078302845 -0.097268336
0.009825054 -0.07474947 -0.04722414 0.11726848 -0.043365344 -0.011429826 0.13641043 0.052793823
-0.06065574 -0.0695367 -0.052836187 -0.04697539 0.0602793 -0.03397909 0.12300029 -0.071930595
-0.107378304 -0.021818874 0.039306287 0.1011225 -0.01155952 0.10498593 -0.1422239 0.116383396
0.009876214 0.062549934 -0.20026736 -0.21390577 0.044046532 -0.09005738 0.046851028 0.22393698
0.18615581 0.16865723 -0.12382311 0.008021652 -0.017660007 -0.012065209 0.10918342 -0.04580066
-0.02963729 -0.13508636 0.030345798 -0.121512 0.049793232 -0.090877496 -0.07742381 -0.048390824
0.172966 -0.088480406 0.04202089 0.040370267 0.083047 0.016403357 0.044821497 0.13646284
0.058226492 0.04069238 -0.13398622 -0.06518019 -0.012005861 -0.01663355 -0.05219399 -0.15858097
-0.004343886 0.079418965 0.16732118 -0.04572912 0.15323912 -0.20412636 -0.11795559 -0.17141943
-0.058196507 0.05430851 -0.082468785 0.1401788 0.21374437 0.026189204 0.14181344 -0.063801795
-0.088237345 -0.063134536 0.04620605 -0.06844728 -0.09236395 0.089611046 0.009034838 0.19918135
0.28871718 0.39387485 0.12859531 -0.07909706 -0.15513578 0.11894989 0.36422154 0.28007033
0.078347616 0.04637061 0.39769924 0.20254943 -0.010910464 0.34158543 0.4561756 -0.007936942
-0.07081536 -0.0031427774 0.29086822 0.43205142 0.3319758 0.4286181 0.008266768 0.22402847
0.23496994 0.26075166 0.19168495 -0.07690119 -0.20484105 0.00069048215 0.123316206 0.22810727
-0.13485688 -0.0648719 0.03553044 0.21090846 -0.20312797 0.33168727 0.079347655 -0.06655484
-0.07276305 0.040642142 0.41218165 0.36176312 0.23918286 0.010777679 -0.019195212 0.08759004
-0.013367879 0.064952105 0.104395665 0.12662253 0.09309777 -0.12050611 0.0142155625 -0.033371218
-0.12760518 -0.020453999 -0.0049859 -0.1316764 0.15692544 -0.006384202 -0.1281767 0.1087941

fc2.bias f4 [48]
00000000: 573c 96bd 3311 5a3e 123f 65bc 937b ce3d
00000010: e784 5cbe d5fe 343b 7218 3f3d ffd5 89bc
00000020: cef9 da3d ca4a 303e d22a 11bd c34b d43e
00000030: c1b6 af3e b2da 92bd 6167 433d 463b b3bb
00000040: 747a 633e 34df 9f3e 76df 033d 57ff 3abc
00000050: 2e40 9dbd 5970 4e3e fd79 98bd f8ce c23e
00000060: 094f 533c cada 883e 51d5 eb3d 29d0 17bd
00000070: df6c 3d3e d953 5dbc 5b6e 4f3e c825 9cbd
00000080: c763 be3c 50ac 5dbd 02c0 56be 6c33 c03c
00000090: 6d4e d33e 73f8 f23c 6b5b cb3d b1c3 8a3e
000000a0: bc62 b83d ed7c 443c cfd4 783d 2f4b cc3c
000000b0: 22d6 043f bdda 863e 3ead 553e 464d 3b3d
-0.07335728 0.21295623 -0.013992088 0.10082164 -0.21535073 0.0027617712 0.046654172 -0.016825674
0.10692178 0.1721603 -0.035441227 0.41464052 0.34319118 -0.07170619 0.04770601 -0.0054697124
0.22214681 0.31224978 0.03219553 -0.011413417 -0.07678257 0.20160045 -0.074451424 0.3804853
0.012897261 0.26729423 0.11515296 -0.03706375 0.18498562 -0.01350876 0.20256941 -0.07624394
0.023240937 -0.054119408 -0.20971683 0.02346202 0.41270772 0.029659485 0.09929546 0.27102426
0.09003207 0.011992675 0.060749825 0.024938194 0.5188924 0.2633876 0.20866868 0.04572799

fc3.weight f4 [1, 48]
00000000: bb34 453d 1c9b 7a3d 846f b1bd 1a05 6cbd
00000010: 1909 3d3c 52e7 dbbd d6ab 2bbd 7518 05bd
00000020: 98b5 553d 3e4e 033e 9504 60bc 3ea6 7d3e
00000030: 717e 103e 24ec cebd 7e83 263d 0aaa c2bd
00000040: 2fa1 423d fb6d 063e 03a9 dbbd aef8 fa3c
00000050: cbf2 1c3c e347 963d c97f 77bc bda0 303e
00000060: c51c 3abb 92c2 a23d 8594 2cbd a970 88bd
00000070: 4b51 b93d df08 c0bd fc34 8e3d aa8e 55bc
00000080: a41e b6bd f280 0abe 3d01 033b fd5d 10bd
00000090: 8dbf 803e 9b3d 45bd 27c9 6cbd d24d 783e
000000a0: 1cef 6b3d 1fa4 80bc 6678 373d b219 733d
000000b0: 0211 7f3e c7d8 d93d 095e a63d 3407 423d
0.04814599 0.06118308 -0.08663848 -0.057622053 0.011537814 -0.1073748 -0.041911922 -0.032494027
0.052175134 0.12822816 -0.013672967 0.24770448 0.14110734 -0.10103634 0.040652744 -0.095050886
0.047516998 0.13127892 -0.10725596 0.030636158 0.009579371 0.0733793 -0.01510615 0.17248817
-0.0028398496 0.079472676 -0.042133827 -0.06662113 0.090487085 -0.09376692 0.069437 -0.013034502
-0.08892563 -0.13525751 0.0019989752 -0.035245884 0.25146142 -0.048154455 -0.05780902 0.24248436
0.05760108 -0.015703259 0.044792555 0.059350677 0.24908832 0.1063705 0.081234045 0.04737015

bn1.weight f4 [24]
00000000: bf05 9c3f 115a a13f 59d1 b93f 0000 803f
00000010: 0000 803f 4945 9a3f 8365 a43f 0000 803f
00000020: 796b 973f cdb9 923f f0b6 9b3f 2029 a33f
00000030: 0000 803f 761c b93f a68d 9f3f 2d0a 963f
00000040: 0b5d 963f a922 973f 7ae5 b13f 0700 a63f
00000050: 889a a93f b9b5 8e3f 1fa0 953f aff2 8a3f
1.2189254 1.2605611 1.4517013 1.0 1.0 1.2052394 1.2843479 1.0
1.1829673 1.1462952 1.2165203 1.2746925 1.0 1.446181 1.2465103 1.1721855
1.1747144 1.1807452 1.3898156 1.2968758 1.3250284 1.1149207 1.168949 1.0855311

bn1.bias f4 [24]
00000000: 7ad9 b6be 28de abbe 2c65 32be 151c f9be
00000010: 65ee f9be 6cef babe f9df a5be b619 003f
00000020: 9f77 d2be 40d3 e1be 4c63 aabe 549a a2be
00000030: 8526 02bf 7477 01be 5264 afbe b513 edbe
00000040: bdfb d4be d971 d6be 2c11 66be 854e a9be
00000050: 07a5 8bbe c9a8 c2be 2037 d6be 298a d0be
-0.35712796 -0.3356793 -0.17421407 -0.48654237 -0.48814693 -0.3651079 -0.3239744 0.5003923
-0.4110689 -0.44106483 -0.33278883 -0.31758368 -0.50840026 -0.12643224 -0.34256226 -0.46304098
-0.4159831 -0.41883734 -0.22467488 -0.33067718 -0.27274343 -0.38019398 -0.41838932 -0.40730408

bn1.running_mean f4 [24]
00000000: 0400 0000 2634 ac3d 0400 0000 0000 0000
00000010: 0000 0000 537b ea3d 0400 0000 0000 0000
00000020: a9bb 223b 8cf3 7a3e 0400 0000 0400 0000
00000030: 0000 0000 ec27 873e 0400 0000 4c7b 9e3e
00000040: ecc9 ea3d ce69 833d 5972 883c ea83 753d
00000050: b87c 0a3d 0400 0000 a6b6 5c3c 7c1b 0e3e
6e-45 0.08408384 6e-45 0.0 0.0 0.114493035 6e-45 0.0
0.0024831092 0.24506968 6e-45 6e-45 0.0 0.26397645 6e-45 0.30953443
0.11464295 0.06416665 0.016656088 0.059940256 0.033810347 6e-45 0.013471281 0.13877672

bn1.running_var f4 [24]
00000000: 0400 0000 d5a0 3e3c 0400 0000 0400 0000
00000010: 0400 0000 6f7d 8637 0400 0000 0400 0000
00000020: fcc4 8c36 1d48 1e3a 0400 0000 0400 0000
00000030: 0400 0000 7c89 343b 0400 0000 954b a339
00000040: 05ba 1138 4238 8737 a54c f639 8a5c c73b
00000050: 20b9 fd3a 0400 0000 71cd df36 3b44 0f3a
6e-45 0.011635025 6e-45 6e-45 6e-45 1.6032454e-05 6e-45 6e-45
4.195257e-06 0.00060379674 6e-45 6e-45 6e-45 0.0027547767 6e-45 0.00031146096
3.4743938e-05 1.6119451e-05 0.0004697788 0.0060840296 0.001935754 6e-45 6.6698344e-06 0.0005465184
