financial/finance/trained_models/TD3__time__ExponentialUtility/critic.pth (torch, 18810 bytes, 18 tensors)

fcs1.weight f4 [24, 8]
000000 e0 7c 32 3e 87 23 b3 bd 90 22 3f 3d bc 32 72 bd
       0.17430449 -0.08747011 0.04666382 -0.059130415
000010 60 10 d1 3d 40 81 5c 3b 34 dd e5 3d 60 66 62 bd
       0.102082014 0.0033646375 0.11223832 -0.055273414
000020 6c 27 6d bd c4 6c cc 3d 82 9c 02 be 97 1e 0a be
       -0.057898924 0.09981683 -0.12755015 -0.13488232
000030 e3 51 08 3e cd 2e 7d bd 47 4f 91 be 75 7d 07 bd
       0.13312487 -0.06181221 -0.28380796 -0.03307863
000040 b0 79 6d 3c 2c c9 90 bd a6 74 96 bd 68 24 52 bd
       0.014494345 -0.070696205 -0.07346468 -0.05130425
000050 50 7b 12 3e 58 59 7a 3d 69 43 c9 bd ac 7b 10 be
       0.14304852 0.06112036 -0.098273106 -0.14109677
000060 1f ae 29 bc 37 86 78 3c a9 38 d4 bd 17 b2 8c 3d
       -0.010356455 0.015168718 -0.103623696 0.068699054
000070 5f cd 40 3e dd 1e 34 3d 3b b1 11 bd 23 59 ce bc
       0.18828343 0.043974746 -0.03556941 -0.025188988
000080 b3 70 e1 bd 9d f0 2c bd 68 25 b3 3d 35 ce 6b be
       -0.11007824 -0.042221654 0.08747369 -0.2302788
000090 f1 c8 22 be 92 ad 6c be 4d e5 a7 be d8 a4 8c 3d
       -0.15896966 -0.23113087 -0.3279213 0.06867379
0000a0 fb 33 9a be 3e 25 0e bf 4c d3 cc be e7 48 d6 be
       -0.30117783 -0.5552558 -0.40004957 -0.41852495
0000b0 2d 58 d7 be 38 31 9c be 7e fd 56 3e 9e 0d 9d bd
       -0.4205946 -0.305063 0.20995137 -0.07668613
0000c0 a5 2d 75 be 9f 2e 0f be 96 df 8f 3d 6c e9 11 be
       -0.23943193 -0.13982628 0.070250675 -0.142492
0000d0 5b 60 2d 3c c9 cb f5 bd f0 07 79 bd 29 8d 9e bc
       0.010582055 -0.120017596 -0.060798585 -0.01935442
0000e0 84 94 30 3e 0f ab 96 3e b4 d1 3e 3e de 97 43 3e
       0.17244154 0.29427382 0.18634683 0.19100901
0000f0 07 d7 9d 3d fa 3b f4 3c 05 1f d2 3d a1 fc 32 3e
       0.07707029 0.029813755 0.10259823 0.17479183
000100 e0 4f cd bd 21 44 27 3e 33 13 3d 3e d5 18 8b bc
       -0.100250006 0.16334583 0.18464355 -0.016979614
000110 fa 5e 71 be 25 6f d0 3a 24 44 9b be 4a 85 2a bc
       -0.23571387 0.0015902264 -0.30325425 -0.010407755
000120 6f 0c f1 be 05 a1 d0 be a0 44 74 bf 38 40 14 bf
       -0.470798 -0.40747848 -0.95417213 -0.5791049
000130 0d b2 54 be 3a 45 b1 be e8 ca 33 3f ce b1 8e 3c
       -0.20771046 -0.34623128 0.70231485 0.017418768
000140 e0 b3 1b be aa 5f 15 3e 3a dc 8a 3d a7 95 14 3e
       -0.15205336 0.14587274 0.06780286 0.14510213
000150 2d 2e e2 bd 92 f2 e0 bd 74 59 e0 bd 9a 56 a5 bc
       -0.110439636 -0.109837666 -0.10954562 -0.020182896
000160 a8 a8 8d 3d 75 3b f0 bd 20 70 9d bc 3c 81 10 bd
       0.06916934 -0.117300905 -0.019218504 -0.035279498
000170 6a b8 3e 3e ae c3 96 bd e2 8e 4a 3e 40 33 00 be
       0.18625036 -0.07361542 0.19781068 -0.1251955
000180 8f 4c 73 bd ee 32 05 be fc 7c 2f 3e 16 54 f3 bd
       -0.059399184 -0.1300771 0.17137522 -0.118812725
000190 cb eb db 3d 17 03 4b bd 04 50 41 3e 1b d5 ef bb
       0.10738333 -0.049563494 0.1887818 -0.0073191053
0001a0 52 2a b6 3d c7 13 ed 3e 8d 26 1b 3f de b4 da 3d
       0.08894791 0.4630415 0.606057 0.10679029
0001b0 25 b3 ec 3d f6 89 ac 3e 2f 18 1c 3d d7 b8 23 3d
       0.115576066 0.33699006 0.038109 0.0399712
0001c0 e8 52 2d bd f0 2e 5e 3d 00 3f ba bd b8 d6 4d 3e
       -0.042315394 0.05424398 -0.090940475 0.2010144
0001d0 18 b1 34 3e 1c 4c c3 3d 9a b6 9b bd 66 43 44 be
       0.17645681 0.09536001 -0.07603188 -0.19166335
0001e0 8e 1f 8e bf af d3 52 bf 44 72 90 bf 39 f0 4c bf
       -1.110338 -0.82354254 -1.1284871 -0.8005405
0001f0 96 fe 71 3e 94 ad dc 3f 6d cd 6d 3e 6b 89 1a 3d
       0.23632273 1.7240472 0.23222895 0.03772871
000200 40 ab 18 be d2 a6 b2 be c1 d7 9e be a9 7b 77 be
       -0.14909077 -0.348929 -0.31023982 -0.24168266
000210 76 73 2a be 23 e7 fb be 61 fd 14 3f 0a 29 e9 bc
       -0.16645607 -0.4919978 0.58199126 -0.028461952
000220 42 86 16 3c 6f 17 14 3e 25 3c 53 bc 39 d1 de 3d
       0.009187283 0.14462064 -0.012892758 0.1087975
000230 94 07 9d 3d 8a 8b 0b bd 9e 05 8c be 36 23 8a bc
       0.07667461 -0.03406862 -0.27348036 -0.016862493
000240 23 8e 48 be 8a 9c b8 bd bf 6b 01 bd 76 ef 12 be
       -0.19585471 -0.090142325 -0.031596895 -0.1434916
000250 bb b3 03 3e 1b da 16 be 91 5a bc 3c ad 0b 11 3e
       0.1286153 -0.14731638 0.022992404 0.1416461
000260 8f 8c a1 be 64 69 28 bf 09 12 03 bf 9d 50 88 be
       -0.3155255 -0.65785813 -0.51199394 -0.26624003
000270 56 b6 c2 be 66 e3 32 be 8b f6 1f 3e 05 a3 c6 3b
       -0.38029736 -0.17469558 0.15621392 0.006061914
000280 ee be 92 be 45 d0 72 be ad 93 ae be b3 11 69 be
       -0.28661293 -0.23712261 -0.34097043 -0.22760658
000290 e6 db 82 3a b0 f1 be be b0 ae dd 3d 9f 83 eb bd
       0.0009983748 -0.37293768 0.108243346 -0.11499714
0002a0 70 0a b1 3d 64 79 1c 3e d8 21 82 bd f0 70 3e 3d
       0.08644569 0.15280682 -0.063541114 0.046494424
0002b0 d0 24 2a 3c d2 89 10 be 50 b7 a0 bd 24 69 94 bd
       0.010384753 -0.14115074 -0.07847464 -0.072466165
0002c0 4b 14 6f be 6e ab 9a be 25 9e 44 be 64 b7 0f be
       -0.23347585 -0.30208915 -0.19200952 -0.14034802
0002d0 7d c3 72 be 5d 85 af be 73 a6 5c bd 39 17 c9 3d
       -0.23707385 -0.34281436 -0.053869676 0.098188825
0002e0 37 99 15 3f 49 b5 0a 3f 18 6d ed 3d 67 44 59 3e
       0.5843691 0.5418287 0.115930736 0.212175
0002f0 ae 7b 79 3e 88 c2 55 3e 0c 61 47 bd 75 59 51 bd
       0.24363586 0.20874989 -0.048676535 -0.051110703

fcs1.bias f4 [24]
000000 cc 5f 7f be 49 f4 20 bd a2 36 7f be ab f3 a0 be
       -0.24938887 -0.03929547 -0.24923185 -0.31435904
000010 52 66 4e be ae 1d 80 3d 3e a6 b3 be 3b fe b1 3d
       -0.2015622 0.06255661 -0.3508777 0.08691069
000020 fd 9a d3 bc e1 c2 e2 bd a2 8c 96 be 42 8b 78 be
       -0.02583074 -0.110723265 -0.2940417 -0.24271873
000030 55 95 6e be 10 69 dd 3e e6 23 02 be 0a 4f f5 bd
       -0.23299153 0.4324422 -0.12709007 -0.11977966
000040 16 19 38 3c 8a c3 f9 bd 96 64 4f 3c c7 34 c3 3d
       0.01123645 -0.12195499 0.012658259 0.09531551
000050 1f c8 9d 3d d8 56 a5 bd 57 af c7 bd a5 d4 23 3e
       0.07704186 -0.08073205 -0.0975024 0.15999086

fc2.weight f4 [48, 25]
000000 16 aa 85 be fb 6e 64 3e 07 af b7 be 36 b8 2e 3d
       -0.26106328 0.2230796 -0.35875723 0.042656146
000010 f2 09 44 3d f8 1f 2b 3d 69 10 35 be be 95 c0 bd
       0.047861047 0.041778535 -0.17682041 -0.09403561
000020 73 75 ad 3c c3 44 3e 3d 65 22 a4 3d 48 81 a9 3e
       0.021174168 0.046452295 0.08014373 0.33106446
000030 97 93 48 3b f7 ce e5 bc 0d 69 34 be 5d 2b 82 3c
       0.0030605549 -0.02805279 -0.17618199 0.015889818
000040 5c 44 c3 3c 34 71 1a be 1a 15 54 3b d4 9a 3b 3e
       0.023836307 -0.15082246 0.003236121 0.18320781
000050 6c 4b ea 3d 30 e3 1f 3e a3 d4 1e 3b 55 a6 3b be
       0.11440167 0.15614009 0.0024235628 -0.1832517
000060 93 e7 06 3e f1 ed 64 3d dc ce e6 3d b0 2d 22 be
       0.13174276 0.05589098 0.11269924 -0.15837741
000070 12 b0 42 be 6a ab be bd 11 a0 63 bc da a4 6d bc
       -0.19012478 -0.093100384 -0.013893143 -0.014504636
000080 17 33 b0 3d 2e fa 1b be 8b 6b 06 be e1 48 27 be
       0.086034946 -0.15232155 -0.13126962 -0.16336395
000090 f5 a3 ac 3d 02 76 a5 3d 13 27 a7 3d c8 c7 27 be
       0.0842971 0.08079149 0.0816175 -0.16384804
0000a0 e5 d2 c0 bd d4 f7 dd bc e5 23 12 3d b3 8e 15 be
       -0.09415225 -0.027095713 0.035678763 -0.14605217
0000b0 30 6b 8c be aa df 59 be cb 7f 18 3e e7 13 bf bc
       -0.27425528 -0.21276727 0.14892499 -0.02332492
0000c0 4d 7a 09 be ab 8e 0f be fc 1f 4c be 86 2e bb 3d
       -0.1342556 -0.14019267 -0.19934076 0.09139733
0000d0 70 02 2d be f6 ee 37 bc 9b f7 37 bd 57 22 c5 bd
       -0.16895461 -0.011226406 -0.04491387 -0.096256904
0000e0 2d f0 03 be 17 cb db bd f9 53 19 bd 88 a6 57 be
       -0.12884589 -0.10732096 -0.0374336 -0.2105962
0000f0 2a 33 d7 bd 0c 0e e9 3d 80 ad 3c 3d 87 b2 e3 3c
       -0.10507806 0.11379632 0.0460639 0.02779509
000100 c1 61 33 be c6 cf f5 bb 15 d0 dc be 10 37 e7 bd
       -0.17517759 -0.007501575 -0.43127504 -0.11289799
000110 ac 65 88 3c 07 5b e2 bd b1 81 88 3d f0 0d 2c bd
       0.016650043 -0.11052518 0.06665362 -0.04200548
000120 e3 9f c3 3d ed c3 fe 3d 1c 4f 98 3e 10 82 61 be
       0.0955198 0.124397136 0.29747856 -0.22022271
000130 03 86 7f 3e 9a d5 f1 bd 8e bb 2b be af 07 3b bd
       0.24953465 -0.118083194 -0.16770765 -0.045661625
000140 88 95 05 be 35 5f 8d 3d f2 e2 1e bd e1 dc 99 bc
       -0.13045323 0.06902925 -0.03879065 -0.018782081
000150 01 36 ea bd 52 5f 72 bd ba 5e 45 3e 8b 56 9c 3d
       -0.11436082 -0.059172936 0.19274417 0.07633694
000160 ad 22 c0 bc 07 2f 3f be a7 d5 57 bc 8b 73 9d 3d
       -0.023454035 -0.18670283 -0.013173497 0.07688054
000170 03 f4 c1 bd 35 90 2e 3e 6a f1 c0 3c 28 4a 08 3e
       -0.0947037 0.17047198 0.023552615 0.13309538
000180 a9 3b 15 3e ca c4 b2 bd 55 a9 26 bd c4 74 20 3e
       0.1457354 -0.08728941 -0.04068883 0.15669543
000190 f3 a3 38 be 20 72 a6 3d 31 f4 4a be 2e 61 42 be
       -0.18031292 0.08127236 -0.19819714 -0.18982384
0001a0 10 78 56 3d a6 81 f0 3d ba c4 f3 3c 30 81 88 bd
       0.052360594 0.117434785 0.029756892 -0.066652656
0001b0 3c 9e c3 3d 1e 02 ee bd ac e3 33 be 55 93 64 3e
       0.09551665 -0.116214976 -0.17567319 0.22321828
0001c0 c1 90 6f 3d 27 e7 86 3b d0 9a 9e be 41 e1 de 3d
       0.058487657 0.004116911 -0.30977488 0.108828075
0001d0 35 5a 3b be fd d7 c3 bd 6a be 97 3c 92 81 e6 bd
       -0.1829613 -0.09562681 0.018523414 -0.11255182
0001e0 69 58 da bb 3e f3 2a 3d 21 17 8a 3d 78 7c ec bd
       -0.0066633713 0.04173588 0.06742693 -0.11547178
0001f0 89 96 64 3e 21 fe 58 be 5d 19 20 be 01 31 ac bd
       0.2232305 -0.21190692 -0.15634675 -0.08407784
000200 49 45 a2 bb 9b d3 10 3d 3d 80 99 bd e9 56 93 3c
       -0.004952107 0.035358053 -0.07495163 0.017985778
000210 93 56 94 bd a3 c7 52 bc 0e 1e 66 bb cf 67 b0 3d
       -0.07243075 -0.01286498 -0.0035113129 0.0861355
000220 28 13 16 3e e7 9f 3f 3d 90 d4 59 bd b7 1f 63 bd
       0.14655745 0.046783354 -0.05318123 -0.055450168
000230 3f f3 81 3c 8d c8 a0 3d 05 80 11 be 13 7a c0 bd
       0.01586306 0.07850752 -0.14208992 -0.09398284
000240 76 91 2f bd 3d 4b 49 bd 5c de 45 bd f6 45 10 3d
       -0.04286333 -0.04914402 -0.04830776 0.03522297
000250 6f be 92 bc 65 2b 4a bd 70 f6 43 be 18 7b 9d 3d
       -0.017913071 -0.04935779 -0.19136977 0.07689494
000260 04 5d 04 be 9c 33 16 be 40 2c 0d bd 25 72 fb bd
       -0.12926108 -0.14668125 -0.03446603 -0.12277631
000270 b0 df 58 3c c0 b2 bc bc c5 53 85 bc e2 55 a0 bd
       0.013236925 -0.023034453 -0.016275296 -0.07828881
000280 e4 ac 90 bd 70 c7 4f 3e 0f d6 8f 3d a6 74 97 bd
       -0.07064226 0.20290923 0.0702325 -0.07395296
000290 72 63 ec bd bb 31 55 3d 1d fb b2 be 8d 76 60 3c
       -0.11542405 0.05204938 -0.3495721 0.01370014
0002a0 62 02 cd 3d c2 b1 00 bd 2e 63 6f 3d 70 bc ff 3d
       0.1001022 -0.031419523 0.058444194 0.124871135
0002b0 ac cd 53 bd f3 f8 84 bd c9 1f 69 3e b2 f1 b0 bd
       -0.051709816 -0.06492796 0.22766031 -0.0863985
0002c0 af f5 67 3e 8d 19 3e be c9 5f b9 bd 05 90 ed bc
       0.22652315 -0.18564434 -0.09051473 -0.028999338
0002d0 32 d0 31 bd aa db 3a 3d 64 47 44 bd df 6d 71 be
       -0.04341144 0.045619644 -0.047919646 -0.23577069
0002e0 e0 5e a3 bd 32 08 cc bd 66 39 21 3e e8 d3 a9 3b
       -0.0797708 -0.09962501 0.15744552 0.005182732
0002f0 bb d5 b6 bc c6 c2 a1 bc 93 f5 a1 3d cf 7e d2 3d
       -0.022318712 -0.019746196 0.07908168 0.10278093
000300 c3 06 3d 3d 3c 08 8b bb 75 cb 8b bd 93 7c 0c 3e
       0.046149027 -0.004242925 -0.06825916 0.13719396
000310 57 d5 c5 bc 4f 6f 92 bc 30 8b 2d bc 20 55 ba bb
       -0.02414958 -0.017875342 -0.010592267 -0.005686417
000320 a1 d9 db be d5 60 c2 3d 0a 64 b9 be 85 42 37 be
       -0.42939475 0.094911255 -0.36209136 -0.17896469
000330 7c 46 15 bd e4 7e 68 bd 06 e0 5c 3d 42 59 c0 bd
       -0.036444172 -0.056761637 0.053924583 -0.093920246
000340 62 82 1a be 6f eb d6 3d 17 e8 30 bd e4 72 9b 3e
       -0.150888 0.10494124 -0.043190088 0.30361092
000350 0d 92 da bd cc c5 c5 bc 21 f3 b0 be 02 6e 47 3d
       -0.10672388 -0.024142168 -0.34560493 0.048688896
000360 04 db b2 3c b3 3a bc bb b6 e8 d4 3c 16 e9 e9 bd
       0.02183295 -0.005744302 0.025989871 -0.11421411
000370 e9 a9 37 bd 26 fe 55 3b 2e 75 de 3c 8e 55 a2 3c
       -0.044839773 0.0032652705 0.027155485 0.019816186
000380 88 c7 94 3d a4 1f 8c be bb ce 19 3e 47 c3 09 be
       0.0726462 -0.2736789 0.15020268 -0.13453399
000390 a8 18 3f 3d 42 88 38 3d 41 df c5 bd 89 dc 52 3e
       0.046654373 0.04505182 -0.09661723 0.2059194
0003a0 c2 f8 c4 bd 4d f3 02 be 18 69 a4 bc 87 53 8b 3d
       -0.09617759 -0.12788124 -0.020069644 0.06803041
0003b0 b3 27 78 3e 65 e4 84 bc ce c6 0f bd 4e 7e 83 be
       0.24233894 -0.016222188 -0.035101704 -0.256823
0003c0 7f b2 f6 bb 56 53 49 3d b5 2c 19 be 3f 65 29 3d
       -0.0075286026 0.04915174 -0.1495846 0.04135632
0003d0 bf 0e 3d bd ce 6a 03 be 1e 59 fc bc a7 47 8f bd
       -0.04615664 -0.12833712 -0.030804213 -0.069960885
0003e0 64 5c 9d bd e8 cf 78 bd 93 b9 62 be b1 f9 89 3d
       -0.07683638 -0.06074515 -0.22141103 0.06737078
0003f0 54 82 a7 be 7c 59 a2 3b 6e 49 dd bb 58 7f 04 bd
       -0.3271662 0.004954515 -0.0067531383 -0.032348007

fc2.bias f4 [48]
000000 83 cb b2 bd 3f c6 6c be 2c db 82 be 41 23 ee bd
       -0.08730223 -0.231225 -0.2555784 -0.11627818
000010 01 bb a9 be 08 35 6a be 71 7e a3 be 67 85 72 be
       -0.33150485 -0.22871792 -0.31932405 -0.23683701
000020 34 72 eb be 20 b1 0b be 42 80 6b bd 8a 99 21 be
       -0.45985568 -0.13641787 -0.057495363 -0.15781227
000030 06 42 a4 be 5f c2 bb be 84 4b a6 be 02 a2 86 be
       -0.32081622 -0.3667173 -0.3247949 -0.26295477
000040 c1 65 a8 3c 9b 2d 79 be c9 ff 90 be 9a 7f 27 be
       0.020556333 -0.24333803 -0.2832015 -0.1635727
000050 1b 5f 30 be 7e 2e 8c be aa 8a d5 be cd 7e 82 3e
       -0.1722378 -0.2737922 -0.41707355 0.25487366
000060 e9 4a 7a be 7b 73 87 be d7 92 74 be 1b 0f 92 be
       -0.24442638 -0.26455292 -0.2388414 -0.2852715
000070 68 39 4f be dc 63 8c be 56 f6 96 be 1b 73 a5 bd
       -0.20236742 -0.27419937 -0.29484814 -0.08078595
000080 1c e5 29 be f0 23 7c be b8 3b 10 be 0d 6d 6c 3b
       -0.16591305 -0.24623084 -0.14085281 0.0036075742
000090 e0 e1 89 bd 62 ad 28 be 9d 85 ff bd 84 b0 9a be
       -0.06732535 -0.1647239 -0.124766566 -0.30212796
0000a0 90 b3 90 be 68 6d 74 be 28 7f 6f be 98 ee 2b be
       -0.28261995 -0.2386986 -0.2338835 -0.16790235
0000b0 55 75 31 be f1 27 06 be af 5c 49 be 5f 15 a5 be
       -0.17329915 -0.13101174 -0.19664262 -0.32242867

fc3.weight f4 [1, 48]
000000 f9 b4 19 3c 59 c4 ff 3c 35 56 3f 3d d8 98 19 3b
       0.009381526 0.031221556 0.046713073 0.002343705
000010 97 7d 16 bc 7a aa 42 3c 47 2b d1 bc fe 6b 6d bc
       -0.009185216 0.011881465 -0.025533332 -0.014491079
000020 48 ea bc bc 93 f4 47 bc 3c e3 61 3b 92 4d 2d bc
       -0.023060933 -0.012204307 0.0034467718 -0.010577576
000030 e6 31 9d bc ba 36 60 3a 5d a1 33 bc d8 3e 46 3c
       -0.019188832 0.0008553077 -0.010963765 0.012099944
000040 31 a1 28 3e c7 0a 6f 3c b4 33 91 3b 5e e2 c4 3d
       0.1646774 0.014589972 0.0044312123 0.096134886
000050 82 4b 4e 3c ba 6f c4 3c 6d 86 1a b9 55 2b d2 bd
       0.012591245 0.023979057 -0.00014736662 -0.10262171
000060 0f 6d 6d 3c 7b 5d 84 bc f9 42 ce bc 39 b4 bb 3b
       0.014491334 -0.016157856 -0.02517842 0.0057282713
000070 4f 9c 91 bc ad 73 fc 3c 70 ab 73 bc dc 39 54 3c
       -0.017774729 0.030816877 -0.014872417 0.012953248
000080 d8 be f5 3c 16 df 36 bc 45 a8 b6 bc 51 13 4f bd
       0.029998228 -0.011161586 -0.022297034 -0.05055553
000090 44 1f 2b be f0 f5 75 3d b6 e0 30 3c c3 55 3f bc
       -0.16711146 0.060048997 0.010795763 -0.011678162
0000a0 f1 50 11 bd db c4 80 3c 5e 06 e0 3c cf 49 b4 bc
       -0.035477582 0.015718868 0.027346786 -0.02200785
0000b0 c7 bd f6 3b b0 a7 37 bc 32 b4 d7 bd 8f 3e ac 3b
       0.0075299474 -0.011209413 -0.105324164 0.005256481

fcs4.weight f4 [24, 8]
000000 22 f3 18 3e 4b d3 15 be 0a d8 25 3e c2 06 50 3e
       0.14936498 -0.14631383 0.16195694 0.20315078
000010 48 e9 db 3c 7c 13 23 be 98 11 22 3d a0 db 28 bd
       0.026844636 -0.15925401 0.03956756 -0.041225076
000020 37 7c 39 3e 89 53 d4 bd 7e 82 cc bd 13 c0 09 bf
       0.1811379 -0.103674956 -0.09985827 -0.53808707
000030 a9 5e 4f bf f3 2d 48 3f ad d7 bf bd 97 4b 38 bf
       -0.81003815 0.7819511 -0.09367309 -0.7199034
000040 ae dc f3 bd 29 63 a7 bd d0 56 b2 3c f4 52 a1 3d
       -0.11907326 -0.0817321 0.021769911 0.0787715
000050 f8 0f 1c bd 64 fe a4 bd fc 70 b7 3d 1f 3c 4b be
       -0.038101166 -0.08056334 0.08957097 -0.19847153
000060 5e 70 77 3b b2 a6 31 be 17 50 12 bd 1d 8f 76 3d
       0.0037756185 -0.17348745 -0.03572091 0.060195077
000070 84 58 03 3d 6f cb 15 be 60 34 b3 3d b3 04 4c 3e
       0.032066837 -0.14628385 0.08750224 0.19923668
000080 77 b9 a5 be 21 eb 25 bf 52 fd fc be 45 1c 1d bf
       -0.3236806 -0.64811903 -0.49412018 -0.6137126
000090 7d 53 e5 be 3e 50 bc 3f 75 8b fb bc 54 e9 45 bd
       -0.4479026 1.4711988 -0.030706147 -0.048318222
0000a0 5b 46 6c be 23 3c f6 be 1d 68 3e bf 0d 23 28 bf
       -0.23073713 -0.48092756 -0.74377614 -0.65678483
0000b0 02 09 b1 be 8d 27 eb be 2e e4 86 3f 85 43 97 3c
       -0.34577185 -0.45928612 1.0538385 0.018464813
0000c0 4d 40 17 3e 10 04 b7 bd bc 4f 1d be 9f 3b a2 3d
       0.14770623 -0.08936322 -0.15362448 0.07921528
0000d0 a4 d9 9b 3d 62 f1 21 ba f2 cc 93 bd 33 bf 8d bd
       0.07609871 -0.00061776314 -0.072168246 -0.06921234
0000e0 5e 12 d9 3d e4 fa 68 3d 60 54 b2 3d d9 da a2 3d
       0.105992064 0.056879893 0.087074995 0.07951898
0000f0 73 67 43 be a1 48 df bc 0c b8 b1 be 1b fa 9f bc
       -0.19082431 -0.027256312 -0.3471073 -0.01952844
000100 73 2f 4f be 0a e6 50 be 98 9d 4e be d4 e5 00 3e
       -0.20232944 -0.20400253 -0.20177305 0.12587672
000110 30 06 ae 3c 00 5e f3 39 08 fc 04 3d ca 35 9e bd
       0.021243185 0.00046418607 0.03246692 -0.07725103
000120 9c 7d 26 3e da 6e a0 3d 1f 83 0c 3e bb f9 c5 3d
       0.16258854 0.07833643 0.13721894 0.09666773
000130 5c ca 90 3e dc 16 af 3e 94 84 18 3c 55 8b 69 3e
       0.28279388 0.34197128 0.009308953 0.22807057
000140 a8 7d 8e be 4c 44 b2 bd b6 63 08 3e a1 3a 4a 3d
       -0.27830243 -0.08704433 0.13319287 0.04937232
000150 e7 3b a2 3d a9 13 1e be 61 ff cb be 91 14 f7 bd
       0.07921582 -0.15437187 -0.39843276 -0.120644696
000160 bb fd 1f be cf f5 ac be f1 fe bd be dc 36 94 be
       -0.15624134 -0.33781287 -0.37108567 -0.28948104
000170 9b da 3b be 59 35 79 be 8f 5a 94 bd b8 4d 1a 3e
       -0.1834511 -0.24336757 -0.07243835 0.1506871
000180 ce fb cc 3e 7e 9d 25 3e e2 44 51 3d fc fd 9a 3d
       0.40035862 0.1617336 0.051091082 0.07567975
000190 b6 cb 92 3e c1 aa 81 3e c8 af 06 3d 7c 6e 85 be
       0.28671044 0.25325587 0.03288248 -0.26060855
0001a0 6b 00 a8 be 06 3b bf be 94 de b0 be 83 10 42 bf
       -0.3281282 -0.3734972 -0.34544814 -0.75806445
0001b0 e7 b1 43 bf 07 e5 dc be 02 2a c7 3e 2d 58 d9 bd
       -0.7644333 -0.43143484 0.38899237 -0.10612521
0001c0 98 5c 4e 3e e0 16 15 bd 5e 84 03 3e fc 3d d8 bd
       0.20152509 -0.03639877 0.12843463 -0.105586976
0001d0 9b 8d 4b be dd 9c 26 be 18 3e d6 bd 6c 22 85 bd
       -0.19878237 -0.16270776 -0.10461062 -0.06500706
0001e0 05 c7 ec bd b1 e6 30 3e 3a cf ae bd a4 ae d4 3d
       -0.115613975 0.17275502 -0.08535619 0.103848726
0001f0 15 fb 96 3d 02 21 0e bd df 1c fd be 3d 42 19 3c
       0.07372109 -0.034699447 -0.4943609 0.009354171
000200 88 5a 46 3d 14 f8 b8 3d 74 25 7e bd 26 76 8f bd
       0.04842618 0.09031692 -0.062047437 -0.07004957
000210 d5 38 c5 bd 8d 2b 4a be 50 d2 92 3d 4b 06 1e be
       -0.096299805 -0.19743176 0.0716902 -0.15432088
000220 22 66 29 be 18 5f 23 3c c2 ca 87 3e 18 fc 78 3e
       -0.16542867 0.009971403 0.2652188 0.24314916
000230 02 0e c6 bd 71 1a 7a 3e 3a d4 79 3e 5b 53 38 3d
       -0.096706405 0.24424149 0.24397364 0.04500137
000240 5c 82 7b 3c 9d 5e 25 3e c3 81 c6 3d 8f 74 18 be
       0.015350904 0.16149373 0.09692719 -0.14888214
000250 4d 0f e2 bd fe 64 27 3a 7f 3b 2f be 84 42 54 bd
       -0.11038075 0.00063855934 -0.1711254 -0.051821247
000260 22 5a e7 3d 5a b8 6c 3d b0 30 29 3e b4 35 9f bc
       0.11296488 0.057793 0.16522479 -0.019434787
000270 c6 7f 07 be a5 ce 1a 3e 1d 81 72 bd 72 2c 1a bc
       -0.13232335 0.15117891 -0.059205163 -0.009410011
000280 67 2f cf bd 5f a4 3f 3d 4a 69 63 be 90 af e9 3d
       -0.10116463 0.046787616 -0.22208133 0.11410439
000290 8e bd 45 3e 1a 7e d8 3d 24 07 ae 3d 36 80 57 3e
       0.1931059 0.10570927 0.08497456 0.21045002
0002a0 f9 63 30 be f6 6b af be 55 63 79 be ee b5 2f be
       -0.17225637 -0.34262055 -0.24354298 -0.17159244
0002b0 58 55 b2 be a6 60 86 be b2 0a e9 3e 22 b8 e7 3b
       -0.34830737 -0.26245612 0.45515972 0.007071511
0002c0 ff c7 11 3e 81 dd 07 bd 50 f2 dc bb a3 7d f3 bc
       0.14236449 -0.033170227 -0.006742753 -0.029722994
0002d0 1c 2d 1e 3d c6 02 20 bd 76 8b d6 3d 2c bc 12 3e
       0.03861724 -0.039065145 0.10475819 0.14329594
0002e0 5b 6a 48 3d 4e 89 ab bc f7 f2 4a bd a7 74 28 be
       0.048929553 -0.020939495 -0.049548116 -0.1645075
0002f0 3e 17 22 3c 02 d4 f1 3c cd 19 86 bf 68 f0 4f 3a
       0.009893237 0.029520039 -1.0476624 0.00079322467

fcs4.bias f4 [24]
000000 93 9f 8f be 4d 12 f4 3d ee b6 83 be aa a1 89 3c
       -0.28051433 0.11917553 -0.25725502 0.01680072
000010 49 47 a3 3d 4b a8 88 3c 69 88 ab bb cd 87 86 be
       0.07972581 0.01668181 -0.005234767 -0.26275483
000020 6b 79 1d be ba a0 4a 3e e3 3f 0e bc a0 d2 97 3e
       -0.15378349 0.19787875 -0.008682224 0.29652882
000030 c9 9b 55 3d ef 5a 3f 3c f0 dd 91 be 84 f6 a2 3d
       0.05215052 0.011679395 -0.28489637 0.079571754
000040 16 57 26 be bc 8f cd bc 0d 0e 74 bb d8 27 c6 bd
       -0.16244158 -0.025092952 -0.003723982 -0.09675568
000050 08 32 8f 3d 7c 92 7e 3e b2 42 8e be ff 05 77 3d
       0.069919646 0.24860567 -0.2778526 0.060308453

fc5.weight f4 [48, 25]
000000 23 42 0e be 0d e7 65 bb 4a 75 56 be 52 99 58 3d
       -0.13892417 -0.0035080344 -0.2094318 0.052880593
000010 1e ca 06 be 4c 7b b7 bd fa 07 5c bd 5b 31 04 bc
       -0.13163039 -0.08959064 -0.053718545 -0.008068408
000020 2d 5b b4 3c a2 d2 91 bd 6e cd 3d ba 24 a7 50 bd
       0.022016132 -0.07120253 -0.0007240389 -0.050940648
000030 75 bd 6f bc 58 db 25 3d 9e 88 a3 bd ee 61 02 be
       -0.014632572 0.040492386 -0.07985042 -0.1273267
000040 2c 26 58 be 49 08 33 3d b7 e2 fc 3d 93 65 86 bc
       -0.21108311 0.043709073 0.1234793 -0.016405856
000050 a6 0c 1a bd 76 bb cc bc 0f 26 76 3c 86 d4 c3 bd
       -0.03760972 -0.024991732 0.015023722 -0.0956202
000060 bb be 96 3c 71 13 9b be 7e e4 bf bd 13 3d 47 be
       0.018401494 -0.3028827 -0.09369753 -0.19456892
000070 e9 3f e1 3c 51 02 a4 bb e9 7f 14 3c 70 28 1e bd
       0.027496295 -0.005005159 0.009063699 -0.038612783
000080 44 cd 49 bd 68 6f 10 3d 52 e9 93 3b 55 dc 6d bd
       -0.049268022 0.035262495 0.004513898 -0.058071453
000090 21 53 49 3d 1d 32 3f be ac ce a5 3d 40 a6 96 be
       0.049151544 -0.1867146 0.0809606 -0.29423714
0000a0 72 ab 9a bd 87 b2 7a be 0d be 0c 3e e1 c4 11 bd
       -0.07552232 -0.24482165 0.13744374 -0.03558815
0000b0 75 47 b2 3d 7c af db 3d 3d 38 41 be 77 9c 4e 3e
       0.087050356 0.1072683 -0.1886911 0.20176874
0000c0 d9 fb eb bb 9f 64 91 3e af ec 09 be 28 c0 b2 3b
       -0.0072016534 0.2839708 -0.13469194 0.0054550357
0000d0 cc 48 8d be 9f 25 0f bd 82 cd 89 3b 7d 49 3b bd
       -0.27594602 -0.034947988 0.0042054066 -0.04572438
0000e0 98 8f 97 bd 45 9d 84 bd 20 e0 5c be 69 76 cf 3d
       -0.07400435 -0.06475309 -0.21569872 0.10130007
0000f0 9b 70 06 be 05 dc ae 3b 2a e2 6a 3d 6e cb d8 bc
       -0.13128893 0.005336287 0.057344593 -0.02646419
000100 10 84 a1 bd 33 14 cd bd 51 9b d6 bc 12 10 99 bb
       -0.07886517 -0.10013618 -0.026197108 -0.004671105
000110 30 e2 86 3d 1c c2 f1 bd b6 7d cf bc d6 d6 a9 3c
       0.065861106 -0.118046016 -0.025328498 0.020732325
000120 ed b5 a5 bd 8b 99 1f 3c 09 18 1d be 29 6c 97 be
       -0.0809134 0.009741197 -0.153412 -0.29574707
000130 2f 69 c3 be aa fe a2 bd ab 24 e1 bc e3 e8 09 be
       -0.38166186 -0.079587296 -0.027483305 -0.13467745
000140 44 48 3e be 8c 4d 3c be 53 9f c0 bd 58 22 15 be
       -0.18582255 -0.18388957 -0.09405389 -0.14563882
000150 33 c6 d8 3d 66 5d c7 bd c5 50 d3 bc 2d 8a db 3a
       0.105846785 -0.09734611 -0.02579535 0.0016749554
000160 db 54 7f bd ae 90 91 be ac d1 16 bc f2 80 83 be
       -0.062336784 -0.28430694 -0.009205263 -0.25684315
000170 8e cc 0c be f9 4d 03 3e 88 c8 ca 3c ad 42 3a 3d
       -0.13749906 0.12822713 0.024753824 0.045473743
000180 1c ac 0c bd 75 48 d9 3d 76 4e 68 bc 24 b5 19 3f
       -0.034343824 0.10609523 -0.014178863 0.60042024
000190 d8 57 38 3c 2f 57 d8 bd 41 43 c7 bd fd 1a 02 3d
       0.011251412 -0.10563504 -0.097296245 0.03176402
0001a0 ac 6a 7d 3d 18 9e 2f be b3 a4 38 bd 7a 48 7b be
       0.06186931 -0.17150152 -0.045078944 -0.24539366
0001b0 d8 9c 96 3d ed 68 9a 3d 98 1d 5c bd 3f 6f 94 3c
       0.07354134 0.07539544 -0.05373916 0.018119453
0001c0 d6 17 30 bd a4 ad 23 be ce 30 54 bd df 09 8e 3c
       -0.04299148 -0.15984207 -0.051804356 0.017338691
0001d0 bd 68 db bd 01 b8 b3 bd 0e 01 f7 3c 1a 86 13 3c
       -0.107133366 -0.0877533 0.03015187 0.00900414
0001e0 b7 f8 a7 3d fc fd 0b be df 96 8a 3d 4e bc 19 be
       0.082017355 -0.13671106 0.067670576 -0.15013239
0001f0 de 58 95 3e 81 5b a8 be e3 87 bb bd 37 ff 43 be
       0.29169363 -0.32882312 -0.09156778 -0.19140325
000200 66 5e 3d bd 1d 0b 16 3d 6b 20 ba 3d 1a eb 6a bd
       -0.046232603 0.036631692 0.090882145 -0.057353117
000210 15 f0 c2 bc 79 d6 87 bd 9c b7 21 be 0f 24 cd bd
       -0.02379612 -0.06632704 -0.15792698 -0.10016643
000220 86 7c f8 3c 44 e4 08 3d 7b e6 2a bd b5 e3 72 be
       0.030332815 0.033420816 -0.04172371 -0.23719676
000230 6d c8 be 3b e7 4a a7 be 36 f2 9c 3d 7e 5f 1b 3e
       0.0058222325 -0.32674333 0.076633856 0.15173146
000240 31 5c 9c bb ce 8d c1 bd 60 ba 91 bd 00 85 8b bd
       -0.0047717323 -0.09450875 -0.07115626 -0.06812477
000250 a0 01 be 3d 9d 76 b9 3d af 84 e3 3d 43 ac 90 be
       0.09277654 0.09055827 0.11109292 -0.28256425
000260 c1 18 14 be 31 d9 2e 3d c0 fe 62 3e 54 bb 04 bd
       -0.14462568 0.0426876 0.22167492 -0.032405213
000270 27 a8 ce 3d 37 a6 cb 3d 4d 17 c9 bb 4a 22 94 3d
       0.10090666 0.09943812 -0.006136811 0.072331026
000280 ee 97 b8 3d b9 87 07 be bc 7a 88 be ac 6b 28 bd
       0.09013353 -0.13235368 -0.2665614 -0.04111831
000290 cd 63 04 3d 26 14 4d bd be 0c cc bd 6a 11 5b 3e
       0.03232174 -0.050068043 -0.09963368 0.21393362
0002a0 f2 34 b8 3d 62 f2 4f 3d 39 8f 0d be 2d 71 d4 bd
       0.089944735 0.050768264 -0.13824166 -0.10373149
0002b0 f1 67 fe bd 56 02 59 bc af 40 85 be b6 77 b2 be
       -0.12422169 -0.013245186 -0.26025912 -0.34856957
0002c0 ab 79 60 bc 3f f8 0c be 1a e3 72 be 19 34 4e be
       -0.013700883 -0.13766573 -0.23719445 -0.20137061
0002d0 50 fc d0 be b7 e7 4d be a4 b7 48 be e2 a0 68 be
       -0.408175 -0.20107923 -0.19601303 -0.22717622
0002e0 ed 6a b1 3c b7 fb 5e be 7e 35 4e 3d 51 e2 c2 bd
       0.021657431 -0.21775709 0.050343983 -0.09515823
0002f0 8b 68 3f 3d 93 87 ab be 3e 1e 43 3d 77 ce cc be
       0.04673056 -0.33501872 0.047636263 -0.4000127
000300 35 43 2c be 65 25 7e 3e 14 e5 43 3d 05 21 47 3e
       -0.16822512 0.24818952 0.047825888 0.1944619
000310 21 f5 20 3d dc 40 c6 3d 64 81 3f be 14 d0 7d 3f
       0.039296273 0.0968034 -0.18701702 0.9914563
000320 f0 aa 94 be 83 0a ff bd f3 66 a0 be b7 bd c5 3c
       -0.29036665 -0.12453177 -0.31328544 0.024138315
000330 0d 30 c5 3d 3b 1f 7d bd 6c 08 5e be 8a b4 07 be
       0.096283056 -0.06179736 -0.216829 -0.13252464
000340 dc a4 49 be 40 c1 f0 3c 97 7b 03 bd b1 13 0e 3d
       -0.19691795 0.029389024 -0.032100286 0.034686748
000350 17 f7 fe 3c d0 23 cf 3c 58 ff 0d be 40 55 eb 3b
       0.031123681 0.025285631 -0.13866937 0.0071817935
000360 fd d6 15 be 8e f1 24 3a 2f 88 64 3e f1 4d e7 bd
       -0.14632793 0.0006292098 0.22317575 -0.11294163
000370 13 69 ea bd cf ec ff 3c 31 0c 22 3c d5 28 c0 bd
       -0.114458226 0.031240849 0.009890602 -0.09382788
000380 50 c8 a7 3c 4f 65 a7 be 39 0f 59 3c 08 a6 12 be
       0.020481259 -0.3269448 0.013248258 -0.14321148
000390 ec d6 8f 3c b0 44 28 be b4 e1 32 be 60 68 ca bd
       0.017558537 -0.16432452 -0.17468911 -0.09883189
0003a0 3e 3a 5c bd 19 5f 5e be 72 a8 1b bd 57 eb fc bd
       -0.05376648 -0.21715964 -0.03800244 -0.12349575
0003b0 bc 11 66 bc 25 ab 8e 3d 7c 38 6a 3b 5b fc 9f be
       -0.014042314 0.06966237 0.0035739234 -0.3124722
0003c0 0b f8 7b bd aa ad 99 be 84 95 0c 3d 03 69 51 3d
       -0.06151585 -0.30015308 0.034322277 0.051125538
0003d0 4c db ac 3d 43 0a 9b 3d 2f d0 b9 bd 99 ff d9 bc
       0.08440265 0.07570317 -0.09072911 -0.026611136
0003e0 53 e7 e9 bd 70 d4 eb 3e 15 1b 2b be 84 08 1a bb
       -0.11421075 0.46060514 -0.1670955 -0.002350361
0003f0 2e 94 a0 be 15 32 21 be d2 6b 25 bc 23 b2 b2 bd
       -0.31363052 -0.15741761 -0.010096507 -0.08725383

fc5.bias f4 [48]
000000 0f 29 b7 bd c1 bb d9 bd 5b 4d b5 be 4b 46 6a bd
       -0.08943378 -0.10631514 -0.3541058 -0.057195943
000010 14 92 f5 bd aa 3d 9c be 85 d2 4d be a5 dd e3 bd
       -0.11990753 -0.30515796 -0.20099838 -0.1112626
000020 84 2b 65 bd 69 07 a2 bd ea 96 43 be 5f 39 8d be
       -0.055949703 -0.079115696 -0.19100538 -0.27582833
000030 82 17 50 be 76 40 bc 3c aa fc 2c be 3b af 5e be
       -0.20321468 0.022979956 -0.16893259 -0.21746533
000040 4e fc 76 be df ac 41 3d e2 5b 60 be af e6 ad be
       -0.24119684 0.047284003 -0.2191005 -0.3396506
000050 ef 58 6c be a1 70 e1 3c c6 5b 72 be 21 8a 50 bd
       -0.230808 0.027519526 -0.23667821 -0.05091298
000060 56 32 a7 be b4 72 5d be b9 3a f7 bd 7a 29 06 be
       -0.3265559 -0.21625787 -0.12071747 -0.1310176
000070 9c 0f 87 be 00 de 12 be 75 30 64 be 74 86 1d 3e
       -0.26379097 -0.14342499 -0.2228411 0.15383321
000080 03 ed 91 be 0c 09 44 be 44 dd 9d be 01 54 2c be
       -0.28501138 -0.19144076 -0.30832875 -0.1682892
000090 f5 72 87 bc a1 98 f4 bc 92 df e7 bc 62 2f 0b be
       -0.016534308 -0.029857935 -0.028304849 -0.13592294
0000a0 f0 37 28 be 6f 1c e5 bd eb 04 0b 3d 13 b0 85 be
       -0.16427588 -0.11187064 0.033940237 -0.26110896
0000b0 fa 39 55 be 7b d7 4f be 8b 97 63 be 11 6b e7 bd
       -0.20822898 -0.20297043 -0.22225778 -0.11299718

fc6.weight f4 [1, 48]
000000 bb 7c 26 bb 5b 80 d2 3d 1c 6c e8 3c 4f 92 83 3d
       -0.0025403935 0.10278388 0.028371863 0.064243905
000010 f4 9b fb 3c c2 60 ae bc 94 81 d0 bd 09 c5 7c bd
       0.030714013 -0.021286372 -0.10180965 -0.061711345
000020 b7 e9 36 bc a4 21 06 bd 81 9a 36 bd 59 41 74 3c
       -0.01116412 -0.032746926 -0.04458094 0.014908158
000030 e9 ad 31 3c b7 4d a9 3d 9d 4d 2f bc 71 76 e0 3c
       0.010844686 0.08266776 -0.010699657 0.027400227
000040 60 a6 9e 3b 88 eb 05 bd 3b e4 a8 bc 33 f7 55 bc
       0.004841611 -0.032695323 -0.020616641 -0.013059425
000050 f8 97 ad bc 30 de 4d bd 5d 5c e8 3c 20 be 97 3b
       -0.021190628 -0.050260723 0.028364355 0.004630819
000060 e5 d4 42 bd b3 6f 13 3d 14 f4 46 3c d9 42 5d 3c
       -0.047566313 0.035995197 0.012143154 0.013504707
000070 94 80 90 bc 63 9f 0c bb 19 4b 82 bd 02 0b c7 bd
       -0.017639436 -0.0021457307 -0.0636198 -0.097188964
000080 3b ca e0 3c 11 eb 0e bd 25 84 f9 bc ef f3 4c 3c
       0.027440181 -0.034892146 -0.03045852 0.01250933
000090 75 c4 fb 3c d1 77 44 bd 42 66 59 bc 2c 15 ea 3b
       0.030733326 -0.04796583 -0.013269009 0.007143637
0000a0 09 cd 9a 3c b6 67 9d bc 30 c1 e3 3c 5f 8b 80 ba
       0.018896597 -0.019214492 0.02780208 -0.0009807161
0000b0 64 8e 21 bb fe e7 99 3c dc f5 f8 bc e0 03 1c bd
       -0.0024651522 0.01878738 -0.030390672 -0.038089633

bn1.weight f4 [24]
000000 00 00 80 3f 07 1e 7f 3f 00 00 80 3f ee 1e 17 3f
       1.0 0.99655193 1.0 0.5903157
000010 de 48 41 3f 65 34 27 3f 21 b2 43 3f 83 44 4e 3f
       0.7550181 0.6531432 0.7644368 0.8057329
000020 99 2f 4c 3f 5f d7 2a 3f 5c 37 3c 3f 44 85 44 3f
       0.7976013 0.6673488 0.7352197 0.7676585
000030 df 24 62 3f 64 1b 25 3f 00 00 80 3f d2 79 05 3f
       0.8833751 0.6449492 1.0 0.5213901
000040 60 70 66 3f 16 f8 1c 3f f9 c6 27 3f 31 1c e8 3e
       0.9001522 0.6131605 0.65537983 0.45334008
000050 87 c6 20 3f 5e eb 22 3f aa 5c 38 3f ba 13 4d 3f
       0.6280293 0.6364039 0.72016394 0.80108225

bn1.bias f4 [24]
000000 a5 90 b5 3e 46 33 0e bd 26 0c 55 3e b7 f0 b3 3e
       0.35461918 -0.034716867 0.20805416 0.35144588
000010 2c 86 80 3e f0 22 cb 3e 75 80 81 3e 57 b5 86 3e
       0.25102365 0.39675093 0.25293317 0.26310226
000020 02 da 47 3e e7 aa 40 3e 1f b9 dd 3d 0f d5 98 be
       0.19516757 0.18815194 0.10826325 -0.2985005
000030 7d 4e a4 3d d1 8a 53 be e3 50 cb 3e e4 3c 44 3e
       0.08022783 -0.20658423 0.3971015 0.19163853
000040 c3 c9 0f 3f 35 ba b2 3e 88 2c 19 be 94 e5 a6 3d
       0.5616724 0.3490769 -0.14958394 0.08149257
000050 fa 02 bb bd ef 4e 91 3c e5 24 9e be 2b 9d d6 bb
       -0.09131427 0.017737834 -0.30887523 -0.0065494976

bn1.running_mean f4 [24]
000000 00 00 00 00 53 b2 d5 3b 00 00 00 00 07 e2 90 3d
       0.0 0.006521502 0.0 0.07074361
000010 db 49 41 3c 3f 69 11 3f 04 00 00 00 83 0b 1c 3e
       0.011797394 0.5680122 6e-45 0.15238766
000020 04 00 00 00 79 de f0 3e 04 00 00 00 a9 a4 e5 3d
       6e-45 0.47044733 6e-45 0.11213047
000030 68 b3 aa 3c 5f d9 dd 3e 00 00 00 00 44 53 95 3d
       0.0208375 0.43329903 0.0 0.07291272
000040 1b 39 b1 3e 20 ee bc 3d 9a 9a 59 3d db 3f 1b 3e
       0.3461388 0.09225106 0.053125955 0.15161078
000050 d3 cd 35 3e 55 97 8e 3e 04 00 00 00 f5 c2 64 3d
       0.17754297 0.27849832 6e-45 0.055849988

bn1.running_var f4 [24]
000000 04 00 00 00 a7 ca 87 38 04 00 00 00 1c 8a 77 3b
       6e-45 6.4750486e-05 6e-45 0.0037771529
000010 2f 0f 55 39 e1 bb 71 3a 04 00 00 00 17 49 91 3b
       0.00020318919 0.00092214165 6e-45 0.004433762
000020 04 00 00 00 92 f8 a5 3b 04 00 00 00 36 2e 07 3b
       6e-45 0.0050650323 6e-45 0.002062691
000030 b7 fc 2b 3a d5 94 95 3a 04 00 00 00 47 69 a6 39
       0.000656079 0.0011412153 6e-45 0.00031740425
000040 05 62 2c 38 48 20 81 39 ca 4a 3a 3b ae 99 55 37
       4.1099283e-05 0.0002462885 0.0028425925 1.2731571e-05
000050 25 ca c5 3b 3a 5c fd 37 04 00 00 00 50 d3 c6 39
       0.0060360604 3.0202897e-05 6e-45 0.00037922943

bn2.weight f4 [24]
000000 00 00 80 3f 00 00 80 3f 00 00 80 3f 00 00 80 3f
       1.0 1.0 1.0 1.0
000010 00 00 80 3f 00 00 80 3f 00 00 80 3f 00 00 80 3f
       1.0 1.0 1.0 1.0
000020 00 00 80 3f 00 00 80 3f 00 00 80 3f 00 00 80 3f
       1.0 1.0 1.0 1.0
000030 00 00 80 3f 00 00 80 3f 00 00 80 3f 00 00 80 3f
       1.0 1.0 1.0 1.0
000040 00 00 80 3f 00 00 80 3f 00 00 80 3f 00 00 80 3f
       1.0 1.0 1.0 1.0
000050 00 00 80 3f 00 00 80 3f 00 00 80 3f 00 00 80 3f
       1.0 1.0 1.0 1.0

bn2.bias f4 [24]
000000 00 00 00 00 00 00 00 00 00 00 00 00 00 00 00 00
       0.0 0.0 0.0 0.0
000010 00 00 00 00 00 00 00 00 00 00 00 00 00 00 00 00
       0.0 0.0 0.0 0.0
000020 00 00 00 00 00 00 00 00 00 00 00 00 00 00 00 00
       0.0 0.0 0.0 0.0
000030 00 00 00 00 00 00 00 00 00 00 00 00 00 00 00 00
       0.0 0.0 0.0 0.0
000040 00 00 00 00 00 00 00 00 00 00 00 00 00 00 00 00
       0.0 0.0 0.0 0.0
000050 00 00 00 00 00 00 00 00 00 00 00 00 00 00 00 00
       0.0 0.0 0.0 0.0

bn2.running_mean f4 [24]
000000 00 00 00 00 00 00 00 00 00 00 00 00 00 00 00 00
       0.0 0.0 0.0 0.0
000010 00 00 00 00 00 00 00 00 00 00 00 00 00 00 00 00
       0.0 0.0 0.0 0.0
000020 00 00 00 00 00 00 00 00 00 00 00 00 00 00 00 00
       0.0 0.0 0.0 0.0
000030 00 00 00 00 00 00 00 00 00 00 00 00 00 00 00 00
       0.0 0.0 0.0 0.0
000040 00 00 00 00 00 00 00 00 00 00 00 00 00 00 00 00
       0.0 0.0 0.0 0.0
000050 00 00 00 00 00 00 00 00 00 00 00 00 00 00 00 00
       0.0 0.0 0.0 0.0

bn2.running_var f4 [24]
000000 00 00 80 3f 00 00 80 3f 00 00 80 3f 00 00 80 3f
       1.0 1.0 1.0 1.0
000010 00 00 80 3f 00 00 80 3f 00 00 80 3f 00 00 80 3f
       1.0 1.0 1.0 1.0
000020 00 00 80 3f 00 00 80 3f 00 00 80 3f 00 00 80 3f
       1.0 1.0 1.0 1.0
000030 00 00 80 3f 00 00 80 3f 00 00 80 3f 00 00 80 3f
       1.0 1.0 1.0 1.0
000040 00 00 80 3f 00 00 80 3f 00 00 80 3f 00 00 80 3f
       1.0 1.0 1.0 1.0
000050 00 00 80 3f 00 00 80 3f 00 00 80 3f 00 00 80 3f
       1.0 1.0 1.0 1.0
