financial/finance/trained_models/TD3__volatility__ShortfallPenalties/actor.pth (torch, 9687 bytes, 9 tensors)

fc1.weight f4 [24, 8]
0	0xbe3135c9	-0.17305674
1	0x3db77ed3	0.08959737
2	0x3dc484ac	0.09595618
3	0x3e2e467c	0.17019075
4	0xbd96494a	-0.073381975
5	0xbb0de012	-0.002164845
6	0xbb5c074b	-0.0033573683
7	0x3dfec03c	0.124390095
8	0x3e3cbe14	0.18431884
9	0xbda8f94e	-0.08250676
10	0xbd813023	-0.063080095
11	0xbe2cd43d	-0.16877837
12	0xbc75fe07	-0.015014178
13	0x3e1ed457	0.15510689
14	0x3e29e716	0.16592059
15	0xbd73a28c	-0.05948119
16	0x3df13119	0.11776943
17	0xbd3756d5	-0.044760544
18	0xbe0ed315	-0.13947709
19	0x3e220998	0.15823972
20	0x3df88b5e	0.12135957
21	0x3d43030a	0.04761032
22	0xbd89ebf0	-0.06734455
23	0x3e820914	0.2539755
24	0x3c983208	0.018578544
25	0x3e0a3694	0.13497382
26	0x3dae7a88	0.08519465
27	0x3dddfc70	0.10839164
28	0xbe3769ac	-0.17911404
29	0xbde7cc7c	-0.11318299
30	0x3dfabb74	0.12242785
31	0xbd2e3024	-0.04252638
32	0xbe35d88c	-0.17758387
33	0x3e3e15e2	0.18563035
34	0xbb90a5c0	-0.00441429
35	0x3e289d98	0.16466367
36	0xbe236041	-0.15954687
37	0x3d8fee44	0.070278674
38	0xbd9d7706	-0.076887175
39	0xbdafeb98	-0.08589858
40	0xbbf9410b	-0.0076066307
41	0x3a8372bd	0.0010028702
42	0xbbdd608e	-0.006755895
43	0x3cf33d23	0.029692238
44	0x3d3dc735	0.046332557
45	0x3cacbb0f	0.02108529
46	0xbdea1ec2	-0.11431648
47	0xbe2e86f3	-0.17043667
48	0xbe4c34ea	-0.1994206
49	0xbe07b273	-0.13251667
50	0xbe28583b	-0.16439907
51	0xbd3d4d92	-0.046216555
52	0xbcceb7b3	-0.025234079
53	0xbd8afb7e	-0.067862496
54	0xbd20d65c	-0.03926693
55	0x3e6ef8ea	0.2333714
56	0x3deb6f6c	0.114958614
57	0xbd4dfe7c	-0.050291523
58	0xbda52c2a	-0.08065064
59	0x3e036928	0.12833083
60	0x3e35daee	0.17759296
61	0xbe3f63c0	-0.18690395
62	0xbd34a540	-0.044102907
63	0xbc9b2eb0	-0.01894316
64	0xbd51c78a	-0.051215686
65	0x3e0039db	0.1252207
66	0x3bd48f57	0.006486814
67	0x3d87d609	0.06632621
68	0x3d1a718d	0.037705947
69	0x3af41487	0.001862184
70	0xbe672b0b	-0.22575013
71	0xbe15b453	-0.1461957
72	0xbba2ad5b	-0.0049645132
73	0x3c09fb21	0.00842169
74	0xbd2f3eb7	-0.04278442
75	0x3dacfa79	0.08446211
76	0xbdaadd25	-0.08342961
77	0x3c709c93	0.014685768
78	0x3e3f2268	0.18665469
79	0x3dbe6882	0.09297277
80	0x3e0377e0	0.12838697
81	0xbcb10c18	-0.021612212
82	0xbe36514d	-0.17804451
83	0xbdda40f5	-0.10656921
84	0x3d6bab59	0.057536457
85	0xbdc807e8	-0.09767133
86	0x3c59cf86	0.013294106
87	0x3e5cf608	0.21578228
88	0x3d29b240	0.041429758
89	0xbd2fff8e	-0.042968325
90	0x3d31a734	0.043372348
91	0xbde508ba	-0.11183305
92	0xbe285e9b	-0.16442339
93	0xbe2e19e0	-0.17002058
94	0x3d044172	0.032288976
95	0x3e0da5f9	0.13832845
96	0x3d22db58	0.039759964
97	0xbdb1a802	-0.08674623
98	0xbe4c74c3	-0.19966416
99	0x3de27528	0.11057502
100	0xbded340d	-0.115821935
101	0xbd0b9570	-0.03407806
102	0xbe2f431a	-0.17115441
103	0xbdebd81f	-0.11515831
104	0x3d5b8a71	0.053598825
105	0xbd23f5aa	-0.040029205
106	0x3c5ac11b	0.013351704
107	0x3d694c53	0.056957554
108	0xbcfc3726	-0.030788016
109	0xbaa00275	-0.0012207764
110	0xbc8c93b3	-0.017160272
111	0xbdd73d5a	-0.10509749
112	0xbdf96244	-0.12176946
113	0xbd5cc185	-0.053895492
114	0x3d321382	0.043475635
115	0xbba37f6d	-0.0049895556
116	0x3d5cbd19	0.053891275
117	0xbdda60bc	-0.10662982
118	0x3e0c1d43	0.13683037
119	0x3dc977c0	0.098372936
120	0xbd0ec65b	-0.034857135
121	0xbe1104a4	-0.14161927
122	0xbc019d9e	-0.007911114
123	0x3d83d060	0.06436229
124	0xbc874c02	-0.016515736
125	0xbcd8d4ae	-0.026468601
126	0x3e0c4127	0.13696729
127	0xbcac9c72	-0.021070693
128	0x3b90450c	0.0044027623
129	0x3dac7832	0.08421363
130	0xbc3feba6	-0.011713898
131	0xbca99f5d	-0.020705873
132	0xbcb75592	-0.02237967
133	0x3cf38903	0.029728418
134	0x3c98673c	0.018603913
135	0xbdb30e2d	-0.08742938
136	0x3d8bc4c1	0.06824637
137	0x3d85f149	0.06540162
138	0x3c0d979e	0.008642105
139	0x3c0a1290	0.008427277
140	0x3d018a85	0.031626243
141	0x3cf534b5	0.02993236
142	0xbe517a1c	-0.20456737
143	0xbe16ca2b	-0.14725558
144	0xbc54d980	-0.012991309
145	0xbce7d6b4	-0.02830062
146	0xbd24391d	-0.04009353
147	0xbc533e2e	-0.012893243
148	0x3c850e30	0.016242117
149	0xbd9a5eab	-0.07537588
150	0x3d45f0f2	0.048325486
151	0x3db8148e	0.089882955
152	0x3d3c4f48	0.045974046
153	0xbdca1522	-0.09867312
154	0x3da85498	0.0821926
155	0x3d3f1732	0.04665298
156	0xbdc2bc45	-0.09508566
157	0xbd61ba84	-0.055109516
158	0x3e4e4532	0.20143583
159	0x3e316cb3	0.17326622
160	0x3d8ce515	0.068796314
161	0x3d41f6f3	0.04735465
162	0x3cec66d1	0.02885762
163	0x3b69da30	0.0035683028
164	0x3d281a5c	0.041040763
165	0x3cd085d2	0.025454435
166	0xbe2f4201	-0.17115022
167	0xbdd12e66	-0.10213928
168	0xbd1bd471	-0.038044397
169	0xbdc6339f	-0.09677815
170	0xbd0d62b1	-0.034517948
171	0x3d9db06c	0.076996654
172	0x3dc303d3	0.09522214
173	0x3d26b8a4	0.04070343
174	0x3db58784	0.08863738
175	0x3db80efb	0.08987232
176	0xbc983360	-0.018579185
177	0x3bdba548	0.0067030527
178	0x3c3dfc21	0.011595757
179	0xbb1bc456	-0.0023768148
180	0xbb688c20	-0.0035483912
181	0x3ad80e2b	0.0016483715
182	0x3da30b19	0.07961101
183	0xbe051397	-0.12995754
184	0xbd8b7838	-0.06810039
185	0x3c2984b6	0.010346582
186	0x3c6b0f38	0.01434689
187	0xbdadac24	-0.08480099
188	0xbd4a0948	-0.049325258
189	0x3c2f6b1a	0.010706687
190	0x3dbda298	0.09259528
191	0xbe09e912	-0.13467816

fc1.bias f4 [24]
0	0xbe9a3a84	-0.3012277
1	0xbdf52695	-0.119702496
2	0xbddf77b0	-0.109115005
3	0xbe474beb	-0.19462554
4	0xbe52f640	-0.2060175
5	0x3ba8deb0	0.0051534995
6	0xbdaf6aa2	-0.085652605
7	0xbbfcc200	-0.0077135563
8	0x3ba649dc	0.0050747227
9	0x3e4736ee	0.19454548
10	0xbe816fed	-0.25280705
11	0xbdf4b6cd	-0.11948929
12	0xbe5238d0	-0.20529485
13	0x3e5d61aa	0.21619287
14	0xbd8fa19e	-0.07013248
15	0x3eb66ef3	0.35631523
16	0x3d882d74	0.066492945
17	0x3b0c7e93	0.0021437749
18	0x3d7015ad	0.05861442
19	0xbe4e1c3e	-0.20127961
20	0x3a90bea1	0.001104314
21	0xbe149913	-0.14511518
22	0xbd02fa73	-0.03197713
23	0xbd21592b	-0.039391678

fc2.weight f4 [48, 24]
0	0xbd7efe6a	-0.062254347
1	0xbe28f410	-0.16499352
2	0x3e5704b0	0.20997882
3	0x3ec4da0e	0.38447613
4	0xbf19e1d3	-0.60110205
5	0x3f26bea1	0.65134627
6	0x3e7e6a4e	0.2484524
7	0xbf112432	-0.56695855
8	0xbc05ac10	-0.008158699
9	0xbdbd7803	-0.09251406
10	0x3e696a74	0.22794515
11	0x3e00edf7	0.12590776
12	0x3f0c7154	0.54860425
13	0xbe315351	-0.17316939
14	0x3c9a52b2	0.01883826
15	0xbe57d8ce	-0.21078798
16	0x3ea85806	0.32879657
17	0xbe70117f	-0.23444174
18	0x3e12e8ab	0.14346568
19	0x3e05291d	0.13003965
20	0xbdf21a1b	-0.118213855
21	0xbe910290	-0.28322268
22	0xbee9d441	-0.4566975
23	0xbeae38ae	-0.34027618
24	0xbd8fee5d	-0.07027886
25	0xbe9d871c	-0.30767143
26	0xbe5cb9c6	-0.21555242
27	0x3e9e76f5	0.30950132
28	0xbedcd04f	-0.43127677
29	0xbd1679a5	-0.036737103
30	0xbd0e41c5	-0.03473069
31	0xbee2a355	-0.44265237
32	0xbec29d44	-0.3801061
33	0x3ea6903c	0.32531917
34	0xbe03ca9e	-0.12870261
35	0xbdf3f95f	-0.11912798
36	0x3e7d6c6f	0.24748395
37	0xbe437fe9	-0.19091763
38	0x3d7e2779	0.062049363
39	0x3e5c442f	0.21510385
40	0xbe78f666	-0.24312744
41	0xbf17a0a1	-0.59229475
42	0x3e6a7124	0.22894722
43	0xbb0874ca	-0.0020821565
44	0xbeccb125	-0.399789
45	0xbc0e6473	-0.008690941
46	0xbe9111e9	-0.28333977
47	0xbdb28d7d	-0.08718393
48	0xbe452652	-0.192529
49	0x3e92c6a0	0.28667164
50	0xbe2de724	-0.16982704
51	0xbbcd32af	-0.0062621455
52	0x3d76c43f	0.06024575
53	0xbd3b00fc	-0.045655236
54	0xbd0b1c51	-0.03396255
55	0xbdababbc	-0.08382365
56	0xbc7c9192	-0.015415566
57	0x3e16a2fb	0.1471061
58	0xbc3ffb7e	-0.011717675
59	0xb9b90400	-0.0003528893
60	0x3db28c71	0.08718193
61	0x3d49da8c	0.04928069
62	0xbe50c408	-0.2038728
63	0x3e3000ea	0.17187849
64	0xbd594fa9	-0.053054485
65	0xbccd9a20	-0.025097907
66	0x3d82f6b6	0.063947126
67	0x3e16b8e1	0.14718963
68	0xbd0f4ad6	-0.03498348
69	0x3e290308	0.16505063
70	0x3dbe330b	0.092870794
71	0x3e651304	0.22370535
72	0xbe54ebcb	-0.20793073
73	0xbde48194	-0.111575276
74	0x3e338ee1	0.17534973
75	0x3edaca2c	0.4273237
76	0xbe5cb20b	-0.21552293
77	0x3ad7e75d	0.001647215
78	0x3dbc96d9	0.092084594
79	0xbe9950c4	-0.29944432
80	0xbf0a5121	-0.5403004
81	0x3eba76df	0.36418816
82	0x3d176bee	0.036968164
83	0xbdd61ef4	-0.104551226
84	0x3ee9dabf	0.45674703
85	0xbe908433	-0.2822586
86	0x3e5705ce	0.20998308
87	0x3df0ad2a	0.117517784
88	0xbf0e7471	-0.55646425
89	0xbeeb91fe	-0.4600982
90	0x3e4aa49c	0.19789356
91	0x3da53d52	0.080683365
92	0xbe9c0c08	-0.3047793
93	0x3cacab47	0.021077765
94	0xbd2b5b9f	-0.041835424
95	0x3d4cfc3a	0.05004523
96	0xbe11921c	-0.14215893
97	0x3d1fb937	0.038994994
98	0xbe019e84	-0.12658125
99	0xbd27cff6	-0.04096981
100	0xbd61dd23	-0.055142533
101	0xbdb24f2b	-0.08706506
102	0xba91a1b5	-0.0011110815
103	0xbde9bdf3	-0.11413183
104	0xbced51eb	-0.028969726
105	0xbbe88991	-0.0070964773
106	0xbde160a7	-0.11004763
107	0x3d69aed0	0.05705148
108	0xbce301e3	-0.02771086
109	0xbd85b944	-0.06529477
110	0x3da3f845	0.08006338
111	0x3d8f67df	0.07002234
112	0x3db815c7	0.08988529
113	0xbde5148a	-0.11185558
114	0x3d6d7363	0.05797137
115	0xbcb1bc18	-0.021696135
116	0x3ce3ccf0	0.027807683
117	0xbd8addca	-0.06780584
118	0x3e904223	0.28175458
119	0x3db849b2	0.08998431
120	0xbdf1b62a	-0.11802323
121	0x3e8843a8	0.26614118
122	0x3d53dab4	0.051722243
123	0x3e2ae932	0.1669052
124	0x3c2cb347	0.01054079
125	0xbe18a6f6	-0.1490744
126	0xbe152b0f	-0.14567207
127	0x3d32c099	0.043640707
128	0xbdb4f222	-0.08835246
129	0x3d6fdce4	0.058560267
130	0xbe39190a	-0.18075958
131	0xbe6e9b0d	-0.23301335
132	0x3df51cdf	0.11968397
133	0xbd9f0d4d	-0.07766209
134	0x3d27463a	0.040838458
135	0x3e29f349	0.16596712
136	0x3e048b55	0.12943776
137	0x3d0317a4	0.032004967
138	0x3d66e370	0.056369245
139	0x3e39b15f	0.18134068
140	0x3bd3cef2	0.006463879
141	0x3dc1c5ec	0.09461579
142	0x3e2639f0	0.16233039
143	0x3e5c31d1	0.21503378
144	0xbe222459	-0.15834178
145	0xbdc981fe	-0.09839247
146	0xbe30a71f	-0.17251252
147	0x3eb1f6b8	0.34758544
148	0xbec5b411	-0.38613942
149	0x3ef9d2cb	0.48793635
150	0xbe820ecd	-0.25401917
151	0xbf0820ef	-0.5317525
152	0xbd99ddf6	-0.07513039
153	0xbeb2da6a	-0.34932262
154	0xbc3876c1	-0.011258782
155	0xbe19bff1	-0.15014626
156	0x3f10cd2c	0.5656307
157	0x3e97462f	0.29545733
158	0xbe115170	-0.14191222
159	0x3e0af0f4	0.13568479
160	0x3ec36f5e	0.38170904
161	0xbe97e2b1	-0.2966514
162	0xbebb6d65	-0.366069
163	0xbe11933e	-0.14216325
164	0xbd8e20b3	-0.06939831
165	0xbe8aec88	-0.27133584
166	0xbed45316	-0.4146964
167	0xbeaa3616	-0.3324439
168	0xbe1dc6eb	-0.15407912
169	0xbd9439ce	-0.07237588
170	0x3e8401ab	0.25782523
171	0x3e75b4c1	0.23994733
172	0xbeaa38b1	-0.33246377
173	0xbe00e1f2	-0.12586191
174	0x3cb88435	0.022523979
175	0xbef3d973	-0.47626838
176	0xbf198644	-0.599705
177	0x3e9f805e	0.31152624
178	0xbe14c822	-0.1452947
179	0x3e11cc35	0.14238055
180	0x3f008de0	0.50216484
181	0xbe9b8b08	-0.3037951
182	0x3ebe4b36	0.37166756
183	0x3dfac2c8	0.12244183
184	0xbeddea23	-0.43342695
185	0xbf0ec1f2	-0.5576469
186	0x3e993d51	0.29929593
187	0x3e54203b	0.2071542
188	0xbee3758b	-0.44425616
189	0x3dca8285	0.09888176
190	0xbd039ed4	-0.032133892
191	0xbc2c73a3	-0.010525617
192	0xbe0bacd3	-0.13640146
193	0x3e0ca8e2	0.13736299
194	0xbdc353f9	-0.09537501
195	0x3e314959	0.17313136
196	0xbe182ca1	-0.14860775
197	0x3b9c59e6	0.004771459
198	0x3d1f5787	0.038901832
199	0x3b86242c	0.0040936675
200	0xbe31074c	-0.1728794
201	0xbd3137b9	-0.043266032
202	0x3e101e16	0.14073977
203	0xbe8cbe47	-0.2748892
204	0x3e6d9ea8	0.23205054
205	0x3e55f471	0.20894028
206	0x3d93625b	0.07196494
207	0xbda59eb8	-0.08086914
208	0xbe0a89d8	-0.13529146
209	0xbe7f9239	-0.24958123
210	0xbcbe7af5	-0.02325199
211	0x3e432652	0.19057587
212	0x3db2b4fb	0.087259255
213	0x3e068ff1	0.13140847
214	0xbe9dd18a	-0.30823928
215	0xbdc2793a	-0.094957784
216	0xbe0a7a4c	-0.13523215
217	0xbe6bbbe9	-0.23020901
218	0xbe7f138f	-0.24909805
219	0x3eb0d0a3	0.34534177
220	0xbee4a439	-0.44656542
221	0x3d0a71df	0.033800002
222	0xbe73f9cf	-0.23825763
223	0xbe5f8f50	-0.21832013
224	0xbf11fc88	-0.5702596
225	0xbd9988fb	-0.0749683
226	0xbe9d55f1	-0.3072963
227	0xbe0fd73a	-0.14046946
228	0x3e6bdd17	0.23033558
229	0xbde2ad1e	-0.11068176
230	0xbe965e2a	-0.29368716
231	0x3d3948d7	0.04523548
232	0xbe7060ca	-0.23474422
233	0xbee4c29d	-0.44679728
234	0x3defec7e	0.11715029
235	0xbd1c9f29	-0.038237724
236	0xbe58819f	-0.21143197
237	0xbeb3df91	-0.35131505
238	0xbedf2c04	-0.4358827
239	0xbe85da7c	-0.26143253
240	0xbd79684a	-0.060890473
241	0xbd07a0d7	-0.033112373
242	0x3e7dc7e1	0.24783279
243	0x3ece8e30	0.40342855
244	0xbeb0c9c5	-0.34528938
245	0xbd795b34	-0.060877994
246	0x3e645d30	0.22301173
247	0xbeac475c	-0.33648193
248	0xbf2adb7e	-0.6674117
249	0x3e4eab42	0.20182517
250	0x3d50b96a	0.050958075
251	0xbd04447f	-0.032291885
252	0x3ede0f5c	0.43371093
253	0xbe9fd403	-0.3121644
254	0x3e5376c5	0.20650776
255	0x3e6371ba	0.22211352

fc2.bias f4 [48]
0	0x3e15e206	0.14637002
1	0x3ea819dc	0.3283223
2	0xbd9b0aac	-0.07570395
3	0x3e9af174	0.3026234
4	0xbe232a52	-0.15934113
5	0x3b454cba	0.0030105547
6	0x3e897e1c	0.26854026
7	0x3e688345	0.22706325
8	0x3cd31640	0.025767446
9	0x3e71c55d	0.23610444
10	0x3deb9acb	0.11504134
11	0x3d3e8ea5	0.046522755
12	0x3ec6fdc5	0.38865486
13	0x3d6368d0	0.05551988
14	0xbce28141	-0.027649524
15	0xbd2a39df	-0.041559096
16	0x3eb76b0b	0.35823855
17	0x3ebb3862	0.36566454
18	0x3dac4868	0.08412248
19	0xbd4a1e79	-0.049345467
20	0xbd8e79e1	-0.0695684
21	0x3e9cae94	0.30601943
22	0x3c7b4142	0.015335383
23	0x3ec2b310	0.3802724
24	0x3e967b4f	0.29390952
25	0x3eb97fd7	0.36230347
26	0x3eb19140	0.3468113
27	0xbdfa8811	-0.12232984
28	0x3e4b6c78	0.19865596
29	0xbda38b80	-0.07985592
30	0x3e93ed66	0.28892058
31	0x3dc680b8	0.0969252
32	0xbd70b23a	-0.05876372
33	0x3e2bd594	0.16780692
34	0xbe20a5fb	-0.15688317
35	0x3e5d43ba	0.21607867
36	0x3d862d1a	0.06551571
37	0x3df4afa1	0.11947561
38	0x3e9cf18c	0.30653036
39	0xbd9cf744	-0.0766435
40	0x3e77a942	0.2418566
41	0xbd8ae32c	-0.06781611
42	0x3e641825	0.22274835
43	0x3dc6ad9d	0.09701083
44	0x3ea78562	0.3271895
45	0x3eb9e270	0.3630557
46	0x3eb2a682	0.3489266
47	0x3e7c4e37	0.24639212

fc3.weight f4 [1, 48]
0	0x3e5ada7c	0.21372408
1	0x3e1865a6	0.14882526
2	0xbdca53fe	-0.098793015
3	0x3e2471c1	0.16059019
4	0xbda0aa6e	-0.07845007
5	0xbda9dd4b	-0.082941614
6	0x3e38fd1b	0.18065302
7	0x3e354b5f	0.17704533
8	0xbcc024dd	-0.023455078
9	0x3e209a78	0.15683925
10	0x3e3430e8	0.17596781
11	0xbc188ed1	-0.009311394
12	0x3e175256	0.14777502
13	0x3e70924f	0.23493312
14	0xbd96188d	-0.073289014
15	0xbdac83fe	-0.08423613
16	0x3e162cb0	0.14665484
17	0x3dfcfe20	0.12353158
18	0x3e4d1f8f	0.2003157
19	0xbdad04b8	-0.08448166
20	0xbdf002a3	-0.11719253
21	0x3e226654	0.15859348
22	0x3c7a539f	0.015278726
23	0x3e0dc7e7	0.13845788
24	0x3e11d70a	0.14242187
25	0x3e20b91f	0.15695618
26	0x3def744d	0.116921045
27	0xbd918977	-0.071062975
28	0x3e3973ba	0.18110552
29	0xbd4a95c4	-0.049459234
30	0x3dfbd5b1	0.12296618
31	0x3e3bb5ee	0.1833112
32	0xbc545138	-0.012958817
33	0x3ea38f4c	0.31945264
34	0xbddeb873	-0.10875025
35	0x3e336196	0.17517695
36	0x3cf3cac1	0.029759767
37	0x3e5055f4	0.20345289
38	0x3e09be6c	0.13451546
39	0x3a0988aa	0.00052465
40	0x3e38d94f	0.18051647
41	0xbdeedd29	-0.11663277
42	0x3e5a8320	0.21339083
43	0x3e7825e5	0.24233206
44	0x3de87003	0.113494895
45	0x3e12b2b2	0.1432598
46	0x3e00d0a4	0.1257959
47	0x3e1ade83	0.15123944

bn1.weight f4 [24]
0	0x3f92b1d8	1.1460524
1	0x3fab24cf	1.3370608
2	0x3f9dd938	1.2331915
3	0x3f800000	1.0
4	0x3f800000	1.0
5	0x3fc6dc3f	1.5535964
6	0x3fa8b4ab	1.3180135
7	0x3f800000	1.0
8	0x3fc6ee1c	1.5541415
9	0x3faac6f9	1.3341972
10	0x3f9865d1	1.1906072
11	0x3f914295	1.1348444
12	0x3f800000	1.0
13	0x3fb0f1d6	1.3823802
14	0x3fb5b508	1.4195871
15	0x3f962e1b	1.173282
16	0x3fc12f46	1.5092552
17	0x3fcf6401	1.6202394
18	0x3fb0299c	1.3762698
19	0x3f8f3f7c	1.1191249
20	0x3f9bc834	1.2170472
21	0x3fb07e23	1.3788494
22	0x3fb74c51	1.4320165
23	0x3f9f1af9	1.2430106

bn1.bias f4 [24]
0	0xbe7cd236	-0.24689564
1	0xbe7bae73	-0.24578266
2	0xbe43613e	-0.19080064
3	0x3eb3e87c	0.3513831
4	0xbeaffee3	-0.3437415
5	0x3e655f95	0.22399743
6	0xbe801c21	-0.2502146
7	0xbebd0182	-0.36915213
8	0xbeaa9e53	-0.33323917
9	0x3dc85cc8	0.097833216
10	0xbe62308f	-0.22088836
11	0xbe4b21fd	-0.19837184
12	0x3eb71fb2	0.3576637
13	0xbee6722b	-0.45008978
14	0xbe942f36	-0.2894227
15	0x3e979249	0.29603794
16	0x3d95388f	0.07286178
17	0xbeaae259	-0.33375815
18	0x3e75d52c	0.240071
19	0xbe552d15	-0.20817979
20	0xbeb53d01	-0.35398105
21	0xbed05c9e	-0.4069566
22	0xbe808436	-0.2510087
23	0xbe67c9c6	-0.22635564

bn1.running_mean f4 [24]
0	0x00000004	6e-45
1	0x00000004	6e-45
2	0x3c2864ea	0.010277966
3	0x00000000	0.0
4	0x00000000	0.0
5	0x00000004	6e-45
6	0x3c9213d9	0.01783173
7	0x00000000	0.0
8	0x00000004	6e-45
9	0x3ea4f98a	0.32221633
10	0x00000004	6e-45
11	0x3bc67561	0.006056473
12	0x00000000	0.0
13	0x3e2e5d73	0.17027836
14	0x3d413821	0.04717267
15	0x3ed633cd	0.41836396
16	0x3d39000c	0.04516606
17	0x00000004	6e-45
18	0x3deb6f8e	0.11495887
19	0x3d010501	0.031498913
20	0x00000004	6e-45
21	0x3b484cd0	0.0030563362
22	0x00000004	6e-45
23	0x00000004	6e-45

bn1.running_var f4 [24]
0	0x00000004	6e-45
1	0x00000004	6e-45
2	0x3a128d2a	0.0005590493
3	0x00000004	6e-45
4	0x00000004	6e-45
5	0x00000004	6e-45
6	0x3a9bd36e	0.0011888572
7	0x00000004	6e-45
8	0x00000004	6e-45
9	0x3bd3e7c4	0.0064668376
10	0x00000004	6e-45
11	0x395cabf8	0.00021044898
12	0x00000004	6e-45
13	0x3aad99a0	0.0013244636
14	0x3b430766	0.0029759048
15	0x3a94625b	0.0011320816
16	0x39eb3651	0.00044863162
17	0x00000004	6e-45
18	0x3ad56246	0.0016279898
19	0x3b3e59f8	0.0029045325
20	0x00000004	6e-45
21	0x3895347b	7.114649e-05
22	0x00000004	6e-45
23	0x00000004	6e-45
