financial/finance/trained_models/TD3__spread__NormalizedExec/critic.pth (torch, 18810 bytes, 18 tensors)

fcs1.weight f4 [24, 8]
00000000: e07c 323e 8723 b3bd 9022 3f3d bc32 72bd
00000010: 6010 d13d 4081 5c3b 34dd e53d 6066 62bd
00000020: 6a03 d93b f3b5 d9bb c813 88bd ba22 fc3d
00000030: bcb9 013d d8f7 07bd a598 c9be c24c 72bc
00000040: b079 6d3c 2cc9 90bd a674 96bd 6824 52bd
00000050: 507b 123e 5859 7a3d 6943 c9bd ac7b 10be
00000060: 9fc6 ad3d 5152 2d3e 392c 1c3e 02b3 dabc
00000070: 0591 a53d 0f68 9c39 987f ae3c 422d fa3d
00000080: e0ae 173b 5d55 e93d a9eb 983e cfc5 9c3d
00000090: 68b3 5ebe 0fd0 ccbc 8afb 75be 4571 113e
000000a0: f3c1 1bbd 7a5b ea3d 49e8 7bbe 98d9 78be
000000b0: 4f5a 9dbe 9401 a3be 13f9 403e e4cc 3b3e
000000c0: cf9e f4bc 8496 0c3e e7be 803d 58b8 b3be
000000d0: c01e 26be 4b80 953d b96d 61bd bf65 f83d
000000e0: 2c34 2cbd 6de2 173e 24e8 dcbd d31f 55be
000000f0: 0006 653e 32ba 983d 126b 16be 85f3 143e
00000100: b735 0cbd b443 59bc 7a83 e43d 7c1d 40be
00000110: fb5a d0be 5289 e4bc eae2 03bf d43a fcbc
00000120: faee 81bd 13ca fdbd 14f8 ac3e 23d2 933e
00000130: fea2 d8bd 1500 95bd a3e4 0abd 7c5d 0ebe
00000140: 1ffa 1ebe 69e5 073e 16d7 6f3d 3ea2 ea3d
00000150: 2191 11be ed10 03be b0b9 9cbd 904c e3ba
00000160: a8a8 8d3d 753b f0bd 2070 9dbc 3c81 10bd
00000170: 6ab8 3e3e aec3 96bd e28e 4a3e 4033 00be
00000180: 7568 203e b729 c1bd 9eee 633e 273b f8bc
00000190: 61b1 2f3e 1ba9 403d 6f2e 963d b07e 763d
000001a0: 1ec0 2abd 3c1b f8bc 22d5 0e3f da97 943e
000001b0: 5171 29be 079b 93be 2e01 f4bc aa44 efbc
000001c0: e852 2dbd f02e 5e3d 003f babd b8d6 4d3e
000001d0: 18b1 343e 1c4c c33d 9ab6 9bbd 6643 44be
000001e0: 40a0 5ebd ee65 45bd 16e9 8b3e 2c4e 3d3e
000001f0: 1a47 03bd 1943 36be 7f79 48be 7891 b7be
00000200: 418b 43be 01ff 0dbe f440 81bd e791 15bd
00000210: 7d64 823d c9bc 9bbd 96b6 173f b7db 853c
00000220: d812 24be 1cc6 403e 036a 63bc 87bc 84be
00000230: e039 03bf 2d20 f93d f6c9 17be 596e 433e
00000240: 64df 84bd 0d69 dabe 1b5b 12bf 0af7 0dbd
00000250: 7a75 b33e 5cf7 48bd 946d 94bd acf9 0e3e
00000260: 4e00 803e 59dd 1cbe 2811 3abe 46e4 0d3e
00000270: 86bc 213f 4eae e8bd 89ce 8cbd 4780 343e
00000280: 5f18 673e 8298 bc3e 301f 06bf 6dc1 10bf
00000290: d603 f1bd 3485 33bd 58df 203e dfec 2b3e
000002a0: 700a b13d 6479 1c3e d821 82bd f070 3e3d
000002b0: d024 2a3c d289 10be 50b7 a0bd 2469 94bd
000002c0: 45ef a53d aaa6 2dbe 6ab7 8e3e 5fb7 b43e
000002d0: 0190 2a3e 8f47 c7bd de70 f63d 586c c23d
000002e0: 8ae0 a6bd e11c 9cbc 2695 36bf 1f73 49bf
000002f0: 8907 78be 05fb 2f3e c3a9 ec3c a29e 573d
0.17430449 -0.08747011 0.04666382 -0.059130415 0.102082014 0.0033646375 0.11223832 -0.055273414
0.0066227214 -0.0066440045 -0.06644398 0.12311311 0.03167127 -0.033195347 -0.3937427 -0.014788808
0.014494345 -0.070696205 -0.07346468 -0.05130425 0.14304852 0.06112036 -0.098273106 -0.14109677
0.084851496 0.16925932 0.15251245 -0.026696686 0.08084301 0.00029832168 0.021301076 0.122156635
0.0023145005 0.11393235 0.29867294 0.076549165 -0.21748126 -0.025001554 -0.24021736 0.14203365
-0.03802676 0.11443229 -0.24600329 -0.24301755 -0.30732962 -0.31837142 0.18845014 0.18339878
-0.029860882 0.13729292 0.06286412 -0.3510158 -0.16222668 0.072998606 -0.05503628 0.121287815
-0.042041942 0.14832468 -0.10786465 -0.20812921 0.2236557 0.07457389 -0.14689282 0.1454602
-0.034230914 -0.013260771 0.1115789 -0.18761247 -0.40694413 -0.02789751 -0.5151812 -0.03078977
-0.06344409 -0.12392058 0.3378302 0.2887126 -0.10577963 -0.07275406 -0.03390945 -0.13902849
-0.15525101 0.13271107 0.05855473 0.114567265 -0.14215519 -0.12799425 -0.076526046 -0.0017341543
0.06916934 -0.117300905 -0.019218504 -0.035279498 0.18625036 -0.07361542 0.19781068 -0.1251955
0.15664847 -0.094317846 0.22258994 -0.030301644 0.17157508 0.04703627 0.07333075 0.060179412
-0.041687123 -0.030286424 0.55793965 0.29022104 -0.16547133 -0.28829214 -0.029785719 -0.029207546
-0.042315394 0.05424398 -0.090940475 0.2010144 0.17645681 0.09536001 -0.07603188 -0.19166335
-0.054352045 -0.04819291 0.27326268 0.18486851 -0.03205023 -0.17799033 -0.19577597 -0.3585317
-0.1909609 -0.13866808 -0.06311217 -0.036516096 0.06366823 -0.07604367 0.5926298 0.01634012
-0.16022813 0.18825573 -0.013880256 -0.25925085 -0.51260185 0.1216434 -0.14823136 0.19085063
-0.06487921 -0.42658272 -0.57170266 -0.034659423 0.35050565 -0.049064025 -0.07247463 0.1396243
0.25000232 -0.15318812 -0.18170607 0.1385661 0.6317829 -0.11361371 -0.06875331 0.17627059
0.2256789 0.36835104 -0.5239134 -0.56545144 -0.1176831 -0.043828204 0.15710199 0.16789578
0.08644569 0.15280682 -0.063541114 0.046494424 0.010384753 -0.14115074 -0.07847464 -0.072466165
0.08102278 -0.16958109 0.2787431 0.3529615 0.16656496 -0.097304456 0.120332465 0.09493321
-0.08148296 -0.01905674 -0.7132133 -0.78691286 -0.24221624 0.171856 0.028889542 0.05264152

fcs1.bias f4 [24]
00000000: cc5f 7fbe d7a6 863b a236 7fbe 655e 72be
00000010: 0c47 f4bd 359e f93d d128 6bbe 2e0f 6abc
00000020: 82a1 953d e084 8b3e 63b4 8fbe 428b 78be
00000030: f5dd 8fbe 4fbf 843e e623 02be 1573 4f3e
00000040: 0d50 22bd 8fe4 acbd cca9 c23d f9f9 02be
00000050: 0103 343d d856 a5bd d4c3 c03c a1a2 363d
-0.24938887 0.0041092443 -0.24923185 -0.23668821 -0.119276136 0.12188379 -0.22964789 -0.014285846
0.07306196 0.27249813 -0.28067312 -0.24271873 -0.28099027 0.25927207 -0.12709007 0.20258744
-0.039627124 -0.084420316 0.095050424 -0.1279067 0.043948177 -0.08073205 0.023530878 0.04458869

fc2.weight f4 [48, 25]
00000000: 0611 7f3e dfce 813e 7e1f 8bbe 30cd a23d
00000010: be86 8c3d d6a5 193d e8de 16be e371 17be
00000020: b14d 2b3d a935 963c fd3a e23d 350b 553e
00000030: deca c03b 682c 82bc 1b5c 92bd ea27 36bc
00000040: 5266 773d 6151 cdbd ee1b 2cbd c75a 423d
00000050: 36ce 8b3d d1eb bb3d 5de6 b83c 7e4b b9bd
00000060: 28d2 12bd 2b8d 373e 20ed b23d d51f 65be
00000070: a09d efbd 7de9 a13d 17f9 5bbd ac25 793d
00000080: a295 563d 1b94 4dbd 2946 27bd 1fcc ecbd
00000090: 6672 053e 982e 953d 427f c43c 588b 59be
000000a0: 0a56 a4bd ed9c ea3c 5fe8 cf3c 3eab aabd
000000b0: 2243 03be faf7 08be 6493 3f3e f3aa ba3c
000000c0: 367a 1ebe fcf0 0bbd d181 cc3d 6f13 16bd
000000d0: 36e6 86be 155f c33d 5958 913c b4be f2bd
000000e0: 6015 d3bd fe6a 2fbe 2d6e 223d 295e 63bd
000000f0: dfc8 9abd d01c 4e3e 2f75 b53d ffae 8d3d
00000100: 0f2a 90be ceec e5bb 28b5 d5bc 01bb 4abe
00000110: ebbf 91bc c449 20be 71ad b13d d06c d23d
00000120: f5a9 173e 8ea8 0b3e 3bae aa3e 59f2 df3d
00000130: f328 243e 42c9 69bc 2526 d6bd 336c 8dbd
00000140: b871 02be 61cd 6d3d 47ac 05be a285 31be
00000150: 009f adbd 764f dabd 55af ca3d 51ce 7b3d
00000160: 48fc a13c 4fed 9abd 0b25 083d b5d0 483e
00000170: 2af8 cfbd 3d11 dd3d d8e8 453c f23f fb3d
00000180: c3e0 c63d 4c72 cdbd 6df2 37bd 8279 46bd
00000190: 397a a23e 2a42 04be dc85 04be 682b 4dbe
000001a0: ae24 843d 38c1 f73d ef1c 2abd 22a9 acbd
000001b0: 6942 cf3d 415c 97bc 1940 0dbe ffaf fa3d
000001c0: 03a5 c0bc 805c 4d3e 74ff 64be c319 47be
000001d0: 5aa0 4fbd ae6d 94bd c0b6 e03c 9f38 1bbe
000001e0: 4bfa 863c b3e4 053e 2b71 953d d608 75bd
000001f0: 6426 b23b 5f54 12bd 2680 35be 2ed3 a9bd
00000200: df4c 07be f6a9 fdbd 2c0e 3fbe be3d dabd
00000210: aca4 9dbd 544e 7abd 0e00 09be 413c 8c3d
00000220: 79bc 023e 0c75 183c f81d d1bd b9dd 22bd
00000230: f5ed fbbd aed2 bcbc 2ed1 22be 303b 30be
00000240: 73ed 34be 3af8 f0bd 4898 b3bb 88d5 533c
00000250: 5284 a6bd f000 63be d620 f03d e86d 803d
00000260: 8631 b1bc 5d4f f6bd cf1f 1fbe a85b 05bd
00000270: 7232 c3bd 1532 823c 45c5 7abb a550 4c3d
00000280: ad69 6fbd 7f48 d73d 4533 5fbd c1f3 883e
00000290: 6197 cbba 1261 75be 6b7d c1bd 1247 f2bb
000002a0: ae5b 433d 7dbf 1abd 69e7 fc3d b18b 523e
000002b0: fb47 c43c b108 d0bc 1f7b 0e3e 8bb1 e43d
000002c0: d35d 8a3d 2955 d4bd 2213 81bd e836 11bd
000002d0: 093c b1bd 5ef3 ed3c 0ff8 91bd 91f1 42be
000002e0: 134d 70bd ead5 30be 2b2c 993d 15f0 343c
000002f0: 3a29 163d 2ed7 593d 26ac 083b 45ea ce3d
00000300: 471c 5c3d 969b 09bc 2a92 b3bd cdbe 663d
00000310: a8c3 d8bc 7f3f f5bc 6de7 113c 596b a8bd
00000320: d9d2 54bc bda9 3fbc acff 35be 301f 1ebd
00000330: b442 8e3d f2f2 06be a82a e83d fb22 babd
00000340: 9f94 bebc eb1b 9f3e 9723 c53c a922 0c3e
00000350: 9dc2 6bbd 80ba 833e ee76 23be 6ddb 663d
00000360: 6cfe 2cba b2bd 653c 4f3f 203e 91bd 9dbd
00000370: 143d 16be ae61 79bd 6338 883d 93cb 663d
00000380: 3fc3 42be e508 07be c0a3 6bbd a413 043e
00000390: 9fd1 87bd a45f b9bd 253c 08be bdcc 1a3e
000003a0: 633a 39bc fb02 82bd edec 3ebd 1805 303e
000003b0: 2923 97bc 46bd 023d b644 893d f941 a23c
000003c0: 049b 7bbe d4a6 d0bd fb79 31bc a5b6 4d3e
000003d0: 3b64 a53c 9f90 d8bd 8bb1 33be 2b57 0cbe
000003e0: 6270 2d3d 596b b7be e753 b33d e67f e23d
000003f0: 3c16 67be 12f7 a43d d0c4 343d a28b 7fba
0.24908838 0.25353143 -0.27172464 0.07949293 0.068616375 0.03751167 -0.1473347 -0.14789538
0.04182214 0.018336134 0.11046407 0.20805056 0.0058835587 -0.015890315 -0.07146474 -0.011117915
0.060400315 -0.100252874 -0.042018823 0.047449853 0.06826441 0.09175838 0.022570783 -0.09047602
-0.035844952 0.17924945 0.08736634 -0.22375424 -0.116999865 0.079058625 -0.053704347 0.060826942
0.052388795 -0.050190073 -0.040838394 -0.115623705 0.13031921 0.07284278 0.023986463 -0.21244562
-0.08024223 0.028639281 0.025379358 -0.08333443 -0.12818578 -0.13375846 0.18708569 0.022786593
-0.15476307 -0.034165367 0.09985698 -0.036639627 -0.26347512 0.0953962 0.017742323 -0.1185278
-0.10306811 -0.17130658 0.039655853 -0.05550972 -0.07557844 0.20128179 0.088602416 0.069181435
-0.28157088 -0.0070167547 -0.026087359 -0.19797899 -0.017791709 -0.1565314 0.086756594 0.102746606
0.14810927 0.13638517 0.33336052 0.10934896 0.16031246 -0.014269175 -0.10456494 -0.06905403
-0.12738693 0.058057193 -0.13054 -0.17336133 -0.084775925 -0.10659687 0.09896723 0.061476056
0.019773617 -0.07564794 0.033238452 0.19610865 -0.101547554 0.107943036 0.01207944 0.12268056
0.09710839 -0.10031566 -0.04490893 -0.048455723 0.31733873 -0.12915865 -0.12941688 -0.2003609
0.064523086 0.120974004 -0.0415315 -0.08430697 0.101200886 -0.018476607 -0.13793983 0.122406
-0.023516184 0.20054817 -0.22363073 -0.19443421 -0.050690033 -0.07247482 0.027430892 -0.15158318
0.01647677 0.13075523 0.07296976 -0.05982288 0.0054367054 -0.035724994 -0.17724666 -0.082922325
-0.13212918 -0.12385933 -0.1865775 -0.10656308 -0.07697424 -0.061109856 -0.13378927 0.0684743
0.12767209 0.00930525 -0.10210794 -0.039762232 -0.12301246 -0.023049679 -0.15900108 -0.17210078
-0.17668705 -0.117660955 -0.0054808 0.012929328 -0.08130707 -0.22168326 0.11725013 0.06270963
-0.02163006 -0.12026856 -0.15539478 -0.032558113 -0.09531106 0.015893022 -0.0038264554 0.049881596
-0.05845039 0.105118744 -0.054492254 0.2674847 -0.0015532785 -0.2396281 -0.0944775 -0.007393726
0.047694854 -0.037780274 0.123488255 0.205611 0.023960104 -0.02539477 0.13914154 0.11166676
0.06756177 -0.103678055 -0.063024774 -0.035452753 -0.08654029 0.02904671 -0.071273915 -0.19037463
-0.058667254 -0.17269102 0.074791275 0.011043568 0.03666041 0.053183727 0.0020854562 0.10103277
0.053737905 -0.008398911 -0.08768113 0.056334306 -0.026460484 -0.029937504 0.008905274 -0.082236
-0.012989723 -0.011698184 -0.17773312 -0.03860396 0.06946316 -0.13178614 0.11336261 -0.09088703
-0.023264227 0.31075987 0.024064822 0.13685097 -0.057558645 0.25728226 -0.15963337 0.056361604
-0.0006599191 0.014022278 0.1564915 -0.077021725 -0.14671737 -0.06088417 0.0665138 0.056346487
-0.19019793 -0.13186987 -0.05752921 0.12898117 -0.06631779 -0.09051445 -0.13304193 0.15117164
-0.011305424 -0.06348225 -0.04661267 0.17189443 -0.018449383 0.031918786 0.06702559 0.019806849
-0.24570853 -0.1018807 -0.010832305 0.20089205 0.020189395 -0.10574459 -0.17548196 -0.13705127
0.042343505 -0.35824087 0.087562375 0.11059551 -0.22567075 0.080549374 0.044133008 -0.0009748285

fc2.bias f4 [48]
00000000: d23f 5cbb 49b9 75be 297c 9bbe b14e eabc
00000010: e9b2 64be ba12 59be 0f43 4bbe 4d68 20be
00000020: d7aa 99be 6cfc d43d c5dc 533d 20a3 083e
00000030: f039 7dbe ca58 c5be 77cb 9abe c91e 49be
00000040: 86ca 2abd 2f9a 40be 19b7 10be 1ac6 7fbe
00000050: dd95 9abd f411 a1be c94b a6be 2cfd e23d
00000060: 5726 8fbe 50a5 02be 85cc a1be 0589 72be
00000070: fa81 42be 369b 073d e543 84be f5c1 bebd
00000080: e086 343c 9613 80be 4199 6bbd 587c b1bd
00000090: 90e2 9a3d 55f6 92bc b791 0b3e b316 92be
000000a0: 4a3d abbd acd7 26be 8ffd 36be 4e9e 6bbd
000000b0: d8ea 6abe 83d9 0dbe e28f 17be 0339 b6be
-0.0033607376 -0.23996462 -0.30368164 -0.028601976 -0.22333874 -0.2119855 -0.198498 -0.15664788
-0.30013153 0.10399708 0.051724214 0.13343477 -0.24729133 -0.38544303 -0.30233356 -0.1964065
-0.041697048 -0.18808816 -0.14132346 -0.24977913 -0.075481154 -0.3145901 -0.32479694 0.11083445
-0.27958938 -0.12758374 -0.3160135 -0.23685081 -0.18994895 0.033107005 -0.2583305 -0.09314338
0.011018485 -0.25014943 -0.0575192 -0.08666295 0.075627446 -0.017939726 0.13629805 -0.28532943
-0.08361299 -0.1629321 -0.17870162 -0.057524018 -0.22941148 -0.13852505 -0.1480098 -0.3559037

fc3.weight f4 [1, 48]
00000000: 6150 a33c dd21 4c3c c554 163c b927 413b
00000010: 13a5 eebc d7e3 67bd 495d 5dbd 5da7 fc38
00000020: 29f3 31bd 43ab ff3d ce2a 07be f1c2 513e
00000030: 9dc6 c9bb 19f6 aa3c f16d 9a3c 0281 973d
00000040: f56d 13bd c395 79bc e824 1bbd 33dd 043c
00000050: 91a9 d5bc bf93 cdbc 8a79 53bd c8e9 babd
00000060: 1b05 60bd c1fd bcbc 537a 62bb 2f05 b6bc
00000070: b36a 1a3b 01d3 f13b e8a6 a8ba 11d2 cf3c
00000080: cfb5 9f3b aae4 9b3c f8cb ac3c 958b a33c
00000090: ce68 663c 0c06 a13d 90fa 443c e347 b43c
000000a0: 9fb5 703c 952c 953c 8513 1b3b ae80 a63c
000000b0: 8c52 c33a 1880 0a3b 1237 e1bb 09a7 3f3e
0.019935789 0.0124592455 0.009175484 0.002947314 -0.029131448 -0.05661377 -0.05404404 0.0001204747
-0.043444786 0.124838375 -0.13199922 0.2048452 -0.0061577098 0.020869302 0.018851252 0.07397653
-0.035993535 -0.01523346 -0.037876993 0.008109379 -0.026081832 -0.025094865 -0.05162958 -0.091266215
-0.05469237 -0.023070218 -0.0034557774 -0.022219269 0.0023562133 0.00737989 -0.0012867125 0.025368722
0.004873968 0.019029934 0.021093354 0.019964019 0.014063073 0.078624815 0.012022629 0.022006935
0.014691739 0.018209735 0.0023662758 0.020325031 0.001490192 0.0021133479 -0.00687302 0.18716063

fcs4.weight f4 [24, 8]
00000000: 22f3 183e 4bd3 15be 0ad8 253e c206 503e
00000010: 48e9 db3c 7c13 23be 9811 223d a0db 28bd
00000020: bf7b ab3d 26d6 47be fef1 05be 0c42 323e
00000030: 015a 123c 2876 4bbe e11a 39be ad68 4cbd
00000040: aedc f3bd 2963 a7bd d056 b23c f452 a13d
00000050: f80f 1cbd 64fe a4bd fc70 b73d 1f3c 4bbe
00000060: e9ee d1bd 20f1 a93e 541f 423e f7b8 8e3d
00000070: e7ea 96be cbd6 abbe 1417 26be b4f4 003e
00000080: 6b4f a9bd 8d2f 753c 501f 453e 5ef8 7a3e
00000090: a882 b13d 64e9 6bbe e338 733e f2ff 30be
000000a0: 1a1b 3dbc 2460 a7be 2aeb 83be 8686 753d
000000b0: cb9a 8d3e e31e e03d aaba 173f 472c 473c
000000c0: 5889 f73d 38d1 efbd ec3a 75bf 5fdf 02bf
000000d0: 3048 ef3d 7ff4 803e 8d5b 383b 7a38 103d
000000e0: 46ca a23e ff48 9a3e 103f 173f 8203 db3e
000000f0: fd15 ecbe 7f50 fdbe 2b9c 5fbe 2406 0c3e
00000100: 732f 4fbe 0ae6 50be 989d 4ebe d4e5 003e
00000110: 3006 ae3c 005e f339 08fc 043d ca35 9ebd
00000120: 099e 9a3d a08d e6be afda 43be e113 893e
00000130: d508 1a3f 8dbb 7a3e 5f99 8bbe 2a0b 9d3d
00000140: 5799 f0bd 067d 26be 7e45 93bd c090 9c3b
00000150: e4b2 10bd 4d05 3fbd 2b07 abbe c58c 39bc
00000160: fc49 9abe 9455 2cbf 3e9d af3e b9be f33e
00000170: f92c 1a3f e971 99be 5ae7 2abe a288 053e
00000180: 7caa 02be f562 893d 1e13 a5be 890b 733e
00000190: 72dd cebd e908 6a3c f46d e8be e3e1 80bc
000001a0: f565 d83b f89d 193d 780d f33e 37a6 603e
000001b0: eee3 aabd 671b aebe 5c07 0abe f93f 06bf
000001c0: 985c 4e3e e016 15bd 5e84 033e fc3d d8bd
000001d0: 9b8d 4bbe dd9c 26be 183e d6bd 6c22 85bd
000001e0: 0db3 233e 4842 35be c2c9 843e 269c 5c3e
000001f0: bbcf 963d 8af5 2dbd bf28 5abe 8935 953c
00000200: 885a 463d 14f8 b83d 7425 7ebd 2676 8fbd
00000210: d538 c5bd 8d2b 4abe 50d2 923d 4b06 1ebe
00000220: f7ef 50be 2970 d7bd 6b59 2d3e 3ef5 1b3e
00000230: 393d 42bd 000b b73d cc21 7a3e dcbb d7bd
00000240: 391a 303a 417e 1a3e 0915 e53d 4c9c 04be
00000250: ec93 b9bd 5621 b73b 0961 28be 85ab 89bd
00000260: 2daf f33d aaed 223e e168 613e 4475 86bd
00000270: b504 0bbe 1ae9 313e e540 27bd 3dad 99ba
00000280: 7cf5 a13d 4b6b 9bbd 8620 0abe b0f7 72bd
00000290: 46fe 693e 7fcc c93e 89f0 1ebd e726 793e
000002a0: 9527 bf3e 3966 c6be 7d43 c4be 6606 31be
000002b0: 007f 093f 33b0 5c3e 07c2 37bb 4576 3a3e
000002c0: 8497 dc3d da04 343e ba09 ba3e 7850 eb3d
000002d0: 7b47 babe d5b9 b4be 8846 d2bc 097a 923e
000002e0: be3f bb3d 7ea7 bd3e f221 68be 40c2 04bf
000002f0: a723 bb3d 500b 3f3e 354c 25bd 2a15 c63d
0.14936498 -0.14631383 0.16195694 0.20315078 0.026844636 -0.15925401 0.03956756 -0.041225076
0.08373212 -0.19515285 -0.13080594 0.17408007 0.008932591 -0.19869292 -0.1807666 -0.049904514
-0.11907326 -0.0817321 0.021769911 0.0787715 -0.038101166 -0.08056334 0.08957097 -0.19847153
-0.102506466 0.33191776 0.18957263 0.06968873 -0.2947609 -0.33562312 -0.16219741 0.12593347
-0.08267101 0.01496495 0.19250226 0.24508807 0.08667499 -0.2303825 0.2375217 -0.17285135
-0.011542106 -0.32690537 -0.25765353 0.059942745 0.2765716 0.10943391 0.592692 0.012156553
0.12086743 -0.11709827 -0.9579303 -0.5112209 0.116836905 0.25186536 0.002813074 0.03521011
0.31794947 0.30133817 0.590806 0.42776114 -0.46110526 -0.49475476 -0.21836917 0.13674217
-0.20232944 -0.20400253 -0.20177305 0.12587672 0.021243185 0.00046418607 0.03246692 -0.07725103
0.07549674 -0.45029926 -0.1912639 0.2677298 0.60169727 0.24485607 -0.2726545 0.07668145
-0.11747997 -0.1625863 -0.07190989 0.0047779977 -0.035326853 -0.046635915 -0.33403906 -0.011325066
-0.3013457 -0.6731808 0.34299654 0.47606447 0.6022487 -0.2996972 -0.16689816 0.13040403
-0.12760347 0.06708328 -0.32241148 0.23734869 -0.10100831 0.014284351 -0.45396388 -0.015732711
0.006603951 0.037504166 0.47471213 0.21938406 -0.083442554 -0.3400528 -0.1347937 -0.52441365
0.20152509 -0.03639877 0.12843463 -0.105586976 -0.19878237 -0.16270776 -0.10461062 -0.06500706
0.15986271 -0.17701066 0.2593518 0.21543941 0.0736384 -0.042470492 -0.21304606 0.018214004
0.04842618 0.09031692 -0.062047437 -0.07004957 -0.096299805 -0.19743176 0.0716902 -0.15432088
-0.2040404 -0.1051944 0.16928641 0.15230271 -0.047421668 0.08937645 0.24426955 -0.10533878
0.00067177747 0.15087225 0.11185653 -0.12950248 -0.09061417 0.0055886908 -0.16443266 -0.06722168
0.118986465 0.15910974 0.22012664 -0.065653354 -0.13576014 0.17374077 -0.040833373 -0.0011724603
0.079081506 -0.07588824 -0.13488969 -0.059318244 0.22850904 0.3941383 -0.03880361 0.24331246
0.37334886 -0.38749865 -0.3833274 -0.17287597 0.5370941 0.2155159 -0.0028039233 0.18209179
0.10771087 0.17579976 0.36335546 0.114899576 -0.3638266 -0.3529803 -0.025668398 0.2860873
0.09143017 0.3704185 -0.22669199 -0.518589 0.091376595 0.18656659 -0.04035588 0.096720055

fcs4.bias f4 [24]
00000000: 939f 8fbe de17 723e eeb6 83be ec48 30be
00000010: ed61 c13d 7e0d 0c3e 13ec 973d c123 32be
00000020: 6b79 1dbe 804b 8b3e cac8 193d 2656 983e
00000030: 9ba4 8739 4457 393e f0dd 91be 17ef 913e
00000040: 1657 26be 1110 55be 6f71 9ebc 52f1 c1bd
00000050: e42d 8f3d 9746 a13e 9971 8cbe f239 063e
-0.28051433 0.23641917 -0.25725502 -0.17215317 0.09442506 0.13677022 0.074180745 -0.17396452
-0.15378349 0.2720604 0.037545003 0.29753226 0.00025871847 0.18099695 -0.28489637 0.28502724
-0.16244158 -0.2080691 -0.019341199 -0.09469856 0.06991175 0.31499168 -0.27430418 0.13108042

fc5.weight f4 [48, 25]
00000000: 14f5 103e 632d 013d 3d16 8cbe ffea 993d
00000010: 4b7f 91bd a0d6 123b f348 053e 783f b4bd
00000020: 60f5 b1bd ae4e e8bd 2825 bebd 8fdc 44bd
00000030: 0888 a6bd 888c 353d 8930 13be 2f9f 38be
00000040: d778 89be a64a a03d 2adf e7bd b2ca a4bd
00000050: 2c55 203c d475 a43d 24d4 813d 3c24 42be
00000060: 34cb 0cbd c1fc abbd 50f6 4cbe 7040 a7bd
00000070: a3ec 98bd 1946 68ba dbf9 69bd a4cc 9bbd
00000080: b96d 7cbd 6d0e 7a3d d59c fabd 81da 06be
00000090: 691b bebd 2237 03be 5c09 80bd 8d5a 31be
000000a0: 3fab 1bbe 1174 1fbe a44b 8d3b a60e 33be
000000b0: 46d6 213e c7d5 0dbc ae97 47be 5e2d 843d
000000c0: ab62 1bbd 2fa1 dabe b9f4 bd3d db8b 933c
000000d0: f943 79be 2c61 133c 2802 d33d 57c5 08bc
000000e0: 60c9 a6bc 8887 e4bd 530b 48be 5104 873d
000000f0: a837 bebd 2e4e 6fbd ca41 2f3d a916 68bc
00000100: 4efd 25bd d612 27be f5d6 063d 1e8d b13d
00000110: f436 00be 5173 49be 6dd3 88bd abff 0f3d
00000120: 6e25 0cbd 44a9 d6bd db35 fcbd e59b 893d
00000130: 111b 84bd 1c46 d7bd 0282 40b8 eb20 e4b9
00000140: 41b7 fabd 99e0 27bb 2a90 473d 69d0 87be
00000150: 05f8 063d fdb4 663c 55de 0abe 626c 443d
00000160: c1af 52be 9def 96be fd9d d3bd 3f6f 92be
00000170: 4ba1 23be 0435 41be 369c a83d 449c e1bc
00000180: dbd1 a83c 60b2 85bd 1989 f73c 14a5 5cbe
00000190: 371c 883e 9f77 91bd 369b fbbd bd8f e93b
000001a0: b0d4 f83d 458f 7ebd 88e6 22be 6b8b 95be
000001b0: b07a f8bc afad 9e3c 0f1e 91bd 54ce 03bb
000001c0: c563 043e c191 fbbd 1edb 96bd 07b8 16bc
000001d0: 4bd3 0bbe 1a5e 603d a03c cabd 42ae 5d3c
000001e0: 334f 523d c855 f8bc d7b6 c53b a5fa 93bd
000001f0: 6c43 31bc e717 a2bd 9b39 c73d 9dc6 ab3d
00000200: 6bb0 7aba e432 913e 2a5b 8b3c 4238 3abc
00000210: c0c7 573d 4b9c b83d 80e9 24bd 2954 243d
00000220: 3523 30bd 8ea7 b0bd 8080 d7be d98f fb3c
00000230: 21c8 053e ea87 a0bd 604b 19be a5b1 5b3d
00000240: 30d4 f23d 44e2 1dbd 1ea3 1ebe b3ad 1cbd
00000250: 88d6 643c 631b b9be e915 e4bd 47b5 10bd
00000260: a34a 1f3e 76cb 82be c11e 133e 0c70 f1bb
00000270: e159 173e 1521 1a3e 9893 513e bdd5 00bc
00000280: bc00 2c3c 5673 3cbe ad07 22be 064c 013d
00000290: 259b a23e f0ab ddbd 7ab8 493e 2213 1fbe
000002a0: 8603 a13e dde8 7b3e 8f70 35bc 5f46 f3bd
000002b0: dc0f b7bd ba90 163e 2630 15bf be22 1b3e
000002c0: 124d b5bd ef9f 14be ff45 8cbd 2875 bbbd
000002d0: 5759 c23d 9d35 953c e62c 4bbe cf3c bbbe
000002e0: a26e 7dbd a290 fc3d 0c54 1cbd 7f90 b9ba
000002f0: caf1 123e 21ca a5be 86ff 6abd 8872 bebe
00000300: 769a 763c edae 0dbe c6c9 acbd 3c9b b23d
00000310: ae95 bd3b 7e9c 0e3d 3534 82bd dc7c a83d
00000320: 6701 e93d eacd 40be 8db6 4dbe 38c1 4b3d
00000330: 922b 1e3e cc8d b9bc 025d 65bd aaf3 08be
00000340: 313b 41be 6a0b 143d 8145 cb3d f9f5 b33c
00000350: 094a 893c 15f9 58bc e023 78bc 12ec 213d
00000360: 108c debd 4ffa 113d 7894 43bd 7430 edbd
00000370: 68e4 bebd 1ebc 553d c551 0b3d d38e 37be
00000380: b43c 3dbe b9db b23d abad f63c df9a eebd
00000390: 6cbb 0cbd 19b7 0fbd 3d12 87bd 0960 fa3d
000003a0: e9b4 57be 19b0 78be a11a 2cbe e488 ec3c
000003b0: 1877 883c b278 cb3d 144d 803d 19a6 8ebe
000003c0: b19f 89bb 9ce9 8abe 9e43 a03d 3530 88be
000003d0: 49c0 9bbd d722 243e 7eaa 763d 3460 b33d
000003e0: f242 09be 4f61 35be 7be5 653e a867 64bb
000003f0: 4eef 89be e0cf 14be 732e 4dbc c4c5 65bd
0.1415599 0.031537425 -0.27360716 0.07515525 -0.07104357 0.0022405759 0.13016109 -0.08801168
-0.0868938 -0.11343132 -0.09284431 -0.048061904 -0.08131415 0.044323474 -0.14373983 -0.18029474
-0.26850006 0.07826738 -0.11321862 -0.080464736 0.009785932 0.080302864 0.06339291 -0.18959135
-0.034373477 -0.08397818 -0.20015836 -0.08166587 -0.0746701 -0.0008860543 -0.057123046 -0.076073915
-0.061628077 0.061048914 -0.122369446 -0.1316929 -0.09282572 -0.12814 -0.06251785 -0.17319699
-0.15202044 -0.1557162 0.0043119956 -0.17486057 0.15804395 -0.0086569255 -0.19491455 0.064539656
-0.037935894 -0.42701098 0.09275193 0.018011024 -0.24342336 0.008995336 0.10303146 -0.008347831
-0.020359695 -0.11158663 -0.1953557 0.0659262 -0.09287959 -0.058424167 0.04278735 -0.014165559
-0.040524773 -0.16315779 0.032919843 0.08669494 -0.12520963 -0.19672896 -0.06680951 0.035155933
-0.034215383 -0.104815036 -0.123149596 0.06719188 -0.06450475 -0.10511419 -4.5897446e-05 -0.00043512075
-0.12241984 -0.0025616048 0.04872147 -0.26526192 0.032951374 0.014081237 -0.13561375 0.047954924
-0.20574857 -0.29479685 -0.10332868 -0.286005 -0.15979497 -0.1886788 0.0823292 -0.027540334
0.02060788 -0.06528163 0.03021674 -0.21547347 0.26584026 -0.07102894 -0.122854635 0.0071277306
0.12149942 -0.06214835 -0.15908253 -0.2920793 -0.03033194 0.019369928 -0.07085811 -0.0020111995
0.12928684 -0.1228366 -0.07366012 -0.009199149 -0.1365482 0.054777242 -0.098748446 0.013530316
0.05134506 -0.030314341 0.006033759 -0.07225541 -0.010819297 -0.07914715 0.09727784 0.08387492
-0.00095630315 0.2835914 0.017011244 -0.011365952 0.05268073 0.090141855 -0.040261745 0.040119324
-0.043002326 -0.086257085 -0.42090225 0.03070824 0.13064624 -0.078384236 -0.1497016 0.053636212
0.11856878 -0.03854586 -0.15491912 -0.03825159 0.013967164 -0.36153707 -0.111369915 -0.03532913
0.15555815 -0.25545853 0.143672 -0.0073680934 0.1478038 0.15051682 0.20466459 -0.007863459
0.010498222 -0.18403372 -0.1582324 0.031566642 0.3175899 -0.1082381 0.19699278 -0.15534642
0.31448 0.24600549 -0.011074199 -0.118786566 -0.08938572 0.14703646 -0.58276594 0.15149972
-0.088525906 -0.14514135 -0.06849288 -0.09153205 0.094896965 0.018214041 -0.19841346 -0.3656983
-0.061873086 0.12332274 -0.03816609 -0.0014157443 0.14350048 -0.32380775 -0.057372592 -0.37196755
0.015051475 -0.1383626 -0.08436923 0.08721015 0.0057856655 0.03481721 -0.06357614 0.0822694
0.113772206 -0.1882855 -0.20089169 0.049744815 0.15446308 -0.022650622 -0.055996902 -0.133742
-0.18870236 0.036143698 0.09925366 0.021967875 0.016758936 -0.0132429795 -0.015145272 0.039531775
-0.108665586 0.035639104 -0.047749013 -0.11581507 -0.09320909 0.052181356 0.03401353 -0.17925577
-0.18480188 0.08733315 0.030112108 -0.11650633 -0.034358427 -0.035086725 -0.065952756 0.122253485
-0.21065105 -0.24285926 -0.16807033 0.028873868 0.01665835 0.0993513 0.062647015 -0.27861097
-0.004199945 -0.27131355 0.07825397 -0.2659928 -0.07605035 0.16028915 0.060221188 0.08758584
-0.13404444 -0.17712902 0.22450821 -0.0034851823 -0.26940387 -0.14532423 -0.012523281 -0.056096807

fc5.bias f4 [48]
00000000: 1d70 07be f30d 1339 5d9a 8dbe 0aac a5bb
00000010: 8409 17be 5811 b2bd 08de 2f3d 7d8b 59bd
00000020: 24b0 0c3d 8b86 49bd 5f21 16be b182 4ebe
00000030: d608 0f3b 56e9 2fbe 835b 03be 96db 1dbe
00000040: 4a1a 68be 6207 40bc 586f 0cbe 3923 31be
00000050: ea44 62bd e6d7 05be 5889 26be 0639 73bb
00000060: cf99 85be bd0b 2f3d dec6 89bd cf67 cfbd
00000070: 4e4b 37be 8bd4 48bd 0ab0 5abe 551e b1bc
00000080: fc4b d0bd 556f ffbd fe9a 84be 0746 9dbc
00000090: 0e8c b33c 9095 d33c 6177 1abe d5e1 df3c
000000a0: 602d a0bd eded e4bd efe5 0b3e 2d16 5dbe
000000b0: 0174 2fbe b12a 4abe 7a22 d2bd dbbd 2ebc
-0.13226362 0.00014024209 -0.27656832 -0.005055909 -0.14749724 -0.08694714 0.042936355 -0.053111542
0.03434767 -0.049200576 -0.14661168 -0.20167042 0.0021825335 -0.17178854 -0.12827878 -0.15415797
-0.22666278 -0.01172051 -0.1371435 -0.17298593 -0.055241503 -0.1307064 -0.1626333 -0.0037112846
-0.2609391 0.042735804 -0.06727384 -0.10127222 -0.1789982 -0.04903082 -0.21356216 -0.021620909
-0.10170743 -0.12472407 -0.258995 -0.01919843 0.02191737 0.025828153 -0.15084602 0.027329365
-0.078211546 -0.11178193 0.13661931 -0.2159049 -0.17134096 -0.19742848 -0.10260482 -0.010665382

fc6.weight f4 [1, 48]
00000000: f19b 573c 48d0 3abd bd54 6fbb 5a66 793d
00000010: 1d31 82bb 66da 323e a0f1 a23d fe04 a0bb
00000020: bb69 7d3b 58b2 853b f1a9 283c 3edf cd3b
00000030: 5e70 093c ada4 06bd 49e0 993c 5bf6 2a3c
00000040: a1da 77bd 7443 bb3c 0c69 a03c d9e8 6cbc
00000050: e083 273c fa46 cd3b 4d98 cf39 4855 60be
00000060: 45fc 463c 3fe8 19bd 4d20 37bd 2e9b 4bbc
00000070: 85f9 3ebd 6382 703c 9ea4 95bc 68fa 7abc
00000080: c62c 423d 0ad2 47bd d644 b8bc d5da 24bb
00000090: 8875 f2bb 2171 303b ffb0 d2bb 30fa 0cba
000000a0: 43a7 98bc 2e08 0fbc 22a4 4dbd cfdd 8d3b
000000b0: 1e1d ae3e 06fd 0d3c 52e9 783d cb1a f5bc
0.013159738 -0.04560879 -0.0036519014 0.060888626 -0.00397314 0.17466125 0.079562426 -0.0048834076
0.0038667757 0.004080098 0.010294423 0.006282716 0.008388607 -0.03287189 0.018783705 0.010434712
-0.060511235 0.022859313 0.01958134 -0.014459812 0.010224313 0.0062645646 0.0003959559 -0.21907532
0.012145107 -0.037575003 -0.04470854 -0.012427134 -0.04662468 0.014679524 -0.018266972 -0.015318491
0.04740598 -0.048784293 -0.022493761 -0.0025154848 -0.0073992647 0.0026922899 -0.006429791 -0.0005377857
-0.018634444 -0.0087299775 -0.050205357 0.00432942 0.3400659 0.0086662825 0.060769387 -0.029920002

bn1.weight f4 [24]
00000000: 0000 803f 183e 3e3f 0000 803f 8410 493f
00000010: 24d9 473f 52b7 403f 9c56 333f ea49 4c3f
00000020: 76af 403f 6f47 393f 1200 233f 0dd9 003f
00000030: e98a 403f e26e 6c3f 0000 803f 72ae 533f
00000040: 5c52 7b3f 3a4f 503f 62bb 5a3f 24ed 453f
00000050: bafe 1b3f 5179 143f 937e 413f 606d 333f
1.0 0.743135 1.0 0.78540826 0.78065705 0.75279725 0.7005403 0.79800284
0.7526773 0.72374624 0.6367198 0.50331193 0.7521196 0.92356694 1.0 0.8268806
0.98172545 0.8137089 0.85442173 0.7731497 0.60935557 0.57997614 0.7558376 0.7008877

bn1.bias f4 [24]
00000000: 9384 6ebe 76b2 0abe c285 7a3e bd59 39bd
00000010: 95a8 d33d 87ce 853d 83b8 123e 0213 a23e
00000020: 53e0 fd3d 5898 bdbd d1ec dd3c e090 73be
00000030: d511 d0bc 1261 81be e742 803e cd71 743d
00000040: 521c 813e 3ac0 763e 2ce6 853e a7a9 7a3e
00000050: 4d79 193e 42fb e5bd 703c 41be 353a 1d3e
-0.2329276 -0.1354464 0.24465087 -0.045251597 0.10334889 0.065335326 0.14328198 0.31655127
0.12396302 -0.09257573 0.027090462 -0.23785734 -0.025399128 -0.2526937 0.25051042 0.05967884
0.2521692 0.24096766 0.2615217 0.2447878 0.14987679 -0.11229564 -0.18870711 0.15354235

bn1.running_mean f4 [24]
00000000: 0000 0000 eb0a 543c 0000 0000 0400 0000
00000010: 5fea c63d 00e1 073f b0cb 193d 0400 0000
00000020: 0400 0000 6aa0 f23d 0400 0000 6c55 a03d
00000030: 0400 0000 27cf 0e3e 0000 0000 2cf7 133d
00000040: 975f ab3e 614c d13b 30eb 623d 0400 0000
00000050: 5f0b 6c3e 87f1 233e aac9 e93d 907f eb3d
0.0 0.012942056 0.0 6e-45 0.097126715 0.530777 0.037547767 6e-45
6e-45 0.11847003 6e-45 0.07828793 6e-45 0.1394621 0.0 0.036124393
0.33471367 0.006387279 0.055400074 6e-45 0.23051213 0.16010104 0.114154175 0.1149894

bn1.running_var f4 [24]
00000000: 0400 0000 05b8 9239 0400 0000 0400 0000
00000010: f901 393b 98bf ac3b 7c94 0139 0400 0000
00000020: 0400 0000 d12b 613b 0400 0000 4104 d33a
00000030: 0400 0000 ea77 c039 0400 0000 8720 1b38
00000040: 70b8 e238 f47c d338 b9fd 3b3b 0400 0000
00000050: 5f31 273c e770 573b 51e5 b83a cc72 af3a
6e-45 0.00027984395 6e-45 6e-45 0.0028229936 0.005271863 0.00012357713 6e-45
6e-45 0.0034358392 6e-45 0.001609929 6e-45 0.00036710437 6e-45 3.6985173e-05
0.00010810874 0.000100845384 0.0028685166 6e-45 0.010204642 0.0032873692 0.0014106428 0.0013385653

bn2.weight f4 [24]
00000000: 0000 803f 0000 803f 0000 803f 0000 803f
00000010: 0000 803f 0000 803f 0000 803f 0000 803f
00000020: 0000 803f 0000 803f 0000 803f 0000 803f
00000030: 0000 803f 0000 803f 0000 803f 0000 803f
00000040: 0000 803f 0000 803f 0000 803f 0000 803f
00000050: 0000 803f 0000 803f 0000 803f 0000 803f
1.0 1.0 1.0 1.0 1.0 1.0 1.0 1.0
1.0 1.0 1.0 1.0 1.0 1.0 1.0 1.0
1.0 1.0 1.0 1.0 1.0 1.0 1.0 1.0

bn2.bias f4 [24]
00000000: 0000 0000 0000 0000 0000 0000 0000 0000
00000010: 0000 0000 0000 0000 0000 0000 0000 0000
00000020: 0000 0000 0000 0000 0000 0000 0000 0000
00000030: 0000 0000 0000 0000 0000 0000 0000 0000
00000040: 0000 0000 0000 0000 0000 0000 0000 0000
00000050: 0000 0000 0000 0000 0000 0000 0000 0000
0.0 0.0 0.0 0.0 0.0 0.0 0.0 0.0
0.0 0.0 0.0 0.0 0.0 0.0 0.0 0.0
0.0 0.0 0.0 0.0 0.0 0.0 0.0 0.0

bn2.running_mean f4 [24]
00000000: 0000 0000 0000 0000 0000 0000 0000 0000
00000010: 0000 0000 0000 0000 0000 0000 0000 0000
00000020: 0000 0000 0000 0000 0000 0000 0000 0000
00000030: 0000 0000 0000 0000 0000 0000 0000 0000
00000040: 0000 0000 0000 0000 0000 0000 0000 0000
00000050: 0000 0000 0000 0000 0000 0000 0000 0000
0.0 0.0 0.0 0.0 0.0 0.0 0.0 0.0
0.0 0.0 0.0 0.0 0.0 0.0 0.0 0.0
0.0 0.0 0.0 0.0 0.0 0.0 0.0 0.0

bn2.running_var f4 [24]
00000000: 0000 803f 0000 803f 0000 803f 0000 803f
00000010: 0000 803f 0000 803f 0000 803f 0000 803f
00000020: 0000 803f 0000 803f 0000 803f 0000 803f
00000030: 0000 803f 0000 803f 0000 803f 0000 803f
00000040: 0000 803f 0000 803f 0000 803f 0000 803f
00000050: 0000 803f 0000 803f 0000 803f 0000 803f
1.0 1.0 1.0 1.0 1.0 1.0 1.0 1.0
1.0 1.0 1.0 1.0 1.0 1.0 1.0 1.0
1.0 1.0 1.0 1.0 1.0 1.0 1.0 1.0
