financial/finance/trained_models/DDPG__baseline__ExponentialUtility/actor.pth (torch, 8116 bytes, 5 tensors)

fc1.weight f4 [24, 8]
0	0xbe312463	-0.17299037
1	0x3df3c3b8	0.11902565
2	0x3ddf6e24	0.109096795
3	0x3e43cfaa	0.19122186
4	0xbd8c6190	-0.06854546
5	0x3c2a1190	0.010380164
6	0x3d23c860	0.039986014
7	0x3e50a698	0.2037605
8	0x3e4adceb	0.19810836
9	0xbde9c0ad	-0.11413703
10	0xbe75414c	-0.2395069
11	0xbdcd3ba4	-0.10021141
12	0x3e1082c7	0.14112388
13	0x3f09b350	0.53789234
14	0x3e1f3b2b	0.15549915
15	0x3e89db8e	0.2692532
16	0x3e1aeeac	0.15130109
17	0x3b41f100	0.002959311
18	0xbe018c22	-0.12651113
19	0x3e4c1c78	0.19932735
20	0x3e27ac1e	0.16374251
21	0x3db4fd7c	0.08837411
22	0xbde45d08	-0.11150557
23	0x3e24aa02	0.16080478
24	0x3c983208	0.018578544
25	0x3e0a3694	0.13497382
26	0x3dae7a88	0.08519465
27	0x3dddfc70	0.10839164
28	0xbe3769ac	-0.17911404
29	0xbde7cc7c	-0.11318299
30	0x3dfabb74	0.12242785
31	0xbd2e3024	-0.04252638
32	0xbe35d88c	-0.17758387
33	0x3e3e15e2	0.18563035
34	0xbb90a5c0	-0.00441429
35	0x3e289d98	0.16466367
36	0xbe236041	-0.15954687
37	0x3d8fee44	0.070278674
38	0xbd9d7706	-0.076887175
39	0xbdafeb98	-0.08589858
40	0xbd0c0683	-0.034185898
41	0xbda33a4e	-0.07970105
42	0x3d56e83d	0.052467573
43	0x3d21e11a	0.039521314
44	0x3ec41c2d	0.38302746
45	0x3ecb52af	0.3971152
46	0x3d057c0c	0.032589003
47	0xbd8342e6	-0.06409244
48	0xbe3f6598	-0.18691099
49	0xbd73e828	-0.059547573
50	0xbe418fe1	-0.18902542
51	0xbd1ae748	-0.037818223
52	0x3b5aa540	0.0033362657
53	0xbc578620	-0.0131545365
54	0xbdcd59f5	-0.100269236
55	0x3e11134a	0.14167514
56	0x3deb6f6c	0.114958614
57	0xbd4dfe7c	-0.050291523
58	0xbda52c2a	-0.08065064
59	0x3e036928	0.12833083
60	0x3e35daee	0.17759296
61	0xbe3f63c0	-0.18690395
62	0xbd34a540	-0.044102907
63	0xbc9b2eb0	-0.01894316
64	0xbd975bb4	-0.07390538
65	0x3e3271e8	0.17426264
66	0xbcf70030	-0.030151457
67	0x3e313850	0.17306638
68	0x3a844400	0.0010091066
69	0xbcb56250	-0.022141606
70	0xbdf3d8da	-0.119065955
71	0xbd8b00c8	-0.067872584
72	0x3d956cd4	0.07296148
73	0x3daee261	0.08539272
74	0xbd7a6f08	-0.061141044
75	0x3e87f633	0.26555023
76	0x3da2357f	0.0792036
77	0x3ed7f478	0.42178702
78	0x3e78111e	0.2422528
79	0x3c6218f4	0.013799895
80	0x3e25f204	0.16205603
81	0x3b5c8500	0.003364861
82	0xbe1c86a1	-0.15285732
83	0xbde558d8	-0.11198586
84	0x3d9b9a74	0.07597819
85	0xbdb4e8b9	-0.08833451
86	0x3d4916e8	0.04909411
87	0x3e4dbb6c	0.20091027
88	0x3d8e008c	0.06933698
89	0xbc9c7fd8	-0.01910393
90	0x3d50fc48	0.051021844
91	0xbdf0dad0	-0.11760485
92	0xbe2fa1e1	-0.17151596
93	0xbe1d1f62	-0.15344003
94	0xbe2f644f	-0.17128108
95	0x3d2b9520	0.041890264
96	0x3d22db58	0.039759964
97	0xbdb1a802	-0.08674623
98	0xbe4c74c3	-0.19966416
99	0x3de27528	0.11057502
100	0xbded340d	-0.115821935
101	0xbd0b9570	-0.03407806
102	0xbe2f431a	-0.17115441
103	0xbdebd81f	-0.11515831
104	0x3dbefc43	0.09325459
105	0xbe480b3c	-0.19535536
106	0xbe319f73	-0.17345981
107	0x3e71545c	0.23567337
108	0x3e07d358	0.13264215
109	0x3e8ddf50	0.27709436
110	0x3c5ba2e8	0.013405539
111	0x3e163a34	0.1467064
112	0xbdfbab60	-0.122885466
113	0x3c1e6df7	0.009669772
114	0x3ca4546d	0.020059789
115	0x3d99467a	0.074841455
116	0x3e9096d7	0.28240082
117	0x3e5b907f	0.2144184
118	0x3e44ddd5	0.19225247
119	0x3e2431b6	0.16034588
120	0xbc85a22d	-0.016312683
121	0xbe33506a	-0.17511144
122	0x3cb0cdb7	0.021582467
123	0x3e58d8b9	0.21176423
124	0x3e480b67	0.195356
125	0x3ee7162f	0.45134112
126	0x3e119474	0.14216787
127	0xbcf155cb	-0.029459855
128	0xbbcb20e8	-0.006198991
129	0x3e4b5528	0.19856703
130	0xbd657a11	-0.056024615
131	0xbda6f0f0	-0.08151424
132	0x3e5f4006	0.21801767
133	0x3eea2b81	0.45736316
134	0xbb0d6884	-0.0021577189
135	0xbd5ff683	-0.05467845
136	0x3e38848c	0.18019313
137	0x3dc0eafb	0.09419819
138	0xbdcaefb0	-0.09908998
139	0x3dce4689	0.10072047
140	0x3e6813c5	0.22663791
141	0x3eda5022	0.4263926
142	0x3dbdc67d	0.09266374
143	0xbd3dfb4b	-0.04638223
144	0x3d4cfbdf	0.05004489
145	0xbb7dfa19	-0.0038753806
146	0xbd661b1e	-0.056178205
147	0x3aafde8e	0.0013417767
148	0x3e9182f4	0.28420222
149	0x3e45e52b	0.19325702
150	0x3e1eaf0b	0.15496461
151	0x3e450d60	0.19243383
152	0xbc42ef30	-0.011897847
153	0xbe2a50a0	-0.16632318
154	0xbd84f2bb	-0.0649161
155	0x3da6cf87	0.081450514
156	0x3d7900a7	0.060791638
157	0x3e60dea1	0.21959926
158	0x3e892b5e	0.267909
159	0x3e5dd75c	0.21664184
160	0x3dfc278c	0.123122305
161	0x3e0806cd	0.13283844
162	0x3c8eedd5	0.017447392
163	0x3e402021	0.18762256
164	0x3eb89156	0.36048383
165	0x3e9bb427	0.30410883
166	0x3d6bf9c5	0.057611246
167	0x3e5d4e8a	0.21611992
168	0x3c278b1a	0.0102260355
169	0xbe134c27	-0.14384519
170	0xbe5f4de8	-0.21807063
171	0x3e500052	0.20312622
172	0x3edc3a0e	0.43013042
173	0x3f09a480	0.5376663
174	0x3de4049d	0.111336924
175	0x3e57f65e	0.21090075
176	0xbe358601	-0.177269
177	0xbe1f94c2	-0.1558409
178	0xbe8410c4	-0.2579404
179	0x3e813041	0.25232127
180	0x3e794c64	0.24345547
181	0x3e8d342f	0.27578875
182	0x3e0af56d	0.13570185
183	0xbcb1e326	-0.021714758
184	0xbdf5356b	-0.11973079
185	0x3d89cbc0	0.06728315
186	0xbce10dc8	-0.027472392
187	0xbd6ee5ab	-0.058324497
188	0x3de47480	0.11155033
189	0x3eefa59b	0.46806034
190	0x3e7fbb0d	0.24973698
191	0x3db31726	0.087446496

fc1.bias f4 [24]
0	0xbe7f5fcc	-0.24938887
1	0x3dd1f831	0.10252417
2	0xbe7f36a2	-0.24923185
3	0xbe474beb	-0.19462554
4	0xbe52f640	-0.2060175
5	0x3e3d0676	0.18459496
6	0xbe57be5d	-0.21068712
7	0xbbfcc200	-0.0077135563
8	0x3c73af40	0.014873326
9	0x3e92558d	0.28580895
10	0xbe88d60e	-0.2672581
11	0xbe788b42	-0.24271873
12	0xbe5238d0	-0.20529485
13	0x3ea2adb9	0.31773165
14	0xbcdfe225	-0.027329514
15	0x3ebaa5b4	0.36454546
16	0x3e449b39	0.19199838
17	0x3e043507	0.12910853
18	0x3dba43e0	0.090949774
19	0x3c142590	0.009042159
20	0x3e02b278	0.12763393
21	0xbb8aca98	-0.004235577
22	0x3d822e9b	0.063565455
23	0x3e0f1e22	0.13976339

fc2.weight f4 [48, 24]
0	0xbd947a25	-0.0724986
1	0x3d8ebd42	0.06969692
2	0x3cce3828	0.025173262
3	0xbe0165b6	-0.12636456
4	0xbdbf9072	-0.09353723
5	0x3d0166c4	0.031592146
6	0x3db6e96a	0.08931239
7	0xbd3deeec	-0.04637043
8	0x3d8eef22	0.06979205
9	0xbdb71228	-0.0893901
10	0x3e0d6fb6	0.13812146
11	0x3dd2a162	0.102846876
12	0x3cdd7980	0.027035475
13	0x3d838300	0.06421471
14	0x3d4dd528	0.05025211
15	0xbdae6f48	-0.08517319
16	0xbaa4f800	-0.0012586117
17	0x3d1da6c4	0.03848912
18	0xbd05719a	-0.032579042
19	0x3e0dbbd6	0.13841185
20	0xbd63fda8	-0.055661827
21	0xbe03ff47	-0.1289035
22	0xbd8cbacd	-0.06871567
23	0xbe092c28	-0.1339575
24	0x3df39764	0.1189411
25	0x3c215e14	0.00984909
26	0xbdcffa85	-0.10155205
27	0xbc7fa280	-0.015602708
28	0xbdc72e16	-0.09725587
29	0x3c8b1325	0.016976902
30	0x3d96b39a	0.07358475
31	0xbdddf00c	-0.10836801
32	0x3d8b677e	0.06806849
33	0x3e2dee93	0.1698554
34	0xb9a9be00	-0.00032375753
35	0x3d83423a	0.06409116
36	0xbda595b2	-0.08085193
37	0x3e3cd40c	0.18440264
38	0x3e67ef80	0.22649956
39	0x3dcdbb59	0.10045499
40	0x3e6b62f8	0.22986972
41	0xbd2b1e73	-0.041777086
42	0x3d81d0e2	0.06338669
43	0x3dd3fd81	0.103510864
44	0xbd345f9e	-0.0440365
45	0x3e2088d6	0.15677199
46	0x3d7c9d4b	0.061673444
47	0x3cc8b872	0.024502013
48	0xbdea8932	-0.11451949
49	0x3e037c8d	0.12840481
50	0xbdd716c7	-0.10502391
51	0xbcfaea30	-0.030629247
52	0x3d8350f8	0.06411928
53	0x3e470f6b	0.19439475
54	0x3d05afd0	0.03263837
55	0xbd5c8b9a	-0.053844072
56	0xbd8093c4	-0.06278184
57	0x3e0fd200	0.14044952
58	0x3cdb61d8	0.026780054
59	0x3df8d710	0.12150395
60	0x3d5ea3e0	0.054355502
61	0x3e3b35db	0.18282263
62	0xbd115e51	-0.035490338
63	0x3e3530ad	0.1769435
64	0x3cccb5a9	0.024988966
65	0x3d5b27aa	0.053504623
66	0x3d98b264	0.074559
67	0x3d2e038c	0.04248385
68	0x3dd5a941	0.10432673
69	0x3e541847	0.20712386
70	0x3cd4d7af	0.025981752
71	0x3dec8151	0.11548103
72	0xbded93e2	-0.11600472
73	0x3dbc9bfb	0.092094384
74	0x3df3857c	0.118906945
75	0x3dc75204	0.0973244
76	0x3dfd24c4	0.12360528
77	0x3e2a6942	0.16641715
78	0xbc43a760	-0.011941761
79	0x3d1a5cb0	0.03768605
80	0xbd7709d8	-0.060312122
81	0x3e39d632	0.18148115
82	0x3d940290	0.07227051
83	0xbdd85ba6	-0.105643556
84	0x3dff9868	0.12480241
85	0x3d83a10c	0.06427202
86	0x3d9af4a4	0.07566193
87	0x3cacbf6b	0.021087369
88	0x3d694170	0.05694717
89	0x3dd0b0ed	0.10189996
90	0x3b6b1d99	0.0035875796
91	0xbd84647f	-0.064644806
92	0x3b062b88	0.0020472724
93	0x3d50069c	0.050787553
94	0x3e648e20	0.22319841
95	0x3e354bc4	0.17704684
96	0xbdb11c86	-0.086480185
97	0xbbb59b20	-0.005542174
98	0xbd2aa1c8	-0.041658193
99	0xbd9e2373	-0.07721605
100	0xbccfeca0	-0.025381386
101	0xbd4d2264	-0.050081626
102	0x3da53a46	0.080677554
103	0xbd9299d7	-0.07158249
104	0x3cb5eae8	0.022206739
105	0xbda6d02e	-0.08145176
106	0xbd3884c2	-0.045048483
107	0x3de8b4bc	0.11362597
108	0xbd911f53	-0.07086053
109	0xbc0e32d0	-0.008679107
110	0x3e0d2866	0.13784942
111	0x3d4a59c8	0.04940203
112	0xbd967636	-0.07346766
113	0xbdb17b2c	-0.08666071
114	0xbd4f5226	-0.050615452
115	0xbd3922ca	-0.045199193
116	0x3d80b3aa	0.06284268
117	0xbd0370a0	-0.03208983
118	0x3df94f30	0.12173307
119	0xbda2312e	-0.079195365
120	0xbd38df5e	-0.045134895
121	0x3e03426e	0.1281831
122	0x3dec15c0	0.11527586
123	0x3e0d62d4	0.13807231
124	0x3cbd4130	0.023102373
125	0x3dc77237	0.09738582
126	0xbd8470d7	-0.06466835
127	0x3da7057c	0.08155343
128	0xbdab58a1	-0.08366514
129	0x3ce50616	0.027957004
130	0xbdf71076	-0.120636865
131	0xbe0e168f	-0.13875793
132	0x3da53a60	0.08067775
133	0x3da95014	0.08267227
134	0x3e4e16ae	0.20125839
135	0x3e3a77e3	0.18209796
136	0x3e30a83c	0.17251676
137	0x3e22ba55	0.15891393
138	0x3d2e05f7	0.042486157
139	0x3e1c139e	0.15241858
140	0x3e1afb56	0.1513494
141	0x3e0c79e1	0.13718368
142	0x3de275fa	0.110576585
143	0x3dcadafb	0.099050485
144	0x3a27e100	0.0006404072
145	0xbdd686e2	-0.104749456
146	0x3d093dec	0.03350632
147	0xbdd94fb8	-0.10610908
148	0x3d8f6d58	0.070032775
149	0xbdb01f90	-0.0859977
150	0xbd411e32	-0.047147937
151	0xbd8c30da	-0.06845255
152	0x3de952b0	0.113927245
153	0xbdd02b5c	-0.1016452
154	0x3d96f06a	0.07370074
155	0x3d944108	0.07238966
156	0x3dd10378	0.1020574
157	0x3d142118	0.036164373
158	0x3da125d6	0.07868545
159	0x3de9aca8	0.11409885
160	0x3ce8e840	0.028431058
161	0x3d49054c	0.049077317
162	0xbde7246e	-0.11286245
163	0xbd1e944c	-0.038715646
164	0x3c566c60	0.013087362
165	0x3c8f4260	0.017487705
166	0xbd50dfbe	-0.050994627
167	0xbe128579	-0.14308728
168	0xbd19bfd8	-0.037536472
169	0x3e01587e	0.12631413
170	0x3dfe890c	0.12428483
171	0xbe05781f	-0.13034104
172	0x3d8d2198	0.06891173
173	0xbd48f23c	-0.049059138
174	0xbe0d57cf	-0.13803028
175	0xbdb91eb6	-0.09039061
176	0xbc9c2d50	-0.019064575
177	0x3dce9d5e	0.10088609
178	0xbde0cf44	-0.10977033
179	0x3de3bea0	0.11120343
180	0x3e05a85c	0.13052505
181	0x3d9d4d34	0.07680741
182	0x3e4dcd79	0.20097913
183	0xbb5aa2d0	-0.0033361204
184	0x3d182986	0.037148975
185	0x3d9f98e0	0.077928305
186	0x3dbb01ae	0.0913118
187	0xbcf1e409	-0.029527681
188	0xbd1ad9a2	-0.037805207
189	0x3e0e69be	0.13907525
190	0x3e1d8471	0.15382554
191	0x3e5aa664	0.21352535
192	0xbd710ae8	-0.05884829
193	0x3e016a95	0.12638314
194	0xbd6e931a	-0.058245756
195	0x3d91eca8	0.07125217
196	0xbc02fff0	-0.007995591
197	0x3e4af9c6	0.19821844
198	0x3da43a5c	0.08018944
199	0x3df60b74	0.12013903
200	0x3d97e8c4	0.074174434
201	0x3d903a33	0.070423506
202	0x3dfebe28	0.12438613
203	0xbdada1cc	-0.08478126
204	0x3e0b678c	0.13613719
205	0x3e5a7a6b	0.21335761
206	0x3e66f744	0.22555262
207	0xba86079d	-0.0010225658
208	0x3ca7d880	0.020488977
209	0x3de524ff	0.11188697
210	0x3dffe5cb	0.124950014
211	0x3e177219	0.14789619
212	0x3e102005	0.14074714
213	0x3e5872f7	0.21137606
214	0x3da01923	0.078172944
215	0x3cf38509	0.029726522
216	0x3d462c30	0.048381984
217	0x3df022e6	0.11725406
218	0xbdac6f00	-0.08419609
219	0x3c64bcb0	0.013961002
220	0xbde06fd0	-0.109588265
221	0x3d4dade4	0.050214663
222	0xbd680860	-0.056648612
223	0x3e018f7c	0.12652391
224	0xbe050c13	-0.12992887
225	0xbc93f90b	-0.018063089
226	0xbe10a4a5	-0.14125307
227	0x3d151b00	0.036402702
228	0xbde385ca	-0.111095026
229	0x3df7a817	0.120926075
230	0xbc4a5a4d	-0.012350631
231	0xbcc408e6	-0.023930024
232	0x3cc63be4	0.02419848
233	0x3dffd708	0.12492186
234	0x3e5b36c7	0.21407615
235	0x3e597709	0.21236815
236	0x3d949537	0.07255023
237	0xbd55248b	-0.052036803
238	0x3d8bc3e9	0.06824476
239	0x3cc4306b	0.023948869
240	0xbcfb7e88	-0.030699983
241	0x3e065ae5	0.13120611
242	0x3d94c208	0.07263571
243	0x3d831024	0.06399563
244	0x3d28e394	0.04123266
245	0x3d084648	0.03327015
246	0xbac8b100	-0.0015311539
247	0x3c967b98	0.018369481
248	0xbd96fdc8	-0.07372624
249	0x3d5a762e	0.05333536
250	0xbc939970	-0.0180175
251	0xbe0ba518	-0.13637197
252	0x3dc8656c	0.0978497
253	0x3d7046f9	0.058661435
254	0xbd1b6c21	-0.037944917
255	0x3e3a2999	0.18179931

fc2.bias f4 [48]
0	0xbe2533e4	-0.16133076
1	0x3e5dfb60	0.21677923
2	0xbd8a6c74	-0.06758967
3	0x3e365c90	0.17808747
4	0xbe471fe1	-0.19445755
5	0x3ca4bfa6	0.020110916
6	0x3b0dc940	0.0021634847
7	0x3dae192c	0.08500895
8	0x3d90c9bc	0.07069728
9	0x3df76b9b	0.12081071
10	0x3d073179	0.033006165
11	0x3d4cad51	0.049969975
12	0x3e828fe3	0.25500402
13	0xbe073fb4	-0.13207895
14	0xbc369780	-0.011144519
15	0xbd9f93f0	-0.07791889
16	0x3e6a6211	0.22888972
17	0x3e63f3f0	0.22261024
18	0x3dbfe712	0.09370245
19	0xbce0c7ec	-0.02743908
20	0x3d9f08d6	0.07765357
21	0x3e4b12b2	0.1983135
22	0xbc664e30	-0.014056727
23	0x3e7b6d68	0.24553454
24	0x3e30bcfc	0.17259592
25	0x3e6e5195	0.23273309
26	0x3e57ad29	0.21062149
27	0xbe07d502	-0.1326485
28	0x3de834b6	0.11338179
29	0xbdb70078	-0.08935636
30	0x3e203d98	0.15648496
31	0xbc965888	-0.018352762
32	0x3c427315	0.011868258
33	0xbdccfc1e	-0.10009025
34	0xbe3acf30	-0.18243098
35	0x3dff7a32	0.12474479
36	0x3d39e393	0.045383047
37	0x3d79b303	0.060961735
38	0x3e47676f	0.1947305
39	0xbdae90bf	-0.08523702
40	0x3dfe2dbc	0.12411067
41	0xbd81b177	-0.06332677
42	0x3d2d3d04	0.042294517
43	0x3bc584e6	0.0060278056
44	0x3e102c51	0.14079405
45	0x3e6eecff	0.23332594
46	0x3e6bc4b8	0.23024261
47	0x3c1671a0	0.009182364

fc3.weight f4 [1, 48]
0	0x3a3ad06c	0.0007126394
1	0x3d1ba15c	0.03799568
2	0x3d6e2bab	0.058147114
3	0x3d1b3614	0.03789337
4	0x3b212786	0.0024590208
5	0x3d6cb0d3	0.05778582
6	0xb9c93d98	-0.00038383598
7	0x3d603b11	0.05474383
8	0x3d5a0072	0.05322308
9	0x3d5d17a7	0.053977635
10	0x3d6b2784	0.057410732
11	0xbc767a12	-0.015043752
12	0x3d22d3cb	0.039752763
13	0xb98ccfd0	-0.00026857713
14	0x3a8a4a18	0.0010550646
15	0x3b2598a8	0.0025267992
16	0x3d17a395	0.03702124
17	0x3d0ddcf9	0.034634564
18	0x3db45a4f	0.088062875
19	0x3d45bd53	0.048276257
20	0x3e641b78	0.22276103
21	0x3d357be2	0.044307597
22	0xb8b55840	-8.6471904e-05
23	0x3d28994a	0.041161813
24	0x3d5eef7a	0.0544276
25	0x3d2b2969	0.04178754
26	0x3d1ca796	0.03824576
27	0xb9463bd0	-0.00018905033
28	0x3d56db5c	0.05245529
29	0xbbb3a3eb	-0.005482187
30	0x3d32ba18	0.043634504
31	0x3a873720	0.0010316111
32	0xbc0647e2	-0.008195849
33	0xbd2cd3d5	-0.042194206
34	0x374be000	1.2151897e-05
35	0x3d30f651	0.043203656
36	0xbca6d636	-0.020365816
37	0x3d3d5441	0.04622293
38	0x3d41c74a	0.047309197
39	0xb8faad20	-0.00011953176
40	0x3d3f36ab	0.046682995
41	0x3d630707	0.055426624
42	0x3a4ec164	0.0007887094
43	0x3d69b5d4	0.05705817
44	0x39113c01	0.00013850631
45	0x3d228373	0.03967614
46	0x3d2e3a8d	0.042536307
47	0x3a9bfcb4	0.0011900873
