financial/finance/trained_models/TD3__baseline__NormalizedExec/actor.pth (torch, 9687 bytes, 9 tensors)

fc1.weight f4 [24, 8]
000000 b9 fb 50 be b5 ed 90 3d 31 a1 9e 3d 49 a4 2b 3e
       -0.20408525 0.07076589 0.077455886 0.16761889
000010 94 b7 c6 bd 0d be 32 3d 6d 86 cf 3d 08 e3 84 3e
       -0.097029835 0.043638278 0.101330616 0.2595446
000020 52 9c 13 3e 7d db c6 bd fd 60 13 be 22 67 19 be
       0.144151 -0.09709833 -0.14392467 -0.14980748
000030 f8 5b d6 bd 83 26 40 3e fc 2a 5b 3d 33 bb 5b 3e
       -0.104667604 0.18764691 0.05350779 0.2145813
000040 db 98 15 3e cc 4a 86 3b bc 7f 0b be f4 50 3a 3e
       0.14609091 0.004098272 -0.13622946 0.18194944
000050 93 cc 0d 3e 35 05 f3 3d 5b 10 04 3d 73 53 8a 3e
       0.1384757 0.118662275 0.03224216 0.27016792
000060 08 32 98 3c 94 36 0a 3e 88 7a ae 3d 70 fc dd 3d
       0.018578544 0.13497382 0.08519465 0.10839164
000070 ac 69 37 be 7c cc e7 bd 74 bb fa 3d 24 30 2e bd
       -0.17911404 -0.11318299 0.12242785 -0.04252638
000080 8c d8 35 be e2 15 3e 3e c0 a5 90 bb 98 9d 28 3e
       -0.17758387 0.18563035 -0.00441429 0.16466367
000090 41 60 23 be 44 ee 8f 3d 06 77 9d bd 98 eb af bd
       -0.15954687 0.070278674 -0.076887175 -0.08589858
0000a0 d0 a4 87 bc 9d 53 b3 bd 96 c3 ce 3c 13 c4 c6 bd
       -0.01655808 -0.08756182 0.025239747 -0.09705367
0000b0 d7 fb 16 3e 00 9d 03 3d 30 4b 08 bd 01 3a 9a bd
       0.14744507 0.03213215 -0.03327483 -0.075305946
0000c0 7e 72 0d be 63 e5 ff bc 3e 4c 23 be fd 77 2a bc
       -0.13813207 -0.03123731 -0.15947053 -0.010404584
0000d0 66 99 c7 3c 59 fe b9 bc d9 0b 9e bd db 55 30 3e
       0.024365138 -0.02270429 -0.077171035 0.17220251
0000e0 6c 6f eb 3d 7c fe 4d bd 2a 2c a5 bd 28 69 03 3e
       0.114958614 -0.050291523 -0.08065064 0.12833083
0000f0 ee da 35 3e c0 63 3f be 40 a5 34 bd b0 2e 9b bc
       0.17759296 -0.18690395 -0.044102907 -0.01894316
000100 d0 e7 22 bd f5 21 2e 3e a7 27 84 bd 67 ab d7 3d
       -0.039771855 0.17005141 -0.064528756 0.10530739
000110 7e 20 9b bc 69 71 96 bc a3 e4 65 bd 31 1d 45 bd
       -0.018936392 -0.018364625 -0.056126248 -0.048123542
000120 b9 88 66 3d 5d d3 39 3d 06 b8 7d bd 0a 30 10 3e
       0.056282733 0.045367587 -0.061943077 0.14080825
000130 1b ef 07 be 66 f7 1c 3d 4f f5 1f 3d bd f6 00 be
       -0.13274805 0.038321875 0.039052304 -0.12594123
000140 6d eb 01 3e a2 45 0c 3c 1f a9 f6 bd a0 a8 77 bd
       0.12687464 0.008561524 -0.12043976 -0.060463548
000150 19 21 cc 3d 58 be 53 bd d1 74 98 3c 33 6f 4f 3e
       0.099672504 -0.051695198 0.01861039 0.20257263
000160 b8 04 8c 3d e7 10 91 bc 06 b6 5a 3d e6 2b f6 bd
       0.068368375 -0.017708255 0.053396247 -0.12020092
000170 fe e6 39 be b3 31 29 be 60 f1 21 be 6f a0 51 3d
       -0.18154523 -0.16522865 -0.15814734 0.051178392
000180 58 db 22 3d 02 a8 b1 bd c3 74 4c be 28 75 e2 3d
       0.039759964 -0.08674623 -0.19966416 0.11057502
000190 0d 34 ed bd 70 95 0b bd 1a 43 2f be 1f d8 eb bd
       -0.115821935 -0.03407806 -0.17115441 -0.11515831
0001a0 4c c1 9e 3d e8 44 0f be d3 fd 54 bd 49 c2 68 3e
       0.07751712 -0.1399113 -0.05199988 0.22730364
0001b0 db c3 a3 bd 9a d9 a9 bd d7 d1 13 bd 99 0a 2b 3d
       -0.07996341 -0.08293457 -0.03608879 0.041758154
0001c0 5d 9b 3a be f9 76 00 3c dc f3 8d 3c c7 64 3a bc
       -0.18223329 0.007840865 0.017328195 -0.011376566
0001d0 bd e8 84 bc c8 ba d3 bd 20 76 df 3d 3f 04 de 3c
       -0.01622426 -0.1033836 0.109112024 0.027101634
0001e0 26 d3 e3 bc 52 50 36 be 5a fb a6 3a 44 31 c1 3d
       -0.027810644 -0.17804077 0.0012739704 0.09433225
0001f0 21 49 01 bd 61 02 b3 3d 7d 82 8e bc ee 49 c7 bd
       -0.03156388 0.08740688 -0.017396206 -0.09730898
000200 77 d2 ec 3b 1b 87 1d 3e 85 98 00 bd aa 24 3a be
       0.007227238 0.1538357 -0.031395454 -0.18178049
000210 8d 77 22 bc e4 5b 9d 3d 66 3b a5 bc 19 da cc bd
       -0.009916198 0.07683542 -0.020169925 -0.10002536
000220 45 23 05 3e b2 ec 3e 3d c9 16 06 be bb 72 28 bd
       0.13001736 0.04661245 -0.1309463 -0.04112504
000230 4f ca 19 bd 05 4a b6 3d 6b 80 c6 3d 6f 60 13 3c
       -0.037546452 0.08900837 0.096924625 0.0089951595
000240 8f fc be ba 6e 4e 5b bc c4 b6 2b 3d 91 45 cd bc
       -0.0014571118 -0.013385398 0.041922346 -0.025057586
000250 bd e6 4e 3d 03 63 0a be d0 e2 39 bd 8b 57 d0 3d
       0.050513018 -0.13514332 -0.04538232 0.101729475
000260 f3 21 c0 bd ee a2 03 be 7a 6f 0f 3c a1 8b 1a 3d
       -0.09381475 -0.12855121 0.008754605 0.037730817
000270 a4 1b 29 be 5e e8 f8 bd c8 cf f4 3d f2 0e a7 3d
       -0.1651445 -0.121536955 0.11953694 0.081571475
000280 b2 a7 c2 3d d0 e0 12 3e ba 75 04 3e 19 78 21 3e
       0.095046416 0.14343572 0.12935534 0.1576847
000290 b7 4b 06 3e 91 f6 11 bd a5 58 14 3d 05 85 b6 3d
       0.1311482 -0.035635535 0.03621735 0.0891209
0002a0 fe b3 4d bd 7d 17 cc bd c0 12 bf bd 08 1c ec 3d
       -0.050220482 -0.099654175 -0.09329748 0.11528784
0002b0 fb 62 d1 3d 88 8e 17 3e a6 e4 48 3d 2e 83 15 3e
       0.10223957 0.14800465 0.04904618 0.14600822
0002c0 f4 d5 21 be 68 a6 1d be d6 3b 6d be b7 60 f6 3d
       -0.15804273 -0.1539551 -0.23167357 0.12030166
0002d0 01 51 15 3b 0e 47 ab bc cf e1 90 3d fe 05 56 3d
       0.0022783878 -0.020907905 0.070743196 0.05225181
0002e0 92 a2 42 be 37 b6 87 3d b9 45 c9 ba 09 a8 ce bd
       -0.19007328 0.066265516 -0.0015355862 -0.10090644
0002f0 20 97 e3 bd 1d 5d fb 3d 91 8e 57 3d bd b2 a9 3d
       -0.11112809 0.12273619 0.052626196 0.08286045

fc1.bias f4 [24]
000000 4a ab 41 be 76 96 7e 3c 92 59 01 be eb 4b 47 be
       -0.18912998 0.015538802 -0.12631825 -0.19462554
000010 40 f6 52 be a7 68 0a 3e 0f ad 16 be 00 c2 fc bb
       -0.2060175 0.13516484 -0.14714454 -0.0077135563
000020 d4 ab 8a 3d 50 e6 37 3e b7 44 8a be 54 07 6f be
       0.06771055 0.17958951 -0.2700555 -0.23342639
000030 d0 38 52 be dd 33 78 3e ae e5 19 be 36 3f 5b 3e
       -0.20529485 0.24238534 -0.15029022 0.21410832
000040 4f 2f 15 3e e6 26 36 3d e5 82 e9 bd 4e 46 8a be
       0.14568828 0.04447069 -0.11401919 -0.27006763
000050 11 64 4b 3d ed 0f 8f bd 9b 58 73 3b dd 93 0f 3d
       0.049655978 -0.069854595 0.003713167 0.035053123

fc2.weight f4 [48, 24]
000000 22 2b d9 bd d2 a3 b6 3d 27 ef 69 bd 12 f5 b2 bd
       -0.1060393 0.08917965 -0.05711284 -0.0873815
000010 ca 4a 07 be 45 76 9b bc 05 66 ef 3d 32 5c 7b bb
       -0.13212124 -0.018977294 0.116893806 -0.0038354513
000020 47 d5 bf 3c 82 5c 04 be 4a 2f 87 3e 3d d4 74 3d
       0.023417128 -0.12925914 0.26403266 0.05977272
000030 79 5b 6b bc 1f 84 b2 3d 12 e9 36 bb d5 26 02 be
       -0.0143650705 0.08716606 -0.0027909917 -0.12710126
000040 a6 a8 3b bd 90 b4 f6 bc 21 93 0f 3e 66 43 19 3e
       -0.045815133 -0.030115396 0.14020969 0.14967117
000050 77 1f d2 bb 01 21 09 be f2 96 89 be 50 be 9a be
       -0.0064124423 -0.13391496 -0.26872975 -0.30223322
000060 80 6b 00 be c8 86 2b be b2 ea a6 be 27 cd 31 3e
       -0.12541008 -0.16750634 -0.32600933 0.17363416
000070 e9 6c 93 be 72 9d 62 3c df 31 f7 3c b8 61 bd 3d
       -0.2879403 0.013831483 0.030175148 0.09247154
000080 c7 a6 06 be 4c 40 39 3e 68 e2 b2 be b2 a4 06 be
       -0.13149558 0.18090934 -0.3493836 -0.13148764
000090 3f 28 92 be 9b eb 9f ba 64 8b 71 3c 32 c2 ef 3d
       -0.2854633 -0.0012200953 0.014742706 0.11706962
0000a0 bc 05 5d 3e ad 31 b5 bc 82 6d 30 be 27 57 f1 bd
       0.21584219 -0.022118414 -0.17229274 -0.11784201
0000b0 d6 5e 58 be 32 10 fc bd 1f 0e 39 3d e3 ba 26 be
       -0.21129927 -0.123077765 0.045179483 -0.16282229
0000c0 ba 9a de be e2 82 7a bd 98 ba b1 be 3a b3 93 3e
       -0.43477422 -0.061159976 -0.34712672 0.28847677
0000d0 93 7f 82 be 0d 0d 6b 3e 65 d9 71 3c 62 5f 8d 3e
       -0.25487956 0.22954197 0.014761304 0.27611834
0000e0 a0 97 a3 be 50 fb 56 3e 9d cc d4 be ae 58 50 be
       -0.31951618 0.20994306 -0.41562358 -0.20346329
0000f0 e5 ea 8f be 32 a5 b8 bc f4 1f 89 be 35 14 78 3e
       -0.28108898 -0.022539709 -0.2678219 0.24226458
000100 52 e3 03 3d 2b 77 10 3d 21 5a 44 be 09 c5 1d be
       0.03219921 0.035269897 -0.19175006 -0.15407194
000110 a2 18 bb bd 6c 45 0f be 91 55 00 bd ca 8c 8e bd
       -0.09135558 -0.13991326 -0.031331602 -0.06960447
000120 ea 32 a1 be d2 4a d2 bd d0 70 8a bd 58 95 7e 3e
       -0.31484157 -0.10268177 -0.067597985 0.24861658
000130 15 cb ec bc 9d 73 4d 3e b8 f7 b7 ba 92 07 4d 3e
       -0.02890543 0.20063634 -0.0014035618 0.20022419
000140 0c c2 39 be 49 41 80 3e c4 1b 8b be 5f a8 85 be
       -0.1814043 0.2504981 -0.2716962 -0.2610502
000150 9d 4f 2b bd f3 94 dc bd 05 bf 99 bd 79 2a a2 3d
       -0.041823972 -0.10770597 -0.07507137 0.07918257
000160 06 ae b0 3d 19 49 82 3d 9b 7b 25 be 19 08 4e be
       0.08626942 0.063615985 -0.16160433 -0.20120277
000170 94 85 47 be ef fc 5d be 9d 46 0f 3e c5 e6 1e bd
       -0.1948455 -0.21678518 0.1399178 -0.038794298
000180 b7 70 97 be 53 6a f0 bd 2b 6f 8c be c0 83 35 3e
       -0.29578182 -0.1173903 -0.27428564 0.1772604
000190 9b e2 8e be a9 c2 7f 3d d1 57 81 3d 2d 51 48 3e
       -0.2790726 0.0624415 0.06315578 0.19562216
0001a0 b8 49 78 be db 01 6b 3d d0 f0 e7 be f2 a3 13 be
       -0.24246871 0.057374816 -0.45300913 -0.14418009
0001b0 e5 f0 b0 be 37 b8 05 be 4e ba 28 3d c4 f4 2c 3e
       -0.34558788 -0.13058554 0.0411933 0.16890246
0001c0 7a db 0d 3d e8 bd 66 bc fe e3 1e be 8e ea ed bd
       0.034633137 -0.014083363 -0.1551666 -0.116170034
0001d0 59 cd 4a bd 2f 52 64 be 50 e0 2b 3e 41 95 48 be
       -0.04951224 -0.22296976 0.16784787 -0.19588186
0001e0 d5 79 88 be d0 5d a2 bd 7b 0a e8 bd 86 a3 9e 3e
       -0.2665545 -0.079280496 -0.11330124 0.30984133
0001f0 40 5e 1b be 5e d8 03 3e 55 f4 75 bd f9 31 89 3e
       -0.15172672 0.12875506 -0.060047466 0.2679594
000200 47 fe 8d be 1d 22 a6 3d a3 2c ee be 69 f0 a1 be
       -0.2773306 0.08111975 -0.4651843 -0.3162873
000210 98 f9 e2 bd 4e 3e dd bd cb 8c 70 3d c4 c4 6e 3e
       -0.110827625 -0.10802899 0.05872802 0.23317248
000220 14 8d 4c 3e c7 2f 0e 3e 85 14 13 be c0 4f 5d bb
       0.19975692 0.13885413 -0.14363296 -0.0033769459
000230 d8 4e 60 bd ec c1 20 be ab cc 47 3d 17 dc 01 be
       -0.05476269 -0.15698975 0.04877917 -0.12681614
000240 41 de 44 be d8 63 52 be 63 68 3a be 37 9c 02 3e
       -0.19225408 -0.205459 -0.18203883 0.12754904
000250 bd 6c 28 be 31 1d 4e 3c a6 dc 52 bd 64 e9 37 3e
       -0.1644773 0.012580202 -0.051479958 0.17960125
000260 7b f8 17 be 59 c7 ce 3c 2b 0c a2 be 76 fc 28 be
       -0.14840882 0.02524154 -0.31649908 -0.16502556
000270 8d ab 1d be f7 63 8f bd 85 a6 e5 bc 63 20 5e 3e
       -0.15397473 -0.07001489 -0.028033504 0.21692042
000280 86 90 fa 3d 0a 23 db 3d 35 8a 5d be 67 76 f6 bd
       0.12234597 0.107000425 -0.21634753 -0.12034302
000290 ab 64 b0 bd 1b 4d 21 be 83 98 8f bb 5f a8 81 be
       -0.08612951 -0.1575207 -0.0043821945 -0.2532377
0002a0 f3 60 b0 be 6d cc 9e bd 6e 37 22 be 81 10 b5 3b
       -0.34448966 -0.07753835 -0.15841457 0.005525649
0002b0 ab 60 93 bd ba 6b 9e 3c 1e 8c 50 be 50 43 65 3d
       -0.07196172 0.019338477 -0.2036595 0.055972397
0002c0 47 19 45 be e3 ff 18 3e d6 d3 e1 be b3 f5 00 bd
       -0.19247924 0.14941363 -0.4410693 -0.031484317
0002d0 70 e5 6b bc f8 fb 11 be 4c 11 ab 3d 8d 10 d9 3d
       -0.014397964 -0.14256275 0.083529085 0.1059886
0002e0 a1 7f 85 3d 19 8b a5 3d 65 df 24 be 96 8b 0c be
       0.06518484 0.080831714 -0.16100843 -0.13725123
0002f0 b9 bd 95 be e3 7b 4f be 13 6d e3 3d 2e 2d ad 3d
       -0.2924631 -0.20262103 0.11104789 0.08455883
000300 71 29 0b bb 13 3d 11 3e 15 79 be bd 15 97 5b 3e
       -0.0021234418 0.14183454 -0.09300438 0.21444352
000310 2f 3e 20 be b3 b2 82 bc 53 1f f5 3d bb a9 89 3e
       -0.15648721 -0.015954351 0.11968865 0.26887307
000320 1a ce b0 bd 8a 01 3c be 4a 46 0b 3e aa b3 67 be
       -0.08633061 -0.18359962 0.13601032 -0.2262713
000330 38 29 21 bc 58 70 9f 3e bc 53 c6 bd 85 53 5c be
       -0.0098364875 0.311404 -0.0968394 -0.21516235
000340 b5 f1 49 be c1 a1 03 3d e7 08 95 3b 5e 9c 23 be
       -0.1972111 0.032136682 0.0045481804 -0.15977618
000350 4e 32 4b 3e 72 a3 45 3e 4e 0e 7c 3c 58 5c c2 bd
       0.19843408 0.1930063 0.01538427 -0.094902694
000360 7a f1 57 bd c6 3d 48 3c 20 74 be be 04 9e 89 3d
       -0.052720524 0.012221759 -0.3719797 0.06719592
000370 94 b1 2a be a1 d0 d0 bc d5 b9 db bb 38 bb 3c 3e
       -0.16669303 -0.025490107 -0.0067055025 0.18430793
000380 ab 3f 33 be 0b 53 86 bd e9 37 d7 bc d7 01 aa bc
       -0.17504756 -0.06558808 -0.026271777 -0.02075283
000390 9f f1 29 be 44 2f bf 3c 34 ce 2e be 35 1a a2 bd
       -0.16596077 0.023337968 -0.17070848 -0.07915155
0003a0 80 a7 6e bd 76 ed 20 3d bb 75 40 3e d2 a6 cb 3d
       -0.05826521 0.03928896 0.1879491 0.09943928
0003b0 ec 93 8b bc a8 86 7c be f8 ed 8d bd 14 12 3f be
       -0.017038308 -0.24660742 -0.069301546 -0.1865924
0003c0 0f e3 93 be c2 bc 65 3c 09 7e 9f be 78 d8 83 3e
       -0.2888417 0.014022054 -0.31150845 0.2575109
0003d0 db c8 17 be d9 76 93 bc d7 d8 7f 3d 03 d6 5c 3e
       -0.14822714 -0.018001007 0.062462654 0.21566014
0003e0 b4 91 6a be 6a a9 9f 3d 01 0f fc bd ab 0f ab be
       -0.22907144 0.07795985 -0.12307549 -0.3341039
0003f0 a7 da d4 bd 23 c3 4d bd a4 3f 5d be cf 10 2d 3e
       -0.10393267 -0.050234925 -0.21606308 0.16900943

fc2.bias f4 [48]
000000 94 be 1b be 6c 70 90 3e d7 af df 3d ba c7 58 3e
       -0.15209419 0.2821077 0.10922211 0.2116994
000010 2f b0 20 bd f1 28 77 3d 9b 59 18 3e c5 c3 f4 3d
       -0.03923052 0.06034178 0.14877932 0.119514026
000020 9c b8 14 3e 81 a5 b1 3d 5a 56 bb 3d c9 7e 22 3e
       0.14523548 0.086741455 0.0914733 0.15868677
000030 f2 a5 8f 3e a2 e9 9d 3b fa 40 ce bc 47 93 08 3d
       0.28056294 0.004819111 -0.025177468 0.03334358
000040 8a 42 8d 3e f9 e0 86 3e 52 53 06 3e b7 f2 2e 3d
       0.27589828 0.26343516 0.13117722 0.04271194
000050 95 5d d2 bb d6 12 84 3e d1 19 7c 3d b6 df 8a 3e
       -0.0064198473 0.2579562 0.061548058 0.27123803
000060 f9 e1 40 3e e0 8f 84 3e 7b 7f 86 3e cb 10 8e 3c
       0.18836202 0.25891018 0.26269135 0.017341992
000070 1a bf 28 3e b5 63 8d 3d 3a e5 3c 3e 5b 27 9d 3b
       0.1647915 0.06903783 0.18446818 0.0047959513
000080 b5 03 39 3e 72 c0 4d 3d d1 33 4f bd e5 fb 48 3e
       0.1806782 0.05023236 -0.050586525 0.1962734
000090 48 ee 40 3e da f3 ee 3d 95 ff 79 3e 4c e8 3f 3d
       0.18840897 0.11667605 0.24413903 0.046852395
0000a0 36 a1 1c 3e fc 03 a9 bd 7d ba 14 3e f8 1e 13 bc
       0.15295872 -0.08252713 0.14524265 -0.0089795515
0000b0 18 ab 8e 3e 04 d8 2e 3e 59 1c 94 3e 8c 57 90 bc
       0.2786491 0.17074591 0.28927878 -0.01761987

fc3.weight f4 [1, 48]
000000 00 de 1e 3d ba e5 84 3e d3 05 bf 3e 76 43 d5 3d
       0.038785934 0.25956517 0.3730913 0.10413258
000010 f6 c9 4a 3e 8c 2f 1d 3e f5 a1 23 3e 74 90 3b 3e
       0.19803604 0.15350169 0.1597975 0.18316823
000020 b9 20 16 be 41 de c1 3c a6 7c 01 3e 35 fa 39 3e
       -0.1466092 0.02366555 0.12645206 0.18161853
000030 e8 8c 47 3e d8 95 30 3e 36 2f f0 3c da 87 3c 3e
       0.19487345 0.17244661 0.029319387 0.18411198
000040 60 7b 35 3e 1b 16 ea 3d 25 07 3f 3e 8c a0 2f be
       0.17722845 0.114299975 0.18655069 -0.17151088
000050 6a a7 49 3e c2 a1 6f 3e a4 de 60 3d 83 2b 00 3e
       0.1969277 0.2340155 0.054899827 0.12516598
000060 7e c3 24 3e c0 cd 0d 3e ae ac e6 3d d9 22 1a 3e
       0.160902 0.13848019 0.11263405 0.15052356
000070 d3 75 46 3e 34 61 7c 3e 8f 5a 5a 3e f8 b2 62 3c
       0.19380884 0.24646455 0.21323608 0.013836615
000080 7a c3 4e 3e 93 78 6f 3e 60 f9 11 be 60 0e 57 3e
       0.20191756 0.23385839 -0.14255285 0.21001577
000090 84 98 2b 3e d5 87 16 3e f8 4a 18 3e 95 a2 4a 3e
       0.16757399 0.14700253 0.14872348 0.19788583
0000a0 ee c6 a8 3d e5 c6 0f 3d fe a8 09 be df 0c ab ba
       0.08241068 0.03510179 -0.13443372 -0.00130501
0000b0 10 c9 5c 3e fe e1 39 bd d4 1b 24 3e 40 dc 93 3c
       0.21561074 -0.04538154 0.1602624 0.01804936

bn1.weight f4 [24]
000000 7b 98 ab 3f 10 d8 91 3f 23 0f b0 3f 00 00 80 3f
       1.3405908 1.1394062 1.3754619 1.0
000010 00 00 80 3f f5 ea 8a 3f ca 77 8b 3f 00 00 80 3f
       1.0 1.0852953 1.0895932 1.0
000020 b3 1d 95 3f 8b fb 98 3f 48 2d a9 3f 38 c6 82 3f
       1.1649688 1.1951765 1.3216944 1.0216742
000030 00 00 80 3f de 6a 98 3f 99 f3 95 3f b6 fc 8d 3f
       1.0 1.1907613 1.1714965 1.1092746
000040 09 fc 91 3f bc 0d 88 3f 29 13 9e 3f 73 79 8e 3f
       1.140504 1.0629191 1.2349597 1.1130813
000050 46 cf 96 3f 88 b8 a3 3f e7 ec a1 3f 29 d7 9f 3f
       1.1782005 1.279069 1.2650422 1.2487537

bn1.bias f4 [24]
000000 b9 8d e3 bd 5f 2d 93 bd c7 49 82 3c 83 f8 41 3e
       -0.11111016 -0.07186388 0.01590432 0.18942456
000010 76 87 75 be 0d 26 1c 3e 51 16 ca 3d a1 12 79 3e
       -0.23977455 0.1524889 0.09867538 0.24323513
000020 dd bf 44 be 76 63 9f 3d 5b fb 48 be 19 42 75 be
       -0.19213815 0.077826425 -0.19627135 -0.23950996
000030 27 7b 6a be b2 39 95 bc 4c 01 1c be 14 08 e2 3d
       -0.22898541 -0.018215988 -0.1523487 0.11036697
000040 58 c7 78 3d 24 34 01 3e 2d 81 41 be b4 86 8a be
       0.060736984 0.12617546 -0.18896933 -0.27055895
000050 37 77 e3 bc bd 0c 19 be cb 5a 58 3e 43 cb 09 be
       -0.027766807 -0.14946266 0.21128385 -0.13456444

bn1.running_mean f4 [24]
000000 e0 8a 12 3e 9b fe 7a 3e 6c 3b 1b 3e 00 00 00 00
       0.14310789 0.24511187 0.15159386 0.0
000010 00 00 00 00 05 d8 71 3d 15 e0 3f 3d 00 00 00 00
       0.0 0.059043903 0.04684456 0.0
000020 3d 7b 62 3b 8c 2a 0e 3e 0c 04 54 3d 24 4c 77 3b
       0.003455832 0.13883418 0.051761672 0.0037734592
000030 00 00 00 00 f5 5e 7a 3e 95 3e 61 3b 84 50 0b 3e
       0.0 0.24450286 0.0034369577 0.13604933
000040 d0 89 8b 3d ce 0c 10 3e 74 c2 d0 3c 7b d0 69 3c
       0.06813395 0.14067385 0.025483347 0.014270897
000050 64 69 21 3e 67 28 d0 3d eb 25 e6 3d 38 95 1c 3e
       0.1576286 0.10163956 0.11237701 0.15291297

bn1.running_var f4 [24]
000000 b8 12 f5 3d 3d f9 b5 3d 37 31 0b 3e 04 00 00 00
       0.11966461 0.08885429 0.13592993 6e-45
000010 04 00 00 00 e6 42 82 3a db 79 44 3d 04 00 00 00
       6e-45 0.000993815 0.047967773 6e-45
000020 bf 8e 18 38 42 b2 5f 3b 85 8c 78 3d 0d 9b 65 3a
       3.6372567e-05 0.003413335 0.060680885 0.0008758761
000030 04 00 00 00 94 3e 83 3b 81 18 bc 39 70 b7 20 3b
       6e-45 0.0040052626 0.0003587641 0.00245234
000040 c0 71 d4 3a 35 2d fc 38 42 90 7c 3c 0a fa bf 3b
       0.0016208217 0.00012024717 0.015415253 0.0058586644
000050 26 3d 75 3c 99 a7 22 3d d5 4b 91 3b 49 72 4c 3c
       0.014968192 0.039710615 0.0044340887 0.01247842
