financial/finance/trained_models/TD3__rate__NormalizedExec/actor.pth (torch, 9687 bytes, 9 tensors)

fc1.weight f4 [24, 8]
-0.17356916 0.12811825 0.14259699 0.15660991 -0.06381605 0.049679425 -0.01155929 0.09032994
0.16224498 -0.012413756 -0.17136285 -0.19458066 -0.07783913 0.106761165 0.09137535 -0.068533
0.13895044 0.0027521625 -0.09651167 0.17902794 0.13047439 0.08765143 -0.24692087 0.06839135
0.018578544 0.13497382 0.08519465 0.10839164 -0.17911404 -0.11318299 0.12242785 -0.04252638
-0.17758387 0.18563035 -0.00441429 0.16466367 -0.15954687 0.070278674 -0.076887175 -0.08589858
-0.05324411 -0.094736554 0.035187166 -0.013737593 0.07709724 0.036019918 -0.16667922 -0.16521992
-0.19154204 -0.044740137 -0.1264087 -0.044107746 -0.019633515 0.009807939 -0.1853522 0.0907098
0.114958614 -0.050291523 -0.08065064 0.12833083 0.17759296 -0.18690395 -0.044102907 -0.01894316
-0.07213741 0.15111907 0.054761555 0.051425964 0.010704631 0.020190828 -0.108415656 0.062422067
-0.015929911 0.04548857 -0.059089776 0.104945004 -0.15741353 -0.03485107 -0.1409655 -0.14855899
0.1517135 -0.009910236 -0.15496083 -0.056332007 0.04104051 -0.0859176 0.12694743 0.13949616
0.059671566 -0.029638678 0.046139732 -0.12567867 -0.17614047 -0.1783503 -0.19654526 0.007887324
0.039759964 -0.08674623 -0.19966416 0.11057502 -0.115821935 -0.03407806 -0.17115441 -0.11515831
0.110323906 -0.10733078 -0.060493246 0.050328072 -0.0538442 0.015004281 0.043145165 0.023366794
-0.09843081 0.081660934 0.081431635 0.002442838 0.04450614 -0.144356 0.14254919 -0.05581676
0.016556043 -0.1096516 0.020729695 0.07287413 -0.05960744 0.009867409 -0.14732005 -0.30869678
-0.030659359 0.12858191 -0.025197068 -0.04417382 -0.015676826 0.01557934 -0.14477241 -0.058251776
0.030912574 -0.011155777 -0.023444152 -0.007119224 -0.011148217 -0.012077706 -0.1514357 -0.004172521
0.024191733 0.03698592 0.019001842 -0.08772998 0.012866248 -0.10160364 0.10969037 -0.0027267346
0.02039385 -0.029662056 0.008560103 -0.049696125 -0.087583214 -0.21176405 0.25762028 -0.0046940716
-0.012312147 0.09831005 0.08244628 0.06030877 0.08408087 -0.023003468 0.047166202 -0.026232269
0.03799222 0.024545435 -0.06273336 -0.01266778 0.103081346 0.013737895 0.04155996 -0.038859624
-0.18736717 -0.14642112 -0.19499573 0.16253112 -0.0026012424 -0.09251009 0.066345945 -0.079753935
-0.0700155 0.10006937 0.017430315 -0.1531556 -0.11811338 -0.02140205 -0.06432195 -0.20706427
00000000: 1dbc 31be 6e31 033e f204 123e 595e 203e
00000010: fdb1 82bd a77c 4b3d 2d63 3dbc e7fe b83d
00000020: 8c23 263e 1163 4bbc be79 2fbe 2740 47be
00000030: 1f6a 9fbd 99a5 da3d 0023 bb3d 085b 8cbd
00000040: 0649 0e3e a05d 343b e9a7 c5bd 1a53 373e
00000050: 149b 053e 9882 b33d d3d8 7cbe c410 8c3d
00000060: 0832 983c 9436 0a3e 887a ae3d 70fc dd3d
00000070: ac69 37be 7ccc e7bd 74bb fa3d 2430 2ebd
00000080: 8cd8 35be e215 3e3e c0a5 90bb 989d 283e
00000090: 4160 23be 44ee 8f3d 0677 9dbd 98eb afbd
000000a0: 7f16 5abd 3d05 c2bd 6b20 103d a413 61bc
000000b0: 28e5 9d3d 9f89 133d f5ad 2abe 692f 29be
000000c0: 9923 44be 6f41 37bd 4871 01be 53aa 34bd
000000d0: 77d6 a0bc 7ab1 203c f8cc 3dbe 0fc6 b93d
000000e0: 6c6f eb3d 7cfe 4dbd 2a2c a5bd 2869 033e
000000f0: eeda 353e c063 3fbe 40a5 34bd b02e 9bbc
00000100: c7bc 93bd f5be 1a3e a74d 603d 08a4 523d
00000110: 7a62 2f3c 3c67 a53c 0709 debd 48ae 7f3d
00000120: 727f 82bc 3952 3a3d 1f08 72bd 68ed d63d
00000130: 0331 21be ffbf 0ebd 4359 10be d91f 18be
00000140: c95a 1b3e 8b5e 22bc 0dae 1ebe 64bc 66bd
00000150: 181a 283d 91f5 afbd 82fe 013e 15d8 0e3e
00000160: 2c6a 743d d0cc f2bc 04fd 3c3d e9b1 00be
00000170: 2b5e 34be 76a1 36be 2943 49be d639 013c
00000180: 58db 223d 02a8 b1bd c374 4cbe 2875 e23d
00000190: 0d34 edbd 7095 0bbd 1a43 2fbe 1fd8 ebbd
000001a0: 80f1 e13d 3dd0 dbbd c4c7 77bd cf24 4e3d
000001b0: bc8b 5cbd 84d4 753c fcb8 303d b86b bf3c
000001c0: 1896 c9bd d93d a73d a1c5 a63d 0518 203b
000001d0: 124c 363d 0fd2 13be 6af8 113e 1da0 64bd
000001e0: 8aa0 873c 0591 e0bd 52d1 a93c 083f 953d
000001f0: ee26 74bd eaaa 213c 11db 16be 810d 9ebe
00000200: 5629 fbbc faaa 033e 156a cebc 9cef 34bd
00000210: b06c 80bc 7d40 7f3c 383f 14be 6a99 6ebd
00000220: 5e3c fd3c b8c6 36bc f30d c0bc 6148 e9bb
00000230: 03a7 36bc 92e1 45bc f611 1bbe a5b9 88bb
00000240: be2d c63c 8c7e 173d c0a9 9b3c c7ab b3bd
00000250: f5cc 523c 9215 d0bd 58a5 e03d 04b3 32bb
00000260: 0111 a73c d7fd f2bc ad3f 0c3c 2a8e 4bbd
00000270: d45e b3bd add8 58be cee6 833e bad0 99bb
00000280: e3b8 49bc c856 c93d 98d9 a83d 5406 773d
00000290: 9732 ac3d c571 bcbc 5931 413d 0ee5 d6bc
000002a0: bb9d 1b3d 8213 c93c 597a 80bd 858c 4fbc
000002b0: 501c d33d e814 613c c73a 2a3d 452b 1fbd
000002c0: 2edd 3fbe 6bef 15be f6ac 47be 8f6e 263e
000002d0: 9b79 2abb ee75 bdbd 62e0 873d 0856 a3bd
000002e0: 4964 8fbd 2bf1 cc3d 05ca 8e3c d2d4 1cbe
000002f0: 6ee5 f1bd 5a53 afbc 3abb 83bd a808 54be

fc1.bias f4 [24]
-0.33754545 0.12976758 -0.30197695 -0.19462554 -0.2060175 0.0058973175 -0.22140993 -0.0077135563
0.04665446 0.17991535 -0.29952958 -0.26768357 -0.20529485 0.20227213 -0.08876821 0.014656093
0.069855265 0.039607912 -0.110051945 0.043633744 0.08397182 0.14389275 -0.008393406 0.0076667285
00000000: c2d2 acbe cbe1 043e b99c 9abe eb4b 47be
00000010: 40f6 52be 493e c13b 49b9 62be 00c2 fcbb
00000020: bf18 3f3d bb3b 383e f15b 99be d20d 89be
00000030: d038 52be 6d20 4f3e 1bcc b5bd 1c20 703c
00000040: 4710 8f3d e83b 223d ea62 e1bd 4cb9 323d
00000050: 6bf9 ab3d 9f58 133e 7f84 09bc 2e39 fb3b

fc2.weight f4 [48, 24]
-0.15903312 -0.04877036 -0.01500144 -0.13796116 -0.13812971 0.057287265 -0.058194432 -0.051582295
0.20977527 0.124922566 0.11991574 0.068589665 0.03460819 -0.24929915 0.061147396 -0.017957509
0.21024567 0.39097962 -0.25453842 -0.049095694 -0.024528699 -0.14897378 -0.0674047 -0.083641246
-0.077971466 -0.034046073 -0.21739848 -0.39369738 -0.46006313 -0.20347829 0.0052136276 -0.4321309
-0.1557529 -0.07602716 -0.226648 -0.24462184 0.26953673 0.36796305 0.24934423 -0.40734795
-0.20094255 -0.4311617 0.04411833 0.17646743 -0.29928055 0.122730546 0.29240853 -0.37813303
-0.2731122 -0.051286478 -0.19524904 -0.22329299 -0.15100525 -0.07882019 -0.065010145 -0.2511711
-0.061915137 0.07641602 -0.2748739 -0.06858814 0.25625405 -0.03975125 -0.09084812 0.15224466
-0.5167016 -0.4193242 0.062394176 0.035610817 -0.20034851 0.25163773 0.13195692 0.15196006
-0.20815341 -0.005953878 0.09886261 -0.03550367 -0.005423252 -0.0823549 -0.028510727 -0.110129416
0.055596743 0.00013881634 -0.14998381 -0.21937916 0.23294817 -0.07102311 0.031085093 -0.0075297896
-0.4361772 -0.536692 0.0032748163 0.016451389 -0.22223571 0.14807674 0.27143845 0.2154566
-0.19351165 -0.066598214 -0.031117572 -0.06295599 -0.027981594 -0.12588355 -0.029290326 -0.054816883
0.10406588 0.019564291 -0.035806973 0.08985702 -0.10928515 -0.15261318 0.14681973 0.07634893
0.09780275 0.124160536 -0.18634486 -0.15695532 0.14296173 -0.104050495 0.09313485 -0.07275821
-0.081949264 0.0860197 0.13264996 0.060084466 -0.09284009 -0.115361154 -0.053682655 -0.005482667
-0.09435796 0.08006674 -0.29662314 -0.22969805 0.18164466 -0.029784262 0.07084215 0.21958143
-0.21561748 -0.21338108 0.06641087 0.29184988 -0.033082623 0.33955476 0.10850022 0.1402383
0.17237477 -0.11545721 0.14927936 -0.048338883 0.12560473 -0.080305226 0.16048263 -0.0028470247
0.46973035 -0.17922576 0.056014106 0.14056866 0.03235976 0.02067512 -0.13036954 0.18115366
-0.12904714 0.17296337 0.013877205 0.02551674 0.03200438 0.1046226 -0.11818852 -0.08269711
-0.13171542 -0.047927167 0.09534624 -0.27234358 -0.091892846 -0.2866924 -0.1652802 -0.24683946
0.1287044 -0.05698664 -0.29290062 -0.033539563 0.2745109 -0.041678872 0.120462745 -0.057652634
-0.4579384 -0.6130431 0.093412 0.042231057 -0.27814484 0.17825435 0.21827403 0.2333474
-0.20538142 0.004486813 -0.11248261 -0.26022586 -0.32242724 -0.07813871 0.083753124 -0.16873106
0.005793548 -0.14908588 -0.11422481 -0.34994188 0.43839785 0.18457238 0.11921759 -0.35426947
-0.36588252 -0.26385418 0.13148333 0.15290706 -0.14814034 0.16100268 0.26584208 -0.30039358
-0.05484106 -0.01700157 -0.03459788 -0.32284012 -0.38135955 -0.1860173 0.098197654 -0.20200035
0.05394018 -0.12602238 -0.3969896 -0.24769366 0.14792027 0.23045807 -0.11671316 -0.4594335
-0.3653133 -0.16348284 0.20263106 0.17100441 -0.1460441 -0.11597115 0.26975784 -0.3437941
-0.14141235 -0.084449194 0.016034225 -0.120237865 -0.18365458 -0.16834924 -0.053973116 -0.17726013
0.048728645 -0.035381533 -0.21876472 -0.3265816 0.31342086 -0.073816046 -0.18075643 0.18670386
00000000: 94d9 22be 6ec3 47bd 9ac8 75bc b145 0dbe
00000010: e071 0dbe 0da6 6a3d 495d 6ebd f547 53bd
00000020: 54cf 563e 67d7 ff3d 6296 f53d bd78 8c3d
00000030: 51c1 0d3d 4748 7fbe b175 7a3d a01b 93bc
00000040: a44a 573e 7b2e c83e dc52 82be 9118 49bd
00000050: 69f0 c8bc 958c 18be 7a0b 8abd 1a4c abbd
00000060: 81af 9fbd e573 0bbd b59d 5ebe b492 c9be
00000070: 658d ebbe 9d5c 50be 14d7 aa3b 4340 ddbe
00000080: b07d 1fbe 21b4 9bbd 6a16 68be 267e 7abe
00000090: b800 8a3e a765 bc3e 1854 7f3e e98f d0be
000000a0: e2c3 4dbe 3ac1 dcbe 6cb5 343d e1b3 343e
000000b0: 4d3b 99be 275a fb3d 92b6 953e a79a c1be
000000c0: 5dd5 8bbe c511 52bd 5def 47be eba6 64be
000000d0: 1fa1 1abe 7b6c a1bd 0a24 85bd 8099 80be
000000e0: ba9a 7dbd 0180 9c3d 46bc 8cbe f077 8cbd
000000f0: bb33 833e 35d2 22bd 940e babd 06e6 1b3e
00000100: 8e46 04bf a9b1 d6be 0991 7f3d a6dc 113d
00000110: 2928 4dbe a9d6 803e b71f 073e 6b9b 1b3e
00000120: 2b26 55be c018 c3bb 7b78 ca3d 4c6c 11bd
00000130: 89b5 b1bb b0a9 a8bd 548f e9bc 888b e1bd
00000140: 69b9 633d 3a8f 1139 5b95 19be eea4 60be
00000150: f789 6e3e 9074 91bd 2aa6 fe3c 74bc f6bb
00000160: 9e52 dfbe a664 09bf 4d9e 563b 10c5 863c
00000170: c291 63be 6ea1 173e fbf9 8a3e a8a0 5c3e
00000180: eb27 46be a564 88bd 47ea febc 12ef 80bd
00000190: a839 e5bc 9ee7 00be 44f2 efbc ab87 60bd
000001a0: 7e20 d53d 4b45 a03c 55aa 12bd f506 b83d
000001b0: e5d0 dfbd a146 1cbe e957 163e d45c 9c3d
000001c0: cf4c c83d e147 fe3d 30d1 3ebe e5b8 20be
000001d0: 8f64 123e 6d18 d5bd 7cbd be3d 4202 95bd
000001e0: 04d5 a7bd 192b b03d 64d5 073e 211b 763d
000001f0: f222 bebd 7842 ecbd 58e2 5bbd f2a7 b3bb
00000200: bf3e c1bd 08fa a33d fdde 97be f735 6bbe
00000210: 0f01 3a3e 20fe f3bc b015 913d f4d9 603e
00000220: d4ca 5cbe 9280 5abe 6c02 883d 596d 953e
00000230: a581 07bd 1fda ad3e 5d35 de3d a19a 0f3e
00000240: 0383 303e d474 ecbd b0dc 183e fefe 45bd
00000250: 879e 003e 1177 a4bd 8f55 243e 2695 3abb
00000260: 7f80 f03e f586 37be 0c6f 653d 3bf1 0f3e
00000270: ab8b 043d df5e a93c 987f 05be 5880 393e
00000280: ef24 04be 4f1d 313e 375d 633c 7b08 d13c
00000290: 0617 033d 6044 d63d d30c f2bd 1a5d a9bd
000002a0: 68e0 06be 474f 44bd e444 c33d 9e70 8bbe
000002b0: 5132 bcbd 59c9 92be 363f 29be 7cc3 7cbe
000002c0: 16cb 033e d36a 69bd 12f7 95be c860 09bd
000002d0: b18c 8c3e 77b7 2abd 2cb5 f63d 2b25 6cbd
000002e0: e776 eabe 65f0 1cbf ca4e bf3d 79fa 2c3d
000002f0: 0069 8ebe 4f88 363e 3a83 5f3e 9ff2 6e3e
00000300: 824f 52be 1e06 933b 485d e6bd 533c 85be
00000310: 2f15 a5be 3007 a0bd c286 ab3d d6c7 2cbe
00000320: ced7 bd3b f8a9 18be b2ee e9bd 952b b3be
00000330: af75 e03e 8b00 3d3e 5a28 f43d cf62 b5be
00000340: f454 bbbe e517 87be 91a3 063e ab93 1c3e
00000350: 1ab2 17be e3dd 243e 741c 883e 30cd 99be
00000360: 05a1 60bd e046 8bbc 82b6 0dbd 4d4b a5be
00000370: 8f41 c3be 527b 3ebe da1b c93d 2ed9 4ebe
00000380: 61f0 5c3d 030c 01be 3942 cbbe 68a3 7dbe
00000390: 6978 173e 33fd 6b3e 4f07 efbd de3a ebbe
000003a0: 580a bbbe 0c68 27be 847e 4f3e c81b 2f3e
000003b0: 968c 15be 4882 edbd b31d 8a3e c805 b0be
000003c0: 66ce 10be b3f3 acbd 355a 833c 453f f6bd
000003d0: f20f 3cbe be63 2cbe ea12 5dbd ae83 35be
000003e0: b097 473d 3aec 10bd dc03 60be b435 a7be
000003f0: b378 a03e de2c 97bd 3718 39be 4c2f 3f3e

fc2.bias f4 [48]
-0.13741417 0.48725858 0.0891845 0.26711628 -0.16375692 0.05710418 -0.048355173 0.19188727
0.30982378 0.35519683 0.1787726 0.2739873 0.47518432 0.043794643 -0.044157103 0.09805717
0.23532377 0.39265078 0.14676131 0.14344783 0.053696692 0.29900163 0.04567514 0.3079276
0.41572165 0.43131238 0.37947825 -0.10944755 0.29725572 0.081379525 0.2441868 0.19394323
0.13673273 -0.1325591 -0.06678677 0.28848085 0.20829731 0.12626348 0.25739327 0.10812267
0.33332828 0.0128420275 0.25567845 0.24292935 0.28310677 0.3888925 0.28538275 0.22461542
00000000: 4db6 0cbe f579 f93e 5da6 b63d 77c3 883e
00000010: e5af 27be 13e6 693d 1310 46bd 197e 443e
00000020: 39a1 9e3e 5cdc b53e 2a10 373e 1048 8c3e
00000030: 5c4b f33e 0362 333d 14de 34bd 33d2 c83d
00000040: b7f8 703e 8609 c93e 9948 163e fde3 123e
00000050: 10f1 5b3d be16 993e db15 3b3d b0a8 9d3e
00000060: 78d9 d43e fad4 dc3e f94a c23e 0926 e0bd
00000070: e731 983e 4faa a63d 1b0c 7a3e 0e99 463e
00000080: aa03 0c3e 93bd 07be 81c7 88bd c3b3 933e
00000090: e44b 553e 374b 013e 0dc9 833e 6b6f dd3d
000000a0: 01aa aa3e 5e67 523c 49e8 823e 79c2 783e
000000b0: 5ff3 903e eb1c c73e b01d 923e 9601 663e

fc3.weight f4 [1, 48]
0.38319126 -0.38426387 -0.2486342 -0.35065204 0.1435858 -0.055322476 -0.118971266 -0.44477794
-0.35949692 -0.39732814 -0.2692419 -0.39647955 -0.5102035 0.331998 0.31555852 -0.4537929
0.17327611 -0.49117106 0.37416816 -0.38235998 -0.40735573 -0.47929043 -0.22989939 -0.34264535
-0.47125122 -0.4185933 -0.41003382 0.38208896 -0.2860462 -0.4451766 0.37352955 -0.34569785
0.33599624 0.5021585 0.21960407 -0.37943536 -0.28212705 -0.2913575 0.33793032 -0.29255733
-0.3860599 0.35242835 -0.38883498 -0.25931695 -0.28979507 -0.3986841 0.34662136 -0.33296135
00000000: a531 c43e 3cbe c4be f799 7ebe aa88 b3be
00000010: 2808 133e d299 62bd 35a7 f3bd efb9 e3be
00000020: fb0f b8be 986e cbbe 13da 89be 5eff cabe
00000030: b29c 02bf a4fb a93e e390 a13e 8b57 e8be
00000040: 4b6f 313e c67a fbbe f892 bf3e b0c4 c3be
00000050: ee90 d0be 8e65 f5be bf6a 6bbe 366f afbe
00000060: d747 f1be dc51 d6be f4ef d1be 2aa1 c33e
00000070: a674 92be 30ee e3be 443f bf3e 4fff b0be
00000080: b307 ac3e 768d 003f e4df 603e 5a45 c2be
00000090: f572 90be cf2c 95be 3405 ad3e 13ca 95be
000000a0: a5a9 c5be 7d71 b43e 6115 c7be 31c5 84be
000000b0: 0560 94be 5320 ccbe 5b78 b13e e979 aabe

bn1.weight f4 [24]
1.255922 1.0741303 1.1707165 1.0 1.0 1.25542 1.3138034 1.0
1.3617188 1.2818455 1.1547886 0.9805131 1.0 1.2622905 1.105906 1.188633
1.348995 1.4067345 1.4265214 1.235295 1.2005881 1.2940093 0.99965554 1.2313992
00000000: 0dc2 a03f 1a7d 893f 0ada 953f 0000 803f
00000010: 0000 803f 9ab1 a03f b62a a83f 0000 803f
00000020: cd4c ae3f 8313 a43f 1dd0 933f e802 7b3f
00000030: 0000 803f bc92 a13f 548e 8d3f 2025 983f
00000040: deab ac3f e00f b43f 4198 b63f 261e 9e3f
00000050: dfac 993f 19a2 a53f 6de9 7f3f 7d9e 9d3f

bn1.bias f4 [24]
-0.25847194 -0.13756421 -0.029353816 -0.34008098 -0.42076632 -0.0709861 0.0073844586 -0.37519574
0.0005719552 -0.17905393 -0.21393764 -0.36850426 0.4331293 0.17812815 0.15432003 -0.12367979
-0.06859542 -0.07118828 -0.08890478 0.11370901 -0.10987176 -0.04811632 0.34917945 -0.08415559
00000000: 6f56 84be a2dd 0cbe 6a77 f0bc 181f aebe
00000010: af6e d7be 2961 91bd 54f9 f13b a819 c0be
00000020: 44ef 153a ea59 37be 7812 5bbe 97ac bcbe
00000030: 20c3 dd3e 3a67 363e 1206 1e3e d44b fdbd
00000040: c17b 8cbd 29cb 91bd b613 b6bd 45e0 e83d
00000050: 7204 e1bd 9e15 45bd a6c7 b23e c459 acbd

bn1.running_mean f4 [24]
0.13959241 0.055378933 0.09106662 0.0 0.0 6e-45 0.16493909 0.0
0.23016788 6e-45 0.3060287 6e-45 0.0 0.31334218 6e-45 6e-45
6e-45 6e-45 6e-45 0.15881382 0.050380643 0.07588089 6e-45 6e-45
00000000: 50f1 0e3e 05d5 623d 2381 ba3d 0000 0000
00000010: 0000 0000 0400 0000 cbe5 283e 0000 0000
00000020: 21b1 6b3e 0400 0000 cbaf 9c3e 0400 0000
00000030: 0000 0000 636e a03e 0400 0000 0400 0000
00000040: 0400 0000 0400 0000 0400 0000 17a0 223e
00000050: ef5b 4e3d 7167 9b3d 0400 0000 0400 0000

bn1.running_var f4 [24]
0.16295083 0.0030744742 0.08518256 6e-45 6e-45 6e-45 0.18814088 6e-45
0.113705605 6e-45 0.4569656 6e-45 6e-45 0.0121009555 6e-45 6e-45
6e-45 6e-45 6e-45 0.0074519813 0.001424013 0.0028253195 6e-45 6e-45
00000000: 95dc 263e 1e7d 493b 3274 ae3d 0400 0000
00000010: 0400 0000 0400 0000 01a8 403e 0400 0000
00000020: 7cde e83d 0400 0000 65f7 e93e 0400 0000
00000030: 0400 0000 1643 463c 0400 0000 0400 0000
00000040: 0400 0000 0400 0000 0400 0000 c02f f43b
00000050: f3a5 ba3a ff28 393b 0400 0000 0400 0000
