financial/finance/trained_models/TD3__volatility__NormalizedExec/critic.pth (torch, 18810 bytes, 18 tensors)

fcs1.weight f4 [24, 8]
00000000: e07c 323e 8723 b3bd 9022 3f3d bc32 72bd
00000010: 6010 d13d 4081 5c3b 34dd e53d 6066 62bd
00000020: a9a6 15be 0cee 853d db84 b3bd bb0e 3bbe
00000030: 61ea 463d 522b 1ebe 02df d2bd d06e a1bd
00000040: b079 6d3c 2cc9 90bd a674 96bd 6824 52bd
00000050: 507b 123e 5859 7a3d 6943 c9bd ac7b 10be
00000060: ae67 66bd c6c4 f5bc 4273 09bd 3edd a43d
00000070: e8be 2f3e ca1d 533d f6e2 84bd b600 bcbc
00000080: b726 3cbe e362 2bbe c5f0 213e da36 00be
00000090: cfb6 1c3e 9adf a63d a5d1 b5bb 5d38 8a3b
000000a0: 3704 fabe 6ac5 9cbe f95e bfbc b97d 753d
000000b0: 0f70 663d 8942 053e d75a 7c3c f9ae d13e
000000c0: 1160 45be 0719 0ebe 8910 643d d337 5cbe
000000d0: 6f01 033d c4e3 1bbd 73b0 9abd b185 73bc
000000e0: 04f1 07bd 5ee6 04bd 83a4 12bc 4306 763d
000000f0: 1834 a13c 4cd8 013e 3873 babf 641a f63b
00000100: c393 c2be 7e4f aebe f2fb dabd 718c 063e
00000110: 6901 9f3e 01f3 383f 3dcc b2bf 3d3b 053c
00000120: aa3a bfbd d6ca f63d 7d3d c2bd 6732 e83d
00000130: 7db5 583e 3190 323e 3e7a 4340 1ec9 803b
00000140: f6c1 34be df62 27bd 42cd e73c 76e0 df3d
00000150: bf46 11be 78b4 8cbd 89f0 193e f113 f53d
00000160: a8a8 8d3d 753b f0bd 2070 9dbc 3c81 10bd
00000170: 6ab8 3e3e aec3 96bd e28e 4a3e 4033 00be
00000180: dfbe 07bc 6341 36bd 57b6 fb3b bd2e 113d
00000190: ee44 843d a1e4 873c abdd 263f 7eff 50be
000001a0: b1b5 ef3b b579 d23d aace 723d 722c 7cbe
000001b0: b095 26be 6ff6 3abe c06c 873e a453 b0be
000001c0: e852 2dbd f02e 5e3d 003f babd b8d6 4d3e
000001d0: 18b1 343e 1c4c c33d 9ab6 9bbd 6643 44be
000001e0: ce98 ac3d 2fcd fb3d 7bbc 9b3d c5b3 503d
000001f0: 62e9 8ebd c1c9 eabd 6d98 c4bf 7758 80bd
00000200: 12a2 afbd 122f 05be 2714 6c3d 909a b9bc
00000210: 01f4 e5bc 573e 643d 7d43 5740 d67c b23b
00000220: a819 323e d1b2 4a3e f03b aabc a08e e83e
00000230: 85e6 9e3c 85c8 283e 4665 8ebf afc3 93bd
00000240: df5d 8d3d b743 e73d 6817 883d 4263 0bbe
00000250: fc44 80be 93f9 c2be ed87 863f 010c 62bf
00000260: 4200 923d 5cc7 b33d a97b e13d 0ffa a33e
00000270: 1a7a 823e 978e 683e 52ba 733e ff2f adbe
00000280: 6b21 59bd 24b6 a2bc 15db 29be 35af 2f3e
00000290: fb59 833e 53ab d43e 4bdb 3340 40ae 2e3c
000002a0: 700a b13d 6479 1c3e d821 82bd f070 3e3d
000002b0: d024 2a3c d289 10be 50b7 a0bd 2469 94bd
000002c0: dc75 113e a10d 2b3e da85 49be 4cdd 763e
000002d0: 7ee2 803e 53e7 0d3f 8f29 e23e b512 d4be
000002e0: 7298 a23c fb53 c5bd 8359 593c c853 d0bc
000002f0: feb9 b8bc 6737 4b3d 35af 5840 8b0b 4cbb
0.17430449 -0.08747011 0.04666382 -0.059130415 0.102082014 0.0033646375 0.11223832 -0.055273414
-0.14614357 0.065395445 -0.087655745 -0.18267338 0.048563365 -0.15446213 -0.102964416 -0.07882464
0.014494345 -0.070696205 -0.07346468 -0.05130425 0.14304852 0.06112036 -0.098273106 -0.14109677
-0.05625122 -0.030001055 -0.033557184 0.08050011 0.17162669 0.05154208 -0.06488602 -0.022949558
-0.18374144 -0.16736941 0.15814503 -0.12520924 0.15304111 0.08148117 -0.005548673 0.004218145
-0.4883134 -0.30619365 -0.023360716 0.05993435 0.05625921 0.13013662 0.015402517 0.40953806
-0.19274928 -0.13876735 0.05567983 -0.2150567 0.03198379 -0.03805901 -0.07553186 -0.0148634175
-0.033188835 -0.032446258 -0.008950355 0.060064565 0.01967816 0.12680167 -1.4566412 0.00751047
-0.38003358 -0.34045023 -0.10692586 0.13139512 0.31055763 0.72245795 -1.3968579 0.008131799
-0.09337361 0.12050407 -0.09484384 0.113377385 0.21162982 0.17437817 3.054336 0.003930225
-0.17652115 -0.040865775 0.028296117 0.109314844 -0.14187144 -0.06870359 0.15033163 0.11966694
0.06916934 -0.117300905 -0.019218504 -0.035279498 0.18625036 -0.07361542 0.19781068 -0.1251955
-0.008285253 -0.04449595 0.0076816487 0.035444964 0.0645846 0.016588511 0.6518199 -0.20409963
0.0073153605 0.1027712 0.05927912 -0.2462633 -0.16268039 -0.1825807 0.26450157 -0.34438813
-0.042315394 0.05424398 -0.090940475 0.2010144 0.17645681 0.09536001 -0.07603188 -0.19166335
0.08427583 0.12294995 0.07604309 0.05095269 -0.06978108 -0.11464263 -1.5359017 -0.06266873
-0.08575834 -0.13006237 0.057636406 -0.022656709 -0.028070452 0.055723514 3.3634942 0.0054470105
0.173926 0.19794776 -0.020780534 0.45421314 0.01939703 0.16482742 -1.1124656 -0.07215058
0.0690267 0.112922125 0.066450894 -0.13612083 -0.2505263 -0.38081035 1.0510231 -0.88299567
0.071289554 0.08778259 0.110099144 0.32026717 0.2548378 0.22710644 0.23801544 -0.3382568
-0.053010385 -0.019862242 -0.1658748 0.1715668 0.25654587 0.4153696 2.8102596 0.010661662
0.08644569 0.15280682 -0.063541114 0.046494424 0.010384753 -0.14115074 -0.07847464 -0.072466165
0.14205116 0.16704418 -0.19679967 0.24107856 0.251728 0.554311 0.44172332 -0.41420522
0.019848082 -0.09635159 0.01326597 -0.025430575 -0.022549625 0.049613383 3.3856938 -0.003113481

fcs1.bias f4 [24]
00000000: cc5f 7fbe 583d 48bc a236 7fbe dd6d aabe
00000010: 67c9 97be 7c17 f83d af34 a6be cfe2 203f
00000020: 99fa af3f b5d4 cd3e a83b 65be 428b 78be
00000030: 2f46 e7be 69d0 b63e e623 02be a7a3 c53f
00000040: fcda bf3e da3d 8c3f b0f4 34be aa23 e73e
00000050: 0af8 e03e d856 a5bd cd1d 24bd 0af3 ed3e
-0.24938887 -0.012221657 -0.24923185 -0.33286944 -0.29645845 0.12113854 -0.3246207 0.6284608
1.3748351 0.40201345 -0.22386038 -0.24271873 -0.45170733 0.3570588 -0.12709007 1.5440568
0.3747176 1.0956376 -0.17671466 0.45144397 0.4393924 -0.08073205 -0.040067483 0.46474487

fc2.weight f4 [48, 25]
00000000: ccf2 a03e 7241 923e 3164 9cbe 2afd 883e
00000010: 63b6 443e c9cf 11bd f0dc 823d e378 1cbe
00000020: 3d1c 88bc 32ad 303d 1e1e f63c 6b5a a33e
00000030: 4f7d 8c3d 6a7d abbc 6690 11be 1ce7 c0bc
00000040: 4104 0e3d 897f 11be 1e5e 723d 3508 fa3d
00000050: e83d 583d 32ce 383e 3498 d5bd 5432 bbbd
00000060: e24b 59bc ad5a 993e 47cf 473e 3355 b3be
00000070: 9074 f43c d06b 483e 0bbc a7bd 5509 113e
00000080: d5a3 423d b26d 69be 1549 d1bd 0e98 8cbd
00000090: f8a8 803e c0c7 0f3e 7606 b43b 88fe b1be
000000a0: c165 073e c3b3 eebb 0014 0d3c 24a9 c03b
000000b0: 52e6 9fbd 895e eabd 3b1d 953e 8e9c c2bd
000000c0: 242d f6bd 4aeb f23d 8243 393e d8ba 4a39
000000d0: 93f2 a7be 30a1 043e cab2 153d e31d 9337
000000e0: a11b 653d d308 863e e195 3a3e f2b6 70be
000000f0: 2448 7337 922e c33e cc0a 123e de4c f4bd
00000100: 0f98 cabe 0c9e c3bd e130 fcbe 4c13 dc3c
00000110: edba 6fbe 4754 fdbc 02a6 61be 1918 0a3c
00000120: 60ed 59bd de0c 56be d78d c1bb d3c2 763e
00000130: a9d5 a93e 39ba 08be f4cd 003e b59a 803e
00000140: 7f12 ecbd 34a7 a23e 7138 49bd f39e b23d
00000150: ddb8 2e3c 1231 21bd 0dec 723e b4be b43d
00000160: d9e9 4bbc 5fa7 50be d5d7 143e 3674 563d
00000170: 1f5f 2b3d 6935 293d 9391 123e 3b1d 163e
00000180: bb53 4c3e 7339 b7bd 1dbd 9abc f7eb 91bd
00000190: ab83 993e ae38 593c 9335 febd dcd3 063b
000001a0: eb21 213e 129a 573d 0b31 063e 3b77 82bd
000001b0: 3056 573d bcc6 4ebd b547 3abe 6a80 063e
000001c0: 4d82 563d f45e 833d 2a7c 69be 7e83 3fbe
000001d0: 9270 09be ef49 88bd f237 e13d 9ea3 29be
000001e0: 0e00 1d3d e3ba de3d 062e dbbc d93e 49bd
000001f0: fcd4 bc3c b981 17bb 9f0a e43c b991 f9bd
00000200: d81c 5d3d fe1f 0c3e 5bb5 dfbd ad8d 393c
00000210: c9d1 9dbd 57a7 083e 9907 353c b4ae a6bd
00000220: b529 3d3e 430b 113b e8f8 f4bc 8398 aabd
00000230: caf5 f3bb dae0 e03d a2b9 10be b8ee 55bd
00000240: 66bf e2bc 5912 6dbd 15f6 723d 6801 863d
00000250: 6242 3834 67c2 273c 31ac fd3d 98de a03c
00000260: d076 47bd 1fe9 f4bb 395a 513d a0fb 1bbe
00000270: 3847 7f3d bffd b03c 989e 82bc 1070 c33d
00000280: a170 b0bd 194c 063e b804 1a3c 2503 533d
00000290: 249d cbbc 5e1c 253d 62e6 e3bd fb40 383d
000002a0: bb54 493d 3533 febc c65c af3c c990 423e
000002b0: c37e 04be 2e62 a0bd e198 b9bd 55cb 8b3e
000002c0: 27bf 913e 1ee7 90be d8f6 fb3d 7ecd 1a3e
000002d0: de39 fabd 85ef 233e fe3d 98bd a909 19be
000002e0: 487e cebd 4539 48be a61c 8e3e 8aff a83d
000002f0: f8ec 11bd 1d03 02be 8fda 223e 368a 333d
00000300: 47c1 273d 7f82 9c3d 543f 03be 711f a43d
00000310: 1503 003e 0ede cdbd 6ef1 fc3c a611 7f3d
00000320: be8b 9a3d 31d1 0f3e c67d 8ebe aa58 aa3d
00000330: c805 153e 3216 2fbe e064 3d3e 6f2e b8bc
00000340: 4867 5cbd bfdd db3d 168c 55bd 906a 7b3e
00000350: 1b0f a5bd 04e1 083e 7635 8bbe 0bae 0a3e
00000360: 91a2 e238 78fc 3e3d 11d2 0d3e f666 a7bd
00000370: 6f9f 26be db7a 32bd 2628 95bc 5ffd 973d
00000380: 8151 dc3c 4a13 f93d b7ec 103e 5cb6 fbbd
00000390: 38ac 8e3e 57d9 383e 0043 64bd 5478 9e3e
000003a0: 4a66 abbc 12e1 49bd a66b e4bd 94af ccba
000003b0: cdfa 8c3e c9b1 6d3e 679d e4bc edff 7dbe
000003c0: 1489 23be eb88 22be ece9 51bd 9351 023d
000003d0: f76b ca3d 4a7a d0bd cec0 f03d ae96 c0bd
000003e0: 87cd fbbc b9e2 d93d 8279 183e a666 5c3e
000003f0: 2086 96be 5a2b 2e3e 1786 153e 1e4d 52bd
0.3143524 0.28565556 -0.3054519 0.2675565 0.192102 -0.03559855 0.06389797 -0.1528049
-0.016615028 0.043133922 0.030043658 0.3190492 0.06859838 -0.020933826 -0.1421524 -0.023547702
0.034672026 -0.14208807 0.05917179 0.122085966 0.052793413 0.18047407 -0.10429421 -0.09140459
-0.013262721 0.29951993 0.19512664 -0.3502594 0.029840738 0.19572377 -0.08190163 0.14163716
0.047519524 -0.22795752 -0.102190174 -0.0686494 0.25128913 0.14041042 0.0054939343 -0.34764504
0.1322241 -0.007284613 0.008610725 0.005879538 -0.07807602 -0.114438124 0.29123864 -0.09502517
-0.12020329 0.11861284 0.18092158 0.00019333826 -0.32802257 0.12952113 0.03654746 1.7537683e-05
0.055934552 0.26178607 0.18221237 -0.23507288 1.4500725e-05 0.38121468 0.14261931 -0.11928724
-0.39569137 -0.095516294 -0.49256042 0.02686467 -0.2341115 -0.030923976 -0.22035983 0.008428597
-0.053204894 -0.20903346 -0.005906801 0.24097757 0.33170822 -0.13352288 0.12578565 0.25118032
-0.11526965 0.3176819 -0.049126092 0.087217234 0.010664192 -0.039353438 0.23722859 0.08825436
-0.01244589 -0.20376347 0.14535458 0.05235692 0.04183876 0.0413107 0.14313345 0.14659588
0.19953816 -0.089465044 -0.018889004 -0.07125085 0.29983267 0.013258142 -0.12412562 0.0020573055
0.15735595 0.052637167 0.13104646 -0.06370398 0.05257243 -0.050482497 -0.18191417 0.13134924
0.05237036 0.06414595 -0.22801271 -0.18702504 -0.13421848 -0.06654727 0.10996999 -0.16566321
0.03833013 0.108754896 -0.026755344 -0.0491322 0.023050778 -0.0023118092 0.027837096 -0.121859975
0.053982586 0.13684079 -0.10923263 0.011325282 -0.07706029 0.13345085 0.011049175 -0.08138791
0.18472941 0.0022131957 -0.029903844 -0.083298706 -0.007445072 0.10980387 -0.14133313 -0.052229613
-0.027679157 -0.057878826 0.059316713 0.06543237 1.7160485e-07 0.01023922 0.123863585 0.019637391
-0.048697293 -0.0074740793 0.051111434 -0.15232706 0.06232378 0.02160537 -0.015944764 0.095428586
-0.08615232 0.13114966 0.009400539 0.05151667 -0.024855204 0.040310256 -0.111279264 0.044983845
0.04915307 -0.031030277 0.021406543 0.19000544 -0.12938981 -0.07831226 -0.090623625 0.27303568
0.2846615 -0.28301328 0.12302941 0.15117452 -0.122180685 0.16009338 -0.07433699 -0.14945091
-0.1008268 -0.19553097 0.27756232 0.08251865 -0.03562638 -0.126965 0.15903686 0.04383298
0.040955808 0.07642078 -0.12817127 0.080138095 0.12501176 -0.10052119 0.030876841 0.06227269
0.07546185 0.14044644 -0.27830333 0.083176926 0.14552987 -0.1709831 0.18495512 -0.022483079
-0.053809434 0.10735654 -0.05213555 0.24552369 -0.08059522 0.13367087 -0.27189225 0.13542955
0.000108068 0.04662749 0.13849665 -0.08173935 -0.16271757 -0.043574195 -0.01820762 0.074213736
0.026894333 0.12161882 0.141528 -0.12290642 0.27865767 0.18051659 -0.05572796 0.30951178
-0.020922799 -0.04928691 -0.11153345 -0.0015616291 0.27535096 0.23212351 -0.027907087 -0.24804659
-0.1597026 -0.15872543 -0.051248476 0.031816076 0.09883874 -0.10179575 0.117555246 -0.0940374
-0.030737652 0.10638947 0.14890102 0.21523532 -0.29399204 0.17008725 0.14601932 -0.051343076

fc2.bias f4 [48]
00000000: f520 a7bd bf85 ccbe 6f8a 04bf 63be 3cbe
00000010: 54f3 54be 6ec9 97be 77c4 75be 0c03 aabe
00000020: 9b5d debe d53f 28be 78f2 00bd aa9a fbbd
00000030: c12a 93be 05d5 9abe 07ff acbe 9396 24be
00000040: 21fa 3abc 0c5d c3be bd86 b9be 91ab 90be
00000050: 3f37 46be a4a0 babe 5d2a 9ebe 62e1 03be
00000060: 9f50 3abe 3ee3 65be 472b a2be db85 b6be
00000070: 4f2f 7ebe 718c 2fbe 9db6 94bd b50d febe
00000080: 3c79 31be bf27 b1be 14bc d5bd e57e 8abd
00000090: 497f 6bbd 569c c7be 75b3 16be 474f d9be
000000a0: 8084 f8bd d07c 8bbe 2202 96be 48fa 1cbe
000000b0: eb80 74be 5a1b 43be 1166 8cbe cab2 bfbe
-0.08160583 -0.3994579 -0.5177373 -0.18432002 -0.20795947 -0.29645866 -0.24000727 -0.3320545
-0.4343079 -0.164306 -0.031481236 -0.12285359 -0.28743556 -0.30240646 -0.3378832 -0.16073065
-0.011412174 -0.38156927 -0.3623561 -0.28255895 -0.19357012 -0.36450684 -0.30891696 -0.12878945
-0.18194817 -0.22449967 -0.31673643 -0.35649 -0.24822734 -0.17143418 -0.07261393 -0.49619833
-0.17331403 -0.34600636 -0.10436264 -0.067624845 -0.057494435 -0.38986462 -0.14716895 -0.42443296
-0.12134647 -0.27243662 -0.29298502 -0.1532985 -0.23877303 -0.19053403 -0.2742162 -0.37441093

fc3.weight f4 [1, 48]
00000000: 8549 b13c 216b 873b 9521 85bc cec5 20bd
00000010: 1a80 b23b 7149 afbc 651d 5c3a 4289 3b3a
00000020: 2f5f 87bc ed66 69bc 51b5 07bd eb0d 7dbc
00000030: 12b3 1ebc 4436 02bc 0929 1b3d a5a8 1cbc
00000040: 38fe 1d3b fe8b 9139 c818 9c3c 8a5c 63bc
00000050: 2777 8839 669d 65bc e9ae 95bb 847b 473c
00000060: ec62 1cbd fd6b 8cbc f3bd 60bc 6795 79bc
00000070: f50f 3c3c 5b9f 28bc b5f8 1b3d a4cd c7bc
00000080: b2c9 51bc a5e6 0d3d 1a70 5bbd 1452 b9bc
00000090: 0587 ccbc e51b a1bb 418b f8bc 30b0 c9bc
000000a0: 9de0 abbc bb94 d6bb dbee 57bb 4e9e 87bc
000000b0: 316c 843c e17b 36bd 8c2a 953c b6ee eabc
0.021641502 0.004132644 -0.016251365 -0.03925114 0.0054474 -0.021397324 0.0008396714 0.0007153937
-0.01652488 -0.014245731 -0.0331319 -0.015445213 -0.009686248 -0.007947508 0.03788093 -0.009561692
0.0024107825 0.00027760857 0.019054785 -0.0138770435 0.00026028717 -0.0140145775 -0.00456797 0.0121754445
-0.038180277 -0.017141337 -0.013717162 -0.015233374 0.011478414 -0.0102919 0.038078982 -0.02439005
-0.012804436 0.034643788 -0.053573705 -0.022622146 -0.024966726 -0.0049166554 -0.030339839 -0.024620146
-0.020981127 -0.006548492 -0.0032948765 -0.016554978 0.016164871 -0.044551734 0.018208764 -0.02867828

fcs4.weight f4 [24, 8]
00000000: 22f3 183e 4bd3 15be 0ad8 253e c206 503e
00000010: 48e9 db3c 7c13 23be 9811 223d a0db 28bd
00000020: 97eb 473e 59ed 77be 5bc4 823d cd9b 303b
00000030: c4b4 5b3d 996d f83d 0bed d4bd 5399 8abe
00000040: aedc f3bd 2963 a7bd d056 b23c f452 a13d
00000050: f80f 1cbd 64fe a4bd fc70 b73d 1f3c 4bbe
00000060: dba5 8d3d 0ba0 593c dae6 1fbd 84ec 8cbd
00000070: b940 74bd 350b 96bd df66 ecbf b4e3 bcba
00000080: 6fd3 c3be 45a1 94be 568b 803d 63cd 063e
00000090: 67af b93e e4ff 1a3f 588a b13f f47e 973d
000000a0: 902c da3e 2ef6 e33e 8c43 433c a0c4 b4be
000000b0: 0428 0bbf 4578 59bf 6b70 a53d 7ee6 bdbe
000000c0: d045 633c dfad 243d c866 523d 1a52 4c3d
000000d0: 26ae 24bc f00e a8bd 8670 80bf 226d 0fbd
000000e0: b32b b13d 97b9 223e 5814 033d 534d 803d
000000f0: bd73 68bd 2f3a 73be 361d 82bd 8da6 653b
00000100: 732f 4fbe 0ae6 50be 989d 4ebe d4e5 003e
00000110: 3006 ae3c 005e f339 08fc 043d ca35 9ebd
00000120: c178 cd3c b096 c3bb bfc9 283d b494 22be
00000130: 53ec 6cbc 15ba 34be 5ad8 1dc0 20cf 9d3b
00000140: 3eb3 dabd 4d41 6dbd efae 453d ef86 e5bc
00000150: 6142 343e f5a2 b43c e9a0 dcbd bfdf 0cbe
00000160: 792e c03d 548a 353e 1d67 35bd 56bb 2c3e
00000170: 5039 bdbd 1dbc c53b da94 22c0 13d8 85bb
00000180: a999 e43c 6a02 043e ceb8 84bc 1d5e 2ebe
00000190: 728a 0a3e 777a d0bc 2d4f 30be 4163 63be
000001a0: 8d3f 1dbe 6302 9fbe a579 17be 78bd 16be
000001b0: 2589 5b3e a377 1b3e b627 193e c694 46be
000001c0: 985c 4e3e e016 15bd 5e84 033e fc3d d8bd
000001d0: 9b8d 4bbe dd9c 26be 183e d6bd 6c22 85bd
000001e0: 6b40 7d3e 3538 503e cb81 38bd a11c 81be
000001f0: e974 c8bd 7863 ebbe e5aa e8bf 60e2 89bc
00000200: 885a 463d 14f8 b83d 7425 7ebd 2676 8fbd
00000210: d538 c5bd 8d2b 4abe 50d2 923d 4b06 1ebe
00000220: fdd7 babe a24c babe f19b b0bc e65c 183f
00000230: 53aa 413f 6f88 823f a4e6 353f 568e a3be
00000240: 8095 913c 46e0 273e 4c1d cb3d 8efc 15be
00000250: b857 dcbd 0096 7b3b 6321 14be b4a7 89bd
00000260: 2c69 9c3d 5b37 2fbd 253e 913d 31b2 253c
00000270: acf8 903d 35a9 ac3e 140e dd3c 6f44 adbc
00000280: 9a1b 30bd c281 633d 01f0 a23d 150e 103d
00000290: 0876 3fbe ed99 d9bd f170 a93f 2611 90bf
000002a0: adf1 d13b d67f cf3d fca7 923c 9e82 3c3e
000002b0: 9269 123e 54db d33d 472a 233e 42e7 a8be
000002c0: 17f7 10bd 5bef 54bd 64b3 e53a 4b80 733d
000002d0: cd5e 933d 5fd7 443d 5fd9 383f d753 62be
000002e0: d114 99be 2e0d f1be 81a2 b53b decd 01be
000002f0: e98d 543e 02ee a13e 20c3 c5bf de0d 413b
0.14936498 -0.14631383 0.16195694 0.20315078 0.026844636 -0.15925401 0.03956756 -0.041225076
0.19523464 -0.24211635 0.06385108 0.0026948333 0.05363919 0.12130279 -0.10396775 -0.27070102
-0.11907326 -0.0817321 0.021769911 0.0787715 -0.038101166 -0.08056334 0.08957097 -0.19847153
0.069164 0.013282786 -0.039038517 -0.06881049 -0.059632037 -0.07326356 -1.8468894 -0.0014411123
-0.3824725 -0.2902929 0.06276576 0.13164286 0.36266634 0.6054671 1.3870344 0.07397261
0.42612123 0.44523758 0.01191796 -0.35306263 -0.54357934 -0.8494914 0.08078083 -0.37089914
0.013871625 0.04020488 0.05136755 0.049882986 -0.010051286 -0.08205974 -1.003434 -0.035016187
0.08650913 0.1589111 0.032001823 0.062647484 -0.056751 -0.23752664 -0.06353228 0.00350419
-0.20232944 -0.20400253 -0.20177305 0.12587672 0.021243185 0.00046418607 0.03246692 -0.07725103
0.025081994 -0.005968891 0.041208025 -0.15877038 -0.014460641 -0.1764911 -2.46633 0.004815951
-0.10678719 -0.057923604 0.048262533 -0.028018443 0.17603447 0.02205036 -0.10772879 -0.13757227
0.09383864 0.17728549 -0.04428779 0.16868338 -0.09239447 0.0060343877 -2.5403352 -0.004084596
0.027905302 0.12891546 -0.016201403 -0.17028089 0.13529375 -0.02544902 -0.17217703 -0.22205831
-0.15356274 -0.31056508 -0.14792497 -0.14720714 0.21439035 0.15182357 0.14956555 -0.1939269
0.20152509 -0.03639877 0.12843463 -0.105586976 -0.19878237 -0.16270776 -0.10461062 -0.06500706
0.24731605 0.20333941 -0.045045655 -0.25217155 -0.09787924 -0.45974326 -1.8177153 -0.016831577
0.04842618 0.09031692 -0.062047437 -0.07004957 -0.096299805 -0.19743176 0.0716902 -0.15432088
-0.3649291 -0.3638659 -0.021558734 0.5951675 0.7565052 1.0197886 0.71055055 -0.3194453
0.017771482 0.16394147 0.09917697 -0.14647123 -0.107589185 0.0038388968 -0.14465861 -0.0672144
0.076372474 -0.0427774 0.07091931 0.010113285 0.070786804 0.33722845 0.026984252 -0.021150796
-0.042995073 0.05554367 0.07955933 0.03516968 -0.18697369 -0.10625062 1.3237592 -1.1255233
0.006406984 0.10131805 0.017902367 0.18409202 0.14298084 0.10344568 0.15934096 -0.32988936
-0.035391893 -0.05198608 0.0017524776 0.05944852 0.07195816 0.048056956 0.7220668 -0.22102295
-0.29898694 -0.47080368 0.0055430536 -0.12676188 0.2075726 0.31626898 -1.5450172 0.0029457728

fcs4.bias f4 [24]
00000000: 939f 8fbe 29c9 b23b eeb6 83be a13f 5a3f
00000010: 178d b23e 237b 8a3e 9468 7d3f 48c0 87be
00000020: 6b79 1dbe 68b3 1d40 af29 58bb 05ed 2240
00000030: 7cf6 723c 2f53 1d3f f0dd 91be 2c40 df3f
00000040: 1657 26be 8b47 dc3d 00af 0a3b 7a19 90be
00000050: 159d 4ebe 98fb 0d3f a94f 01bf db2b c53f
-0.28051433 0.005456109 -0.25725502 0.8525334 0.34873268 0.2704707 0.989877 -0.26513886
-0.15378349 2.464075 -0.003298383 2.5457165 0.014829274 0.61455053 -0.28489637 1.7441459
-0.16244158 0.10755833 0.0021161437 -0.28144437 -0.2017711 0.55462027 -0.50512177 1.5404009

fc5.weight f4 [48, 25]
00000000: 35a9 473e cfef 0c3e cafa adbe 8aca 2c3d
00000010: dc7e 1fbe 29fa 373d 42d9 213c ed4c 43be
00000020: 8bc2 bdbd f32c 1cbd 552e a4bd 530f 513d
00000030: 10d8 113e 0ea0 fa3c 6d3b 58be e60c 1fbe
00000040: bee1 a5be ca67 513d ab16 903e 25d9 373e
00000050: f4f3 3b3d 3776 2e3d 3bcb 2ebd 29a6 19be
00000060: af6a 7abd 4a8c ab3d f618 453c 0f67 87be
00000070: e6d0 b6bd a751 083d 0f4e 8c3c 806f b83d
00000080: 562f 56be a0d8 29bd 8c62 c53c 4452 0bbb
00000090: b763 7e3d 2007 c8bd db6c ad3d ce07 bebe
000000a0: b850 c6bc c81d a6be e770 adbb c3f5 993d
000000b0: 6bb6 9d3e 5f4e a03c 21d7 dabd 5000 063e
000000c0: 5072 973d bef1 b2bd b560 d53d 7b2e 873d
000000d0: 25ab 87be 5e35 a3bc 99c1 b33d fcfb 74bd
000000e0: a375 b3bb 4d23 43be b7fe 23be 134c bc3d
000000f0: 7919 bbbd c9f1 53bc 124c 2c3d cade 84bd
00000100: 8924 5cbd a157 02be be21 373c 58d3 5e3d
00000110: 3606 b63d 20c8 3c3c 9094 06bc 590e 343d
00000120: 03df 5abd 86f2 b83d 4bec 31bd 45d3 a33d
00000130: 5a50 d23d 31c8 1bbe 892e c23d 7519 0ebc
00000140: a983 eb3a 9be7 3fbd 5410 80be 1fd1 20be
00000150: bf35 753d 0f61 d33d c923 31bd b2b3 bb3d
00000160: b57d c83c ac9b aebe 03dc 7fbd 9f2a a3be
00000170: 96c8 36be 933a 8a3e fa19 5a3e 5572 ac3b
00000180: d2e9 7b3d 110c 253d 2ad0 d93c b0f0 9c3d
00000190: 5695 b63e cd2f ef3d 9c99 5fbe e0df c53d
000001a0: 94b1 e03d 913f 3bbd eb72 cbbc 7d01 b2be
000001b0: 8866 a3bc 4749 9e3c 53d0 cbbb c7e9 4f3d
000001c0: 409f 1d3e 3c1a 33bc af64 2dbe 9cec 9fbb
000001d0: 22e3 67be 4084 c1bd 6029 7a3e d7ac 923e
000001e0: adea ae3d 510f a93c 0f58 e23d e0e3 5cbc
000001f0: c0ca 973d e11f 423e de1b 57b9 21d3 22be
00000200: b972 0c3e 92f9 12be e5de e8b8 8375 c2bc
00000210: bd50 82be 0240 43be ed28 b43e 531d c3b8
00000220: 4357 0a3f 4214 1bbe 71de 23be 6b9d 85be
00000230: aeb1 b83d 11fb bebe ab9c 0dbd fb25 973e
00000240: b80e 153d d17e 69be 1d0c 09bc 1ddc d63e
00000250: a0e4 353e daa1 77bd 66d5 b33e 086e 863d
00000260: 5c54 abbe a1a1 863b 09d1 583e 3fef b73c
00000270: 4b58 073e e194 7ebd 6e6e 5cbe 566e 463c
00000280: d643 f43c c003 223d d5d9 083e a144 3d3e
00000290: 8a96 2abe dfc8 f2bd 6380 8cbe 3b82 0a3e
000002a0: 9581 9a3e e161 723e f9bc b93c 457c 073d
000002b0: 41bc ad3d 721c 583d 797e ffbc 4214 203e
000002c0: 502b df3d df7f 35be 9b15 bebd f227 35be
000002d0: 4d67 433d e388 6a3d dffb dfbe 1c2a 81be
000002e0: bbc9 0d3c 4ccc 423e 0edd ce3c 1bfb 7d3d
000002f0: c05c ff3d c668 b8be a760 03bd 5308 dbbe
00000300: f1b6 67bd 19fa d83e 7b6f ab3e f214 b03d
00000310: af5a aa3c 1be9 293d ffc0 203c c255 3b3d
00000320: a74e 703e 91f3 453b a5ae 9abe c043 d13d
00000330: 9169 083e 30b6 f73b f7d8 97bc d520 81be
00000340: 2b60 4bbe 53c2 353b ec84 ff3d 42b2 b93c
00000350: a5f9 e73d 1e42 463e 54f9 1fbe 0a37 e73c
00000360: 167e 34be 942c 84bd 5b52 903e 5dfa c33d
00000370: 3f60 84bd 90d2 c33d e1fd 413c 9645 f0bd
00000380: ab54 90bd d762 013e cc79 063e c988 19be
00000390: a42a f03d 2378 69bd fa89 44bd 8e89 ce3d
000003a0: 95e9 94be 789b 90be aa3f 0ebe 7e5c 9b3d
000003b0: c38e 1ebc ec79 093e 45e4 a63d 7bc3 a4be
000003c0: c849 53bd 643a 9cbe aadd 00bd cf38 273e
000003d0: d5e5 743e 0df5 d73c 5992 4abd 01e3 40bd
000003e0: dc52 11bd 4b41 bbbc 6e1c 4e3e 1f52 833d
000003f0: b5fb a0be 618e c8bd a342 b7bd 900c 423c
0.19498141 0.13763355 -0.339804 0.042185344 -0.15575737 0.044916306 0.009878458 -0.19072314
-0.09265622 -0.038128804 -0.0801665 0.051040005 0.14242578 0.030593898 -0.21116419 -0.15532264
-0.3239879 0.05112437 0.28142294 0.17953928 0.04588695 0.042593207 -0.042674284 -0.15004791
-0.061136898 0.083763674 0.012029877 -0.26445815 -0.08926563 0.033280995 0.017127065 0.09005642
-0.20916495 -0.041466355 0.024094842 -0.002125875 0.062106814 -0.09766984 0.08468028 -0.3711533
-0.024208412 -0.32444596 -0.005293 0.075175785 0.30803236 0.01956862 -0.10685564 0.13086057
0.0739485 -0.08737515 0.10418836 0.06600662 -0.2649776 -0.019922908 0.0877716 -0.059810624
-0.00547667 -0.19056435 -0.16015135 0.091941975 -0.09135718 -0.012936064 0.042064734 -0.06487806
-0.05374578 -0.1272874 0.011177478 0.05440077 0.088879034 0.011522323 -0.008214131 0.043958995
-0.053435337 0.09030633 -0.043438237 0.07999281 0.10269232 -0.15213086 0.09481532 -0.008673062
0.0017968315 -0.046851736 -0.25012457 -0.15704773 0.05986571 0.10321247 -0.043247018 0.091651335
0.024474004 -0.34103143 -0.06246568 -0.31868455 -0.17849955 0.26997814 0.21298972 0.005262653
0.061502285 0.04029471 0.026588518 0.07663095 0.3566081 0.11679039 -0.21835941 0.096618414
0.1097137 -0.04571492 -0.02483507 -0.3476676 -0.019946352 0.01932205 -0.0062199025 0.050760057
0.1539278 -0.010931548 -0.16932939 -0.004880501 -0.22645238 -0.09449053 0.24429846 0.2864749
0.085408546 0.020637186 0.11051952 -0.013482064 0.07411718 0.18957473 -0.00020514379 -0.15900852
0.13715638 -0.14353016 -0.000111041394 -0.023737675 -0.25452223 -0.19067386 0.35187474 -9.303787e-05
0.540394 -0.15144446 -0.16002823 -0.26096663 0.09018265 -0.37300923 -0.03457324 0.29521164
0.03639099 -0.22802283 -0.008364704 0.41964808 0.17762995 -0.060457088 0.35123748 0.065639555
-0.334628 0.004108623 0.2117349 0.022452949 0.13217275 -0.0621537 -0.215265 0.012111267
0.029817503 0.039554358 0.13364346 0.18483211 -0.16658989 -0.11854719 -0.274417 0.13526241
0.30176988 0.2367015 0.022673117 0.033077497 0.08483172 0.052761503 -0.031188237 0.15632728
0.10896933 -0.1772456 -0.09281465 -0.17691019 0.047705937 0.05725945 -0.4374685 -0.2522744
0.008654053 0.19023246 0.025251891 0.06200705 0.124688625 -0.36017436 -0.032074597 -0.42779788
-0.05657095 0.4237831 0.3348349 0.08597745 0.020795194 0.041482072 0.009811639 0.045736082
0.23467503 0.0030204991 -0.30211368 0.102180004 0.1332152 0.0075595602 -0.018536074 -0.2522036
-0.19860904 0.0027734234 0.12476525 0.022668008 0.11326913 0.19361159 -0.15622455 0.028224487
-0.17626223 -0.06453815 0.28187832 0.095692374 -0.0646367 0.09561646 0.011840315 -0.117320225
-0.07047399 0.1263536 0.131324 -0.14993586 0.11726883 -0.056999337 -0.047983147 0.1008483
-0.2908446 -0.28243613 -0.13891473 0.07586001 -0.009677592 0.13425416 0.08149008 -0.3218039
-0.051584035 -0.305133 -0.031461395 0.16330265 0.23915799 0.026361967 -0.049455974 -0.047091488
-0.03547941 -0.022858283 0.20128033 0.06412148 -0.31442037 -0.097927816 -0.08948257 0.011843815

fc5.bias f4 [48]
00000000: aac3 54be d6d6 66be 219e 92be 6557 93bd
00000010: 3647 6dbe ca21 d9be fa6d d5be 8fca c0bd
00000020: c234 16be b8b4 b1bd 698c f8bd f839 8dbe
00000030: efce 1dbe 435e 11be b5b9 08be 547f 6fbe
00000040: bac2 6cbe e539 48be cf20 d0bd 9295 9abe
00000050: 127f 65be ef60 cc3c cb2c 11be 9752 31bd
00000060: 4548 95be e493 85bd 40f7 33be 48bb 70be
00000070: 43fe c4be 898d b6be 3124 76be 5fb0 1fbe
00000080: 83b8 b0be c9bd 28be 987c d4be 81f0 d0bd
00000090: 5094 30bd 1fef 70bd dbf5 76be 5c6c a1bc
000000a0: 756b f2bd 22aa 24be 2183 b6bd 8bac a7be
000000b0: 7b6f ecbd 5d05 97be 44a6 53be 0208 30be
-0.20777765 -0.22542891 -0.28636268 -0.071944036 -0.23171696 -0.42408592 -0.41685468 -0.09413635
-0.14668563 -0.086770475 -0.12136156 -0.2758329 -0.1541097 -0.14196114 -0.13352092 -0.23388416
-0.23121157 -0.19553335 -0.10162508 -0.30192238 -0.22411755 0.024948565 -0.14177243 -0.043291654
-0.291567 -0.065223485 -0.17574787 -0.23508942 -0.38475236 -0.35654858 -0.24037243 -0.15594624
-0.3451577 -0.16478647 -0.41501307 -0.102021225 -0.04311019 -0.058821794 -0.24117224 -0.01970499
-0.11836902 -0.16080526 -0.089117296 -0.32748827 -0.11544701 -0.2949628 -0.20668894 -0.17190555

fc6.weight f4 [1, 48]
00000000: dee5 f6bb f7cb 6ebc 15d9 f63c 556e 93bc
00000010: 2fda 13bb 968d 8abc 314c 2ebd c29b c6bc
00000020: fad4 b7bc 2b7c 203b ccc4 903a b1ab 05bd
00000030: b16b bebc 3140 1e3c b9bc 54bc 297f b83b
00000040: 7551 6ebc 0a6b 31bd b708 053c 25fb 613c
00000050: c84b b6bc 2684 2e3d 4486 ca3c 5b5b 2cbc
00000060: 2026 39bb 9f74 e3bc 160b 903c 5472 d7bc
00000070: 3621 2bbd 2a7d 1d3d 0d95 353c 6617 413b
00000080: e97b 7ebc 8e8e bcbc dc92 6fbd a51e cebb
00000090: b8b9 c4bb adc2 aabc 4c46 9fba 231e d4bc
000000a0: 25fc 3abb 3b7b 25bc e339 08bc 6fd2 6fbc
000000b0: b5b4 d1bc c1ec 833a 53c4 043d 3856 81bc
-0.0075347265 -0.014574996 0.03013281 -0.017996946 -0.0022560467 -0.016913217 -0.04255313 -0.024244193
-0.022440422 0.0024488072 0.0011044978 -0.03263444 -0.02324471 0.009658859 -0.012984448 0.005630393
-0.014545788 -0.04331497 0.008119754 0.013792788 -0.022252932 0.042606495 0.024722226 -0.010519828
-0.0028251484 -0.02776557 0.017583411 -0.026299633 -0.04177972 0.038449444 0.0110829 0.002946341
-0.015532472 -0.023017194 -0.058489665 -0.006290274 -0.0060035847 -0.020844782 -0.0012151687 -0.025893277
-0.0028531638 -0.010100181 -0.0083145825 -0.014637574 -0.025598863 0.0010065065 0.032413792 -0.015788183

bn1.weight f4 [24]
00000000: 0000 803f ead7 4f3f 0000 803f 17c4 053e
00000010: 7ba7 5ebd a0b5 e2b4 bf9d 153a 7d34 a23d
00000020: 66b3 a53e f144 163f 4dd0 cbb4 5a6e 313f
00000030: 9df2 263f c4a6 0abe 0000 803f b959 fb3d
00000040: eb39 2c3f 0c39 6dbc b3d5 dc3e 8ff8 94bb
00000050: 16f8 db3e 96dd 48ba 5fcf 643e a59f 0d3f
1.0 0.81188834 1.0 0.13063084 -0.05435894 -4.222793e-07 0.0005707405 0.079201676
0.32363433 0.58698946 -3.7963255e-07 0.6930901 0.6521395 -0.13540179 1.0 0.122729726
0.67275876 -0.014478933 0.4313179 -0.004546232 0.42962712 -0.00076624134 0.22344731 0.55321723

bn1.bias f4 [24]
00000000: d909 0abe 956a 23b7 67b9 ef3d bfb4 0fbe
00000010: b8e3 9bbb f11e 9eb6 c48c 7aba 213d 17bc
00000020: 74a4 64bc 8a9c 393c 5933 84b6 6691 30bf
00000030: 95da 2bbb 597d 97bd 79cc 853e e0d3 06be
00000040: afce ed3e da2f ccbb 11a9 e83a 541c a039
00000050: cc67 413e a819 2bba bf8e 5b3c f4f0 05be
-0.13480319 -9.740373e-06 0.117052846 -0.14033793 -0.004757371 -4.712369e-06 -0.0009557719 -0.009230883
-0.013955224 0.011328826 -3.939884e-06 -0.6897186 -0.0026222814 -0.07396955 0.26132563 -0.13166761
0.4644675 -0.0062312903 0.0017750581 0.00030538684 0.18887252 -0.00065269554 0.013400733 -0.13080198

bn1.running_mean f4 [24]
00000000: 0000 0000 0400 0000 0000 0000 a80b 993d
00000010: 6201 163f 6c8b c13f 947b e83d f76b cc3d
00000020: eca1 df3e ac13 d73f 34c9 a83e 6af4 ff3e
00000030: 0400 0000 b676 b63d 0000 0000 e106 0a3f
00000040: cd18 a13f 4b0c f83d 0400 0000 be4f 0a3d
00000050: 2026 933f e5b1 db3c 0400 0000 942f cd3f
0.0 6e-45 0.0 0.074729264 0.5859586 1.5120673 0.11351696 0.0998153
0.43678224 1.6802878 0.32966006 0.4999116 6e-45 0.08909361 0.0 0.53916746
1.2585694 0.1211172 6e-45 0.033767454 1.149601 0.026818225 6e-45 1.6030145

bn1.running_var f4 [24]
00000000: 0400 0000 0400 0000 0400 0000 0030 df3c
00000010: 2724 7c3c 76b8 2940 4460 173c b65b 0a3d
00000020: 2e1a ea3d 308d 253f fa9d 4d3e 4790 4a3e
00000030: 0400 0000 46a7 b23c 0400 0000 e686 d53d
00000040: f450 063f dfdc 8c3c 0400 0000 8461 ea3b
00000050: c1a0 ae3e 6c9e c83b 0400 0000 7649 283f
6e-45 6e-45 6e-45 0.027244568 0.015389479 2.6518836 0.00923926 0.03377887
0.11430775 0.6466856 0.20079795 0.197816 6e-45 0.021808278 6e-45 0.104261205
0.52467275 0.017195163 6e-45 0.007152738 0.3410702 0.006122401 6e-45 0.6573709

bn2.weight f4 [24]
00000000: 0000 803f 0000 803f 0000 803f 0000 803f
00000010: 0000 803f 0000 803f 0000 803f 0000 803f
00000020: 0000 803f 0000 803f 0000 803f 0000 803f
00000030: 0000 803f 0000 803f 0000 803f 0000 803f
00000040: 0000 803f 0000 803f 0000 803f 0000 803f
00000050: 0000 803f 0000 803f 0000 803f 0000 803f
1.0 1.0 1.0 1.0 1.0 1.0 1.0 1.0
1.0 1.0 1.0 1.0 1.0 1.0 1.0 1.0
1.0 1.0 1.0 1.0 1.0 1.0 1.0 1.0

bn2.bias f4 [24]
00000000: 0000 0000 0000 0000 0000 0000 0000 0000
00000010: 0000 0000 0000 0000 0000 0000 0000 0000
00000020: 0000 0000 0000 0000 0000 0000 0000 0000
00000030: 0000 0000 0000 0000 0000 0000 0000 0000
00000040: 0000 0000 0000 0000 0000 0000 0000 0000
00000050: 0000 0000 0000 0000 0000 0000 0000 0000
0.0 0.0 0.0 0.0 0.0 0.0 0.0 0.0
0.0 0.0 0.0 0.0 0.0 0.0 0.0 0.0
0.0 0.0 0.0 0.0 0.0 0.0 0.0 0.0

bn2.running_mean f4 [24]
00000000: 0000 0000 0000 0000 0000 0000 0000 0000
00000010: 0000 0000 0000 0000 0000 0000 0000 0000
00000020: 0000 0000 0000 0000 0000 0000 0000 0000
00000030: 0000 0000 0000 0000 0000 0000 0000 0000
00000040: 0000 0000 0000 0000 0000 0000 0000 0000
00000050: 0000 0000 0000 0000 0000 0000 0000 0000
0.0 0.0 0.0 0.0 0.0 0.0 0.0 0.0
0.0 0.0 0.0 0.0 0.0 0.0 0.0 0.0
0.0 0.0 0.0 0.0 0.0 0.0 0.0 0.0

bn2.running_var f4 [24]
00000000: 0000 803f 0000 803f 0000 803f 0000 803f
00000010: 0000 803f 0000 803f 0000 803f 0000 803f
00000020: 0000 803f 0000 803f 0000 803f 0000 803f
00000030: 0000 803f 0000 803f 0000 803f 0000 803f
00000040: 0000 803f 0000 803f 0000 803f 0000 803f
00000050: 0000 803f 0000 803f 0000 803f 0000 803f
1.0 1.0 1.0 1.0 1.0 1.0 1.0 1.0
1.0 1.0 1.0 1.0 1.0 1.0 1.0 1.0
1.0 1.0 1.0 1.0 1.0 1.0 1.0 1.0
