financial/finance/trained_models/TD3__volatility__CjMmCriterion/critic.pth (torch, 18810 bytes, 18 tensors)

fcs1.weight f4 [24, 8]
0	0x3e327ce0	0.17430449
1	0xbdb32387	-0.08747011
2	0x3d3f2290	0.04666382
3	0xbd7232bc	-0.059130415
4	0x3dd11060	0.102082014
5	0x3b5c8140	0.0033646375
6	0x3de5dd34	0.11223832
7	0xbd626660	-0.055273414
8	0xbdc2d42f	-0.09513127
9	0x3dce3c81	0.10070134
10	0xbdb992b8	-0.090611875
11	0xbe149f1b	-0.14513819
12	0x3dd34a00	0.10316849
13	0xbe0dba96	-0.13840708
14	0xbdd06f91	-0.101775296
15	0xbd9c61fc	-0.076358765
16	0x3c6d79b0	0.014494345
17	0xbd90c92c	-0.070696205
18	0xbd9674a6	-0.07346468
19	0xbd522468	-0.05130425
20	0x3e127b50	0.14304852
21	0x3d7a5958	0.06112036
22	0xbdc94369	-0.098273106
23	0xbe107bac	-0.14109677
24	0x3d81284f	0.063065164
25	0xbce05cbb	-0.027387967
26	0xbc2e3224	-0.010632072
27	0x3e4d157d	0.20027728
28	0x3e321a67	0.17392884
29	0x3d12c7ff	0.035835262
30	0xbcc28494	-0.023744859
31	0xbbc49e3e	-0.0060003093
32	0xbdb76f3b	-0.089567624
33	0x3d11ba18	0.035577863
34	0x3de2ed35	0.110804
35	0xbe183915	-0.14865525
36	0x3ca1e5fc	0.019762985
37	0xbe22a89b	-0.1588463
38	0xbe7d6a3f	-0.24747561
39	0x3ab4ac95	0.0013784344
40	0xc07913fe	-3.8918452
41	0xc10d1a3a	-8.818903
42	0xc0528f6a	-3.2900033
43	0xbfc0bdce	-1.5057924
44	0xbe733d78	-0.23753917
45	0x404d618a	3.2090783
46	0x3f668c38	0.90057707
47	0x3d813a2a	0.06309922
48	0xbe581355	-0.21101125
49	0xbe14f11f	-0.14545105
50	0x3db8ff88	0.09033114
51	0xbdbc5723	-0.091963075
52	0x3d8852b1	0.06656397
53	0xbd7e1d04	-0.06203939
54	0xbc7d9cd6	-0.015479287
55	0x3a828d45	0.0009960314
56	0xc0922f4d	-4.568274
57	0xc00c7028	-2.1943455
58	0x3fa44e6d	1.2836434
59	0x3fc3c45c	1.5294299
60	0x3f83c352	1.0293982
61	0x3f4d29f1	0.8014212
62	0xc022e1c8	-2.5450306
63	0xbc85ee1d	-0.016348893
64	0x3f4212c1	0.75809866
65	0xbfc2fc45	-1.5233237
66	0xbf2f6b1d	-0.68522817
67	0xbf410dbe	-0.75411594
68	0xbe8fba0c	-0.2807163
69	0x3e7ce6da	0.24697438
70	0xc04240a2	-3.0351949
71	0xbb1d1696	-0.002396976
72	0xc043ba98	-3.0582638
73	0xc088994a	-4.268712
74	0xc083a1c0	-4.113495
75	0xc036c99e	-2.8560557
76	0xc0106837	-2.2563608
77	0xc0374dc3	-2.8641212
78	0x40a651a8	5.197468
79	0x3d1f7958	0.03893408
80	0xbe2600ba	-0.16211215
81	0x3e090eb3	0.13384514
82	0x3d0555d3	0.03255255
83	0x3e229e1d	0.15880628
84	0xbdc2f717	-0.09519785
85	0xbe12529f	-0.1428933
86	0xbdde4f7c	-0.10855004
87	0xbc1ca28f	-0.009560241
88	0x3d8da8a8	0.06916934
89	0xbdf03b75	-0.117300905
90	0xbc9d7020	-0.019218504
91	0xbd10813c	-0.035279498
92	0x3e3eb86a	0.18625036
93	0xbd96c3ae	-0.07361542
94	0x3e4a8ee2	0.19781068
95	0xbe003340	-0.1251955
96	0x3f10a165	0.5649627
97	0x3f113d10	0.567338
98	0x3efd05e5	0.4941856
99	0x3e772296	0.24134287
100	0xbd8f4465	-0.06995467
101	0xbd8a5c7f	-0.067559235
102	0x3f0c8ed2	0.54905427
103	0xbedbd3e4	-0.42935097
104	0xc1adf4cd	-21.744532
105	0x3f402631	0.75058275
106	0x3e8d9e0f	0.27659652
107	0xbdf24c3c	-0.11830947
108	0x3e432277	0.19056116
109	0xbe99f7ef	-0.3007197
110	0x3e84b233	0.25917205
111	0x3c6f39f1	0.014601217
112	0xbd2d52e8	-0.042315394
113	0x3d5e2ef0	0.05424398
114	0xbdba3f00	-0.090940475
115	0x3e4dd6b8	0.2010144
116	0x3e34b118	0.17645681
117	0x3dc34c1c	0.09536001
118	0xbd9bb69a	-0.07603188
119	0xbe444366	-0.19166335
120	0x3e9a0396	0.3008086
121	0x3f3aeb21	0.7301503
122	0x3f5468d8	0.8297248
123	0x3f57e721	0.8433705
124	0x3f222e11	0.6335154
125	0xbf8634b1	-1.048483
126	0x3fe31b35	1.7742678
127	0xbfb764f4	-1.4327683
128	0x40a5d3a8	5.182087
129	0x40943d59	4.6324887
130	0x3fe58a39	1.7932807
131	0xbe7e1865	-0.24813993
132	0xbf165294	-0.58719754
133	0xbc54a322	-0.012978347
134	0x3f6f9d31	0.9359923
135	0x3d54f573	0.05199189
136	0xc11d2bdc	-9.823208
137	0x3f7f3dd1	0.997037
138	0x3eadaf69	0.3392289
139	0x3f7cb3bc	0.9871175
140	0x3f75137d	0.9573286
141	0x3f651e71	0.89499575
142	0xbf91937a	-1.1373131
143	0xbbff9324	-0.007799523
144	0x3f86d570	1.0533886
145	0x3e34fc08	0.17674267
146	0x3eafadfb	0.34312424
147	0x3ecf97bc	0.40545452
148	0x3e2b49cd	0.16727372
149	0x3d444304	0.047915474
150	0x3f16543e	0.58722293
151	0xbeea3834	-0.45746005
152	0xbf11df26	-0.5698112
153	0x403d43e7	2.9572694
154	0x3cebdf1d	0.028792912
155	0x3ee1b70d	0.4408497
156	0x3f3e726f	0.7439336
157	0x3f1b3da8	0.60640955
158	0x3eb3f067	0.3514435
159	0xbef4ce2e	-0.47813553
160	0xc109f940	-8.623352
161	0x410bb38b	8.731334
162	0x40a1699f	5.044143
163	0x400a2eba	2.159102
164	0x3e8cffeb	0.27539
165	0xbe7bf461	-0.24604942
166	0x3f8031ca	1.0015194
167	0x3d31cde4	0.043409243
168	0x3db10a70	0.08644569
169	0x3e1c7964	0.15280682
170	0xbd8221d8	-0.063541114
171	0x3d3e70f0	0.046494424
172	0x3c2a24d0	0.010384753
173	0xbe1089d2	-0.14115074
174	0xbda0b750	-0.07847464
175	0xbd946924	-0.072466165
176	0xc0211bcc	-2.5173216
177	0xbe94cfe1	-0.2906485
178	0xbf853745	-1.0407492
179	0xbfa6aead	-1.3022057
180	0xbf373639	-0.7156711
181	0xbf982c7b	-1.1888574
182	0x3f03e12a	0.5151545
183	0xbe9c6d87	-0.30552313
184	0xbebb072a	-0.36528903
185	0x3f390394	0.72271085
186	0x3f590558	0.8477378
187	0x3f02f2cd	0.51151735
188	0x3f26a809	0.6510015
189	0xc0a3a00a	-5.113286
190	0xbdb3d2f7	-0.08780473
191	0xbe009e6b	-0.12560432

fcs1.bias f4 [24]
0	0xbe7f5fcc	-0.24938887
1	0xbc1de49d	-0.009637025
2	0xbe7f36a2	-0.24923185
3	0xbe9a79a0	-0.30170918
4	0xbe96b86c	-0.29437578
5	0x3df805a2	0.121104494
6	0xbe87fa12	-0.26557976
7	0x40182d74	2.3777742
8	0x4043a533	3.056958
9	0x3f35ffc1	0.71093374
10	0xbe95c56e	-0.2925219
11	0xbe788b42	-0.24271873
12	0xbe0429cb	-0.12906568
13	0x3eeb4a22	0.45954996
14	0xbe0223e6	-0.12709007
15	0xbeaf0e75	-0.34190717
16	0x3f694908	0.9112706
17	0x40081e14	2.1268358
18	0xbe11e8b9	-0.14248933
19	0x3e39cdff	0.18144988
20	0x3d372e86	0.044722103
21	0xbda556d8	-0.08073205
22	0xbd819c6d	-0.06328664
23	0xbb9d8ce5	-0.0048080557

fc2.weight f4 [48, 25]
0	0xbb4f013b	-0.0031586427
1	0x3b29366e	0.0025819796
2	0x3b7dce92	0.0038727862
3	0xba98dd9b	-0.0011662723
4	0xbcb8b856	-0.022548836
5	0xbe591cdd	-0.21202417
6	0xbef02ec3	-0.46910676
7	0xbe6c7329	-0.23090805
8	0x3dcd919b	0.10037538
9	0xbe67cb0d	-0.22636051
10	0x3bd84376	0.006599839
11	0xb8f106d2	-0.00011493046
12	0x3aeebf31	0.0018214938
13	0xbe5a90a1	-0.21344234
14	0xbbea3866	-0.0071478365
15	0xbe451067	-0.19244538
16	0x3a30a035	0.000673774
17	0xbeaee7b3	-0.34161147
18	0x3b582d11	0.0032985846
19	0xbd56a007	-0.052398708
20	0xbe48f135	-0.19623263
21	0xbedd68ef	-0.4324412
22	0x3bcced45	0.0062538707
23	0xbe0bf4f8	-0.13667667
24	0x3d2ab892	0.041679926
25	0x3d1cb33c	0.03825687
26	0xbd92242b	-0.07135805
27	0xbe931f40	-0.2873478
28	0x3ca995bc	0.020701282
29	0x3c7a3c43	0.015273157
30	0x3ba735ab	0.0051028333
31	0x3e133e0b	0.14379136
32	0x3d94f2c9	0.0727287
33	0x3bbbc09e	0.005729749
34	0xbe18e3c0	-0.1493063
35	0xbe512675	-0.20424826
36	0x3e5309ad	0.2060916
37	0x3e43d30f	0.19123481
38	0xbd8c2e5e	-0.06844781
39	0x3d14e570	0.03635162
40	0x3ca805f4	0.020510651
41	0xbe05fc7f	-0.13084601
42	0x3d54953e	0.05190014
43	0xbbd160ae	-0.006389699
44	0x3cf23df5	0.029570559
45	0xbdb6419c	-0.08899233
46	0x3c965dae	0.018355217
47	0xbca8016c	-0.02050849
48	0xbe0c51d4	-0.1370309
49	0x3db4277d	0.08796594
50	0xbe5b5469	-0.21418919
51	0xbdff9d6a	-0.12481196
52	0xbe5dfe60	-0.21679068
53	0x3de0a79e	0.109694704
54	0x3d4d99e3	0.050195586
55	0xbde0b56e	-0.10972105
56	0x3ca448dc	0.020054273
57	0x3d83b12d	0.06430278
58	0x3c5ad438	0.013356261
59	0xbdd8d734	-0.10587922
60	0xbe530854	-0.20608646
61	0x3e147348	0.14497101
62	0xbcde46d3	-0.027133381
63	0xba94672a	-0.0011322249
64	0x3dc82d3a	0.09774251
65	0xbc05a06f	-0.008155926
66	0xbddfd386	-0.10929017
67	0x3cb3ec51	0.02196327
68	0xbd7c1655	-0.061544735
69	0x3bcf3f41	0.006324679
70	0xbdda1200	-0.106479645
71	0xbe4c1c80	-0.19932747
72	0x3e3c35d4	0.18379909
73	0x3dabd5bc	0.08390376
74	0x3e74cad7	0.23905502
75	0xbd205ed1	-0.039152924
76	0x3cc40323	0.023927277
77	0xbd817bcb	-0.0632244
78	0x3d5fbf3b	0.05462573
79	0xbc06f07d	-0.008236048
80	0xbe0811b1	-0.13287999
81	0x3e4e41c4	0.20142275
82	0x3a8a655e	0.0010558774
83	0x3b63b0ef	0.0034742912
84	0xbe29b2a7	-0.16572057
85	0xbe49c736	-0.19704899
86	0x3e2eb38f	0.17060684
87	0xbb9b656b	-0.0047423146
88	0xbd016935	-0.031594474
89	0x3e33a454	0.17543155
90	0x3bee9fee	0.0072822487
91	0x3de03d59	0.10949201
92	0x3cd6b853	0.02621094
93	0x3d8d24b5	0.06891767
94	0x3e168f87	0.14703189
95	0x3da80d78	0.08205694
96	0xbdebf516	-0.11521356
97	0xbde6a525	-0.112619676
98	0x3c6f5ffb	0.014610286
99	0x3e1184ef	0.14210866
100	0x3bad91ef	0.0052969377
101	0xbe2aedce	-0.16692278
102	0xbdd624dd	-0.1045625
103	0x3c3d3267	0.011547661
104	0x3e035be8	0.12828028
105	0xbddea44d	-0.10871182
106	0x3baa71de	0.0052015623
107	0xbde50b28	-0.111837685
108	0xbbbdcc19	-0.0057921526
109	0xbd8d0de7	-0.06887417
110	0xbe94c619	-0.29057387
111	0x3e3e2b4d	0.18571205
112	0x3c596d37	0.013270668
113	0xbd932bcf	-0.0718609
114	0x3e9b8427	0.30374262
115	0x3d3e9126	0.046525143
116	0xbe877e26	-0.2646343
117	0x3e143865	0.14474638
118	0x3e1d3d8a	0.15355507
119	0xbe9178c5	-0.28412452
120	0x3e188623	0.14894919
121	0xbe92899c	-0.28620613
122	0xbc94d8dc	-0.018169813
123	0xba30f2d1	-0.00067500497
124	0x3e51d38b	0.20490853
125	0xbdd71e12	-0.10503782
126	0xbe146013	-0.14489774
127	0xbddd4c70	-0.10805595
128	0x3d7b4fdf	0.061355468
129	0x3b217977	0.002463905
130	0xbd95e377	-0.07318776
131	0x3df1bc62	0.11803509
132	0xbd871462	-0.065956846
133	0x3cb043e5	0.02151675
134	0xbd20543f	-0.039142843
135	0xbd83f099	-0.06442375
136	0x3e4024a1	0.18763973
137	0x3db79383	0.089636825
138	0x3ba96dc1	0.0051705544
139	0x3e1c8742	0.15285972
140	0xbdb1269f	-0.086499445
141	0x3d28a7c5	0.041175622
142	0xbd8b0255	-0.06787554
143	0xbd252f34	-0.04032822
144	0xbdc57df9	-0.09643168
145	0xbcf8e328	-0.030381754
146	0xbe308a3b	-0.1724023
147	0x3da28569	0.07935602
148	0xbc00f8a1	-0.007871778
149	0x3c9ec5d9	0.01938145
150	0xbe6aade2	-0.22917894
151	0xbdd7b028	-0.10531646
152	0xbdada1b6	-0.084781095
153	0x3cdeaa7a	0.027180899
154	0x3a050bdd	0.0005075315
155	0xbdc4ad55	-0.09603373
156	0x3e125476	0.14290032
157	0x3d8e09fb	0.069354974
158	0xbe65093b	-0.22366802
159	0x3d44e233	0.048067283
160	0xbe686a48	-0.22696793
161	0x3e3ecd0c	0.18632907
162	0x3d3531f1	0.04423708
163	0xbae6b5c9	-0.0017601784
164	0x3eb19349	0.34682682
165	0xbcc64977	-0.024204953
166	0xbe105cee	-0.1409795
167	0x3e0c7f20	0.1372037
168	0x3b86d134	0.0041142944
169	0x3dc7f9c5	0.09764437
170	0x3cf3d1c1	0.029763104
171	0xbd24a71e	-0.040198438
172	0xbe00cd41	-0.12578298
173	0xbce136be	-0.027491923
174	0x3db4bcaf	0.08825051
175	0xbd64369c	-0.055716142
176	0xbd1c4e13	-0.038160395
177	0xbe57cffd	-0.21075435
178	0x3de2abcb	0.11067923
179	0xbd2b41a4	-0.041810647
180	0xbd00254d	-0.031285573
181	0x3e71a730	0.23598933
182	0x3da2ded5	0.07952658
183	0xbd1215e9	-0.035665426
184	0xbe55a825	-0.20864923
185	0xbe816ce7	-0.25278398
186	0x3e3d6072	0.18493822
187	0x3e435a9e	0.19077536
188	0xbdb3b6d6	-0.087751076
189	0x3e9d3fe1	0.30712798
190	0x3d140134	0.03613396
191	0xbc67fc92	-0.014159339
192	0x3e5a800c	0.21337909
193	0x3d5eb880	0.05437517
194	0xbd41f314	-0.047350958
195	0xbca07da8	-0.019591168
196	0xbe6c9d13	-0.23106794
197	0xbc5d2617	-0.013497851
198	0x3d915a27	0.07097273
199	0x3dd289d0	0.10280192
200	0x3b120152	0.002227862
201	0xbc56de5f	-0.013114541
202	0x3c51f552	0.012814837
203	0x3b91f052	0.0044536972
204	0xbc5281bb	-0.012848313
205	0x3de0eb9f	0.10982441
206	0x3e0f6aa0	0.14005518
207	0x3ebe2b3d	0.37142363
208	0xbf3a8c53	-0.7287037
209	0x3de50e0a	0.11184318
210	0x3b972a24	0.004613178
211	0x3cb23128	0.021751955
212	0x3b7197b9	0.0036864115
213	0xbc407356	-0.011746248
214	0xbbe00a90	-0.0068371966
215	0x3e762027	0.24035703
216	0x3b9395c7	0.004503939
217	0x3c90b93d	0.017666453
218	0x3c7589ab	0.014986436
219	0x3da75ddc	0.08172199
220	0xbc80dbec	-0.015729867
221	0x3e46a0f2	0.19397333
222	0xbb63732e	-0.0034706104
223	0x3e81ee64	0.2537719
224	0x3c18beaa	0.009322802
225	0xbc3b69de	-0.011438815
226	0xbc3eeaf1	-0.011652694
227	0xbe9479c2	-0.28999144
228	0x3d397240	0.045274973
229	0x3dc5d83f	0.09660386
230	0xbe75272e	-0.23940727
231	0x3e53a173	0.20667057
232	0xbd7dd24d	-0.061968137
233	0x3ceef022	0.029167239
234	0x3d942084	0.07232764
235	0xbce24976	-0.02762292
236	0x3dabee9d	0.08395121
237	0xbe101a18	-0.14072454
238	0x3d17ddea	0.037076868
239	0x3da9fef9	0.08300585
240	0xbe67efaa	-0.22650018
241	0xbaec13d5	-0.0018011281
242	0xbd909d8a	-0.07061298
243	0xbe19a191	-0.15003039
244	0xbded0eda	-0.11575098
245	0xbf19e8ba	-0.6012074
246	0xbb3fd952	-0.002927382
247	0x3e214df1	0.15752389
248	0x3d3aea6d	0.045633722
249	0x3e911478	0.2833593
250	0xbcfdf418	-0.031000182
251	0xbc9c0885	-0.019047031
252	0xbd10a1eb	-0.035310667
253	0xbc5cd41f	-0.013478308
254	0x3ca0335c	0.01955574
255	0xbea09222	-0.3136149

fc2.bias f4 [48]
0	0x3de31f5f	0.11089968
1	0xbee68158	-0.45020556
2	0xbef35673	-0.47526893
3	0xbe49441b	-0.19654886
4	0xbec3d68d	-0.38249627
5	0xbe9f9e20	-0.31175327
6	0xbeb5e357	-0.3552501
7	0xbeeb4a89	-0.45955303
8	0xbead3259	-0.33827475
9	0xbedccf7f	-0.43127057
10	0xbda85396	-0.08219068
11	0xbe0df92d	-0.13864584
12	0xbeaff88c	-0.34369314
13	0xbe97562f	-0.2955794
14	0xbec53276	-0.3851506
15	0xbe12889e	-0.14309928
16	0xbe6ca225	-0.23108728
17	0xbebe7ad9	-0.372031
18	0xbeb91ef9	-0.36156443
19	0xbe617d92	-0.22020558
20	0xbe7be33d	-0.24598403
21	0xbe9798e5	-0.29608837
22	0xbec0a7a3	-0.37627897
23	0xbe968530	-0.2939849
24	0xbebd440c	-0.36965978
25	0xbeeae107	-0.45874807
26	0xbd9a8647	-0.075451426
27	0xbe9af396	-0.30263966
28	0xbe9f86a6	-0.31157416
29	0xbe55a4c8	-0.2086364
30	0xbe894434	-0.26809847
31	0xbe759900	-0.23984146
32	0xbeaa9f0c	-0.33324468
33	0xbea2d7d9	-0.31805304
34	0xbe64abb3	-0.22331123
35	0xbda414ba	-0.08011766
36	0xbd28e2b2	-0.04123182
37	0xbece712f	-0.40320727
38	0xbe1bb623	-0.15206198
39	0xbe8c5dae	-0.27415222
40	0xbe997043	-0.2996846
41	0xbe793afa	-0.24338904
42	0xbe73d6da	-0.23812428
43	0xbe5011ad	-0.20319243
44	0xbe55da7d	-0.20884128
45	0xbe2ad9cd	-0.16684647
46	0xbea0d8a9	-0.314153
47	0xbece4b92	-0.4029203

fc3.weight f4 [1, 48]
0	0xbd47a710	-0.048743308
1	0x3c444fb1	0.011981891
2	0x3cff7e26	0.031188082
3	0xbcf64c2b	-0.030065617
4	0xbc4a430b	-0.012345086
5	0xbca3d7df	-0.020000396
6	0xbbe1bd88	-0.006889049
7	0x3c2729a7	0.010202802
8	0x3d06371b	0.032767396
9	0x3ca2566a	0.019816596
10	0x3c26475c	0.010148849
11	0xbcd5eeb2	-0.026114795
12	0xbdb7d8c2	-0.0897689
13	0x3c341129	0.010990419
14	0x3bc91a4a	0.006137167
15	0x3c2447eb	0.010026912
16	0x3d83986a	0.06425555
17	0xbc4e8939	-0.012605959
18	0xbcc86714	-0.024463214
19	0xbc400a05	-0.011721139
20	0x3ce20e23	0.027594632
21	0x3c0de98d	0.00866164
22	0xbce36327	-0.02775724
23	0x398721db	0.0002577443
24	0xbcafe5e0	-0.021471918
25	0xbc70b972	-0.014692651
26	0x3d435c03	0.04769517
27	0x3cd2e3bb	0.025743356
28	0x3c5f257c	0.013619777
29	0x3b966599	0.004589748
30	0xbc882249	-0.016617911
31	0x3d87912e	0.06619488
32	0xbcd4082f	-0.025882808
33	0xbacddc35	-0.0015705886
34	0xbc9f4ef4	-0.019446827
35	0xbbf5c45c	-0.0075002145
36	0x3c336692	0.010949748
37	0xbd1ed912	-0.038781233
38	0x39d88eae	0.00041305035
39	0x3ce2b077	0.027672036
40	0xbaace3de	-0.0013190468
41	0x3c20e7d6	0.009820899
42	0x3be1e024	0.0068931747
43	0x3c4f67c3	0.012659016
44	0x3d9884b3	0.07447185
45	0xbd2faafe	-0.04288768
46	0x3c721d33	0.014777469
47	0x3cc34ff4	0.023841836

fcs4.weight f4 [24, 8]
0	0x3e18f322	0.14936498
1	0xbe15d34b	-0.14631383
2	0x3e25d80a	0.16195694
3	0x3e5006c2	0.20315078
4	0x3cdbe948	0.026844636
5	0xbe23137c	-0.15925401
6	0x3d221198	0.03956756
7	0xbd28dba0	-0.041225076
8	0x3cf4f367	0.02990122
9	0xbe09ecf8	-0.13469303
10	0x3de0e820	0.10981774
11	0xbd523f9b	-0.05133019
12	0xbdb22582	-0.0869856
13	0x3e25e9d5	0.16202481
14	0xbd905744	-0.070478946
15	0xbe4be2fc	-0.19910806
16	0xbdf3dcae	-0.11907326
17	0xbda76329	-0.0817321
18	0x3cb256d0	0.021769911
19	0x3da152f4	0.0787715
20	0xbd1c0ff8	-0.038101166
21	0xbda4fe64	-0.08056334
22	0x3db770fc	0.08957097
23	0xbe4b3c1f	-0.19847153
24	0xbcc71d73	-0.024306035
25	0xbd989c42	-0.07451679
26	0x3da38ce5	0.07985858
27	0x3d1679f0	0.036737382
28	0xbcc1019d	-0.02356034
29	0x3c51df31	0.012809561
30	0xbf18f50d	-0.5974892
31	0xbc9638f1	-0.018337699
32	0x3e32b549	0.17451967
33	0x3d3f0a84	0.046640888
34	0x3ddda428	0.10822326
35	0x3d9897f5	0.074508585
36	0x3dbcb60f	0.092144124
37	0x3cbc7d07	0.023008836
38	0x3ed20a15	0.41023317
39	0xbeadd8ad	-0.33954373
40	0x3ffa1610	1.9537983
41	0x4027b9ae	2.620708
42	0x3f8b7224	1.0894208
43	0x3e99b911	0.30024007
44	0xbef79bd3	-0.48361072
45	0xbedbcd53	-0.42930087
46	0xbe859431	-0.26089624
47	0xbe9ac476	-0.30228013
48	0x4117fbe6	9.498999
49	0x3dd52fa1	0.10409475
50	0xbfda542d	-1.7056938
51	0xbfdc382a	-1.720464
52	0xbfda2365	-1.7042052
53	0xbfed31fc	-1.8530879
54	0x40958ec8	4.6736794
55	0xb94f68f8	-0.00019780162
56	0xc0389b17	-2.884466
57	0x3fe11c7e	1.758682
58	0xbf98dc29	-1.1942188
59	0xc00ae378	-2.1701336
60	0xc00836aa	-2.1283364
61	0xc0058848	-2.086443
62	0xbe26d3c3	-0.16291718
63	0x3e0f9c8b	0.1402456
64	0xbe4f2f73	-0.20232944
65	0xbe50e60a	-0.20400253
66	0xbe4e9d98	-0.20177305
67	0x3e00e5d4	0.12587672
68	0x3cae0630	0.021243185
69	0x39f35e00	0.00046418607
70	0x3d04fc08	0.03246692
71	0xbd9e35ca	-0.07725103
72	0x3f2b8cd7	0.6701178
73	0x404dfebb	3.2186725
74	0x3fb6ae69	1.4271976
75	0x3eed9e10	0.46409655
76	0x3e3d029b	0.18458025
77	0xbea43335	-0.32070318
78	0x3de52d91	0.11190332
79	0x3fcdbef2	1.6073897
80	0xbe2d9f96	-0.16955408
81	0xbd69addb	-0.057050567
82	0x3d7c34a2	0.061573632
83	0x3d28bd75	0.041196305
84	0x3e4b2966	0.19840011
85	0xbc1efdde	-0.009704081
86	0xbdfb19f4	-0.122608095
87	0xbde84802	-0.113418594
88	0xbd850e19	-0.064968295
89	0xbfd4309b	-1.6577333
90	0xbf4115fe	-0.7542418
91	0xbe6b554b	-0.22981755
92	0x3d91300f	0.070892446
93	0x3e5c2f47	0.2150241
94	0x3e45b59d	0.19307561
95	0xbee0a8a9	-0.43878677
96	0x3e3f4ca0	0.18681574
97	0xbd8aad67	-0.06771355
98	0xbe5e6fa6	-0.21722278
99	0xbc198c98	-0.009371899
100	0x3e0aebc9	0.13566507
101	0xbbcd67fd	-0.0062685
102	0xbe5a4dee	-0.2131879
103	0xbe79c3c5	-0.24391086
104	0x3ede8495	0.43460527
105	0x3f370b5e	0.7150172
106	0x3f372b45	0.715504
107	0x3f2b9902	0.67030346
108	0x3ea8f155	0.32996622
109	0x3df945da	0.12171526
110	0x3fdd6db6	1.7299106
111	0xbfa98059	-1.3242294
112	0x3e4e5c98	0.20152509
113	0xbd1516e0	-0.03639877
114	0x3e03845e	0.12843463
115	0xbdd83dfc	-0.105586976
116	0xbe4b8d9b	-0.19878237
117	0xbe269cdd	-0.16270776
118	0xbdd63e18	-0.10461062
119	0xbd85226c	-0.06500706
120	0x40eed93d	7.4640183
121	0x3fad324c	1.3530974
122	0x3ee9214c	0.45533216
123	0x3c13a83b	0.009012277
124	0xbd41a533	-0.047276687
125	0xbbbf5944	-0.0058394987
126	0xbfd5147a	-1.6646874
127	0xbc5979bb	-0.013273652
128	0x3d465a88	0.04842618
129	0x3db8f814	0.09031692
130	0xbd7e2574	-0.062047437
131	0xbd8f7626	-0.07004957
132	0xbdc538d5	-0.096299805
133	0xbe4a2b8d	-0.19743176
134	0x3d92d250	0.0716902
135	0xbe1e064b	-0.15432088
136	0xc08874d4	-4.2642612
137	0xc006cd05	-2.1062634
138	0xbfbaf0a8	-1.4604692
139	0x3c836f75	0.016044358
140	0xbd3853d0	-0.045001805
141	0x3e8b7e41	0.27244762
142	0xc003ac94	-2.0574083
143	0xbd5ff0e4	-0.05467309
144	0x3c919580	0.017771482
145	0x3e27e046	0.16394147
146	0x3dcb1d4c	0.09917697
147	0xbe15fc8e	-0.14647123
148	0xbddc57b8	-0.107589185
149	0x3b7b9600	0.0038388968
150	0xbe142163	-0.14465861
151	0xbd89a7b4	-0.0672144
152	0xbf31b3a9	-0.69414765
153	0x3fb267ff	1.3937987
154	0xbe8803fc	-0.2656554
155	0xbe2643b7	-0.16236769
156	0xbdf6e753	-0.1205584
157	0x3d691745	0.056906957
158	0xbd5ca7aa	-0.053870834
159	0xbcff2326	-0.03114469
160	0xc0b471d1	-5.6388936
161	0xbe4e8a4d	-0.20169945
162	0x3f52c2be	0.82328403
163	0x3f832e61	1.0248529
164	0x3f5ff8d1	0.8748904
165	0x3f1d741f	0.6150531
166	0x3fc5550e	1.5416582
167	0x3dc8cc4f	0.09804594
168	0x41826adf	16.302183
169	0xc00de102	-2.2168584
170	0xbe9f0525	-0.31058612
171	0x3e8a7394	0.27041304
172	0x3e3517fd	0.17684932
173	0x3da325c3	0.07966187
174	0xbe222061	-0.15832664
175	0xbc40ae30	-0.01176028
176	0x3eb51a17	0.35371467
177	0xbffb40de	-1.9629171
178	0xbfccf3fa	-1.6011956
179	0x3eabeedb	0.3358067
180	0x3f08e404	0.53472924
181	0x3f0ea437	0.5571932
182	0x3f91ef09	1.1401073
183	0x3d6b53bd	0.057452906
184	0xbfbce73c	-1.4758067
185	0xbd1fe9e3	-0.03904141
186	0x3e795912	0.24350384
187	0x3e4e613e	0.20154282
188	0x3dcdbb5d	0.10045502
189	0x3e102afc	0.14078897
190	0xc01b52fe	-2.4269404
191	0x3c94fb55	0.01818625

fcs4.bias f4 [24]
0	0xbe8f9f93	-0.28051433
1	0x3d540a15	0.051767427
2	0xbe83b6ee	-0.25725502
3	0x3bb4b33b	0.00551453
4	0xbda581d0	-0.080814004
5	0x3ed95e15	0.4245459
6	0x3f4b57d8	0.79430914
7	0x3f256266	0.6460327
8	0xbe1d796b	-0.15378349
9	0x3ee9a86a	0.45636302
10	0x3cf5b912	0.029995475
11	0x3e68ae44	0.22722727
12	0x3d80422c	0.06262621
13	0xbecfc910	-0.40583086
14	0xbe91ddf0	-0.28489637
15	0x3fe30cf3	1.7738327
16	0xbe265716	-0.16244158
17	0x3feb2e98	1.8373594
18	0x3b0aaf00	0.0021161437
19	0xbdd023c1	-0.101630695
20	0x3d8f6fd0	0.070037484
21	0x3f2b426a	0.66898215
22	0xbcec6ddd	-0.02886098
23	0x401aeaff	2.420593

fc5.weight f4 [48, 25]
0	0xbd6ea6c2	-0.0582645
1	0x3d6e9e91	0.05825669
2	0xbe72c2c9	-0.23707117
3	0x3d5df08d	0.054184485
4	0xbe12973e	-0.14315507
5	0xbd35738b	-0.044299643
6	0xbc0dc2f9	-0.008652442
7	0xbd9ab80c	-0.075546354
8	0x3db70d7c	0.08938119
9	0x3a17fe9e	0.0005798134
10	0xbda96135	-0.08270494
11	0x3ba25c55	0.0049548545
12	0x3de0fcd2	0.10985722
13	0xbcf86a3e	-0.030324098
14	0x3e2f72e0	0.17133665
15	0xbd906595	-0.07050625
16	0xbd8acb28	-0.0677703
17	0x3e136ef7	0.14397798
18	0xbd3edfc3	-0.046600115
19	0x3ccf1d0c	0.025282405
20	0x3cbf1aa3	0.023328131
21	0x3d5fe730	0.054663837
22	0x3d328797	0.04358634
23	0xbc80a3b9	-0.015703069
24	0x3dea3be1	0.11437202
25	0xbe526955	-0.20547993
26	0xbd976a2c	-0.073932976
27	0xbe43e2e6	-0.19129524
28	0x3d1e4b63	0.038646113
29	0xbcea4beb	-0.028600654
30	0x3ce98cfc	0.02850961
31	0xbc121570	-0.008916244
32	0xbdfbb74e	-0.12290822
33	0x3d905b28	0.07048637
34	0x3dbf10f2	0.09329404
35	0xbe49f309	-0.19721617
36	0x3da7b35d	0.08188508
37	0x3ab1456c	0.0013524718
38	0xbc8ac561	-0.01693982
39	0x3d3beaba	0.04587815
40	0x3d4fccf6	0.050732575
41	0x3c88fdce	0.016722586
42	0x3dce567a	0.10075088
43	0xbe9ae726	-0.30254477
44	0x3e706e82	0.23479655
45	0x3cf91005	0.030403147
46	0xbdd53957	-0.10411327
47	0x3d8b6191	0.06805719
48	0xbe8fd114	-0.280892
49	0x3d89e48b	0.06733044
50	0xbd732d43	-0.059369337
51	0x3d89041a	0.066902354
52	0xbe9a3854	-0.301211
53	0xbc319718	-0.010839246
54	0x3dcfa590	0.101390004
55	0xbbbbe243	-0.0057337596
56	0xbd9dd938	-0.07707447
57	0xbe0294f0	-0.12752128
58	0xbe1e296e	-0.15445492
59	0x3d979c65	0.07402877
60	0xbe5c0ef3	-0.21490078
61	0xbd68f955	-0.056878407
62	0x3d86db48	0.06584793
63	0xbcf80d10	-0.030279666
64	0x3e575ef3	0.21032314
65	0xbe3cae6d	-0.18425913
66	0x3df06ec2	0.117398754
67	0x3d3ff915	0.046868403
68	0xbdd2cef1	-0.10293377
69	0xbd3688f0	-0.044564188
70	0xbd148e91	-0.036268774
71	0x3d0b9938	0.034081668
72	0xbda4e0b2	-0.0805067
73	0xbb61e178	-0.0034466665
74	0x3cba4ea1	0.022742571
75	0xbe83e1d4	-0.2575823
76	0xbd637730	-0.055533588
77	0xbe2436ee	-0.16036579
78	0x3bba7cbf	0.0056911404
79	0x3d88e97f	0.06685161
80	0xbe066b99	-0.13126983
81	0xbbd40896	-0.00647075
82	0xbc79716d	-0.015224797
83	0xbe1b7b95	-0.15183862
84	0x3da84196	0.082156345
85	0xbe21a6e9	-0.15786327
86	0xbde0c0b6	-0.10974257
87	0x3e35fd04	0.17772299
88	0xbdcef923	-0.10106113
89	0x3e6e6093	0.23279028
90	0xbc7af4f4	-0.01531719
91	0xba2812c1	-0.0006411486
92	0xbdbbc3e6	-0.09168224
93	0xbe8b0ee9	-0.27159813
94	0x3dfe5b9d	0.124198176
95	0xbe0792ee	-0.13239643
96	0xbcaef95b	-0.021359136
97	0x3d605ebb	0.054777842
98	0x3ae8776c	0.0017735786
99	0x3e553159	0.20819606
100	0x3cf46a7a	0.029835928
101	0x3cc1721e	0.023613986
102	0xbe2ecc1f	-0.17070054
103	0x3d049a23	0.03237356
104	0x3e6bd0be	0.23028848
105	0x3d8159ad	0.063159324
106	0xbd689c4a	-0.056789674
107	0xbe444b21	-0.19169284
108	0x3d37a547	0.044835355
109	0xbb7ddb07	-0.0038735287
110	0xbe2bc7d8	-0.16775453
111	0xbd9762b6	-0.073918745
112	0x3dd7537d	0.10513971
113	0xbd9a2ab6	-0.07527678
114	0x3e92daf7	0.28682682
115	0x3cd0a1ca	0.025467772
116	0x3d4429b9	0.047891352
117	0xbd42bbc5	-0.047542352
118	0xbe38bdce	-0.18041155
119	0x3ded5db8	0.11590141
120	0x3dc0b5a0	0.09409642
121	0xbd180d37	-0.037121978
122	0x3cf102ae	0.029420223
123	0x3bbdfed4	0.0057982
124	0x3e2d7532	0.16939238
125	0xbdc08cb7	-0.09401839
126	0xbcd54287	-0.0260327
127	0xbd1b93f0	-0.03798288
128	0x3cef5c1d	0.029218728
129	0xbbe2a9c7	-0.0069172117
130	0x3d1bc8f7	0.038033452
131	0x3d810ee8	0.06301671
132	0x3c4e1dd8	0.0125803575
133	0xbd3c0330	-0.045901477
134	0xbdefc486	-0.11707406
135	0xbe057b55	-0.13035329
136	0x3d68349f	0.05669081
137	0x3d87ee19	0.066372104
138	0xbd4160c1	-0.047211412
139	0x3e0a9aeb	0.13535659
140	0x3ced5b61	0.028974237
141	0xbcf87794	-0.030330457
142	0x3dd47b07	0.10375028
143	0xbdad349b	-0.08457299
144	0x3d492433	0.049106788
145	0xbdbb02c8	-0.0913139
146	0xbe30e1ed	-0.17273684
147	0xbdc269a6	-0.09492807
148	0xbd3e01c9	-0.04638842
149	0x3d3b3fb6	0.045715056
150	0x3e097e06	0.1342698
151	0xbdc2665d	-0.094921805
152	0xbe864382	-0.2622338
153	0xbcbd3865	-0.02309818
154	0x3ddd49da	0.10805102
155	0xbdfcfa9b	-0.12352487
156	0x3cd7210d	0.026260877
157	0xbd1709a4	-0.03687443
158	0x3c6f5820	0.014608413
159	0x3de7bbc9	0.11315114
160	0xbd2bf49d	-0.04198133
161	0xbd358540	-0.04431653
162	0x3ce04340	0.027375817
163	0x3d30ab60	0.043132186
164	0x3e8d6460	0.27615643
165	0xbd876118	-0.06610316
166	0x3cc61505	0.024179945
167	0x3e0c5c8f	0.13707183
168	0xbd373a40	-0.044733286
169	0x3d873d1e	0.06603454
170	0xbd8f4db8	-0.069972456
171	0xbd160754	-0.036628082
172	0x3ab11794	0.0013511055
173	0x3caf3b5f	0.021390615
174	0x3e19be59	0.15014018
175	0xbe69c915	-0.22830613
176	0x3c115a37	0.008871607
177	0xbe30c77c	-0.17263597
178	0x3c9ef336	0.019403081
179	0xbdee920b	-0.11648949
180	0xbc682f14	-0.014171381
181	0x3c1bca09	0.009508618
182	0xbe8221d4	-0.25416434
183	0xbe15220b	-0.14563768
184	0x3d9dc5d1	0.07703746
185	0xbd819e57	-0.06329029
186	0x3dbdd1f5	0.09268562
187	0x3e1a89ca	0.15091625
188	0xbde64f1c	-0.11245558
189	0x3ea51e6c	0.32249773
190	0xbd3683c9	-0.044559274
191	0x3ac91efb	0.0015344316
192	0x3d2ff7f1	0.042961065
193	0xbe5ed4dc	-0.21760887
194	0x3e189d53	0.14903764
195	0x3da96d02	0.08272745
196	0x3d43ec31	0.04783267
197	0x3d296dc5	0.04136445
198	0x3b872442	0.0041241953
199	0x3e04d017	0.12970005
200	0xbd173557	-0.036916103
201	0xbda48919	-0.08033962
202	0xbe115cf8	-0.14195621
203	0xbc9e1c5c	-0.019300632
204	0x3df7a115	0.12091271
205	0xbdc20640	-0.09473848
206	0xbe281fbd	-0.16418357
207	0xbe757ac8	-0.23972619
208	0xbe36e99f	-0.17862557
209	0xbe540c74	-0.20707875
210	0x3b93d239	0.0045111445
211	0xba3bbd87	-0.00071617257
212	0x3d1d6436	0.038425647
213	0x3e556950	0.20840955
214	0x3dae5017	0.0851137
215	0x3d7741b9	0.060365412
216	0x3c3d45df	0.011552303
217	0xbde60db4	-0.112330824
218	0xbdd734a5	-0.10508088
219	0xbc39e0c0	-0.0113450885
220	0xbf0debc8	-0.554379
221	0xbd897c88	-0.067132056
222	0xbce6c3c7	-0.028169526
223	0xbe5d1c6e	-0.21592876
224	0x3e3c03b9	0.18360795
225	0xbe2da6c3	-0.16958146
226	0x3ca8e974	0.020619132
227	0xbe5e7430	-0.2172401
228	0xbc848170	-0.016175002
229	0xbc98a86f	-0.018635003
230	0xbe29a322	-0.16566136
231	0x3c6dfdb5	0.0145258205
232	0xbde97abf	-0.11400365
233	0xbd9f4c77	-0.077782564
234	0xbd0a60da	-0.03378377
235	0xbe00bfc6	-0.12573156
236	0x3d18f746	0.037345193
237	0x3dce9b50	0.10088217
238	0xbce8ca17	-0.028416676
239	0x3e7d5212	0.24738339
240	0xbcd8813b	-0.02642881
241	0x3c905c1a	0.017622042
242	0x3db8f711	0.09031499
243	0xbe7cef0f	-0.24700569
244	0x3e260337	0.16212164
245	0xbc22d606	-0.0099387225
246	0xbd9d2bb3	-0.076743506
247	0xbd3a2c48	-0.045452386
248	0x3bbdd33a	0.0057930024
249	0x3db6ce6d	0.08926091
250	0x3d144971	0.03620285
251	0x3d0eef07	0.034895923
252	0xbc7d309a	-0.015453482
253	0xba3637d0	-0.0006951066
254	0xbcea2d14	-0.028585948
255	0xbe4391d1	-0.19098593

fc5.bias f4 [48]
0	0xbe314d92	-0.17314747
1	0xbe77c3a5	-0.24195726
2	0xbeb8af13	-0.3607107
3	0xbe0312ba	-0.12800112
4	0xbe50534b	-0.20344274
5	0xbe7633a5	-0.24043138
6	0xbeb80a74	-0.35945475
7	0xbe1398b4	-0.1441372
8	0xbe349673	-0.17635517
9	0xbe0178d6	-0.12643752
10	0xbe28e91b	-0.16495173
11	0xbe9d4eb7	-0.30724117
12	0xbe9d3b15	-0.3070914
13	0xbc370508	-0.011170633
14	0xbe1a011d	-0.15039487
15	0xbe85690e	-0.26056713
16	0xbe8b2e0e	-0.27183574
17	0xbdc2d41f	-0.09513115
18	0xbdb9a968	-0.09065515
19	0xbe860939	-0.2617891
20	0xbe0ec74a	-0.1394321
21	0xbeea88a7	-0.45807382
22	0xbe87a4f8	-0.2649305
23	0xbe6a4697	-0.2287849
24	0xbe672d5d	-0.22575898
25	0xbdc5cbf0	-0.096580386
26	0xbed49624	-0.41520798
27	0xbe213ae8	-0.15745127
28	0xbe66009f	-0.22461174
29	0xbe26d42c	-0.16291875
30	0xbe8679eb	-0.2626489
31	0xbe3d8c72	-0.18510607
32	0xbf039c46	-0.5141033
33	0x3d26d716	0.040732466
34	0xbe642b4d	-0.22282143
35	0xbe7dd56d	-0.24788447
36	0xbd5b0fb2	-0.053481765
37	0xbe14486a	-0.14480749
38	0xbebc6346	-0.3679449
39	0xbdae71eb	-0.08517822
40	0xbe30d1b6	-0.17267498
41	0xbe5a178c	-0.21298045
42	0xbc30ff2c	-0.010803025
43	0xbebfc3a6	-0.37453955
44	0xbe8f158f	-0.27946135
45	0xbe5801da	-0.21094456
46	0xbe899d2d	-0.26877728
47	0xbeaaedba	-0.33384496

fc6.weight f4 [1, 48]
0	0x3bfa79b1	0.0076439013
1	0x3c0124ed	0.007882339
2	0xbc445822	-0.011983903
3	0xbc7bbe8d	-0.015365255
4	0x3d0e4a67	0.034738924
5	0x3cd57b7c	0.026059859
6	0x3c2a2af7	0.01038622
7	0x3c92fa5f	0.017941652
8	0xbcff4330	-0.031159967
9	0xbc50819d	-0.012726215
10	0xbbeb94de	-0.007189377
11	0xbc92138a	-0.017831583
12	0xbcaf1973	-0.02137444
13	0x3d2deabd	0.042460192
14	0xbb99d776	-0.0046948744
15	0x3b9afcca	0.004729842
16	0xbc4a7397	-0.01235666
17	0x3c4d7ba6	0.012541687
18	0xbcaa05c0	-0.020754695
19	0x3c795e8f	0.015220298
20	0xbb961d47	-0.004581127
21	0xbc6dd358	-0.01451572
22	0x3de4d4f8	0.11173433
23	0x3d04225f	0.03225934
24	0x3b3a09d5	0.0028387208
25	0x3cb5cb88	0.022191778
26	0xbd1c5a2b	-0.03817193
27	0x3cc21e75	0.023696164
28	0x3b073fd5	0.0020637412
29	0xbcd4043b	-0.025880923
30	0xbc9ccb8a	-0.019140024
31	0x3d006d7a	0.031354405
32	0xbc302885	-0.010751848
33	0xbd25d367	-0.040484812
34	0x3d8fc0a1	0.07019163
35	0x3c7debcf	0.015498116
36	0x3c6b5a88	0.014364846
37	0x3ca9cd67	0.020727826
38	0x3cad49d3	0.021153366
39	0x3b4c2645	0.003115074
40	0xbb46e9ab	-0.003035168
41	0x3bf86321	0.0075801765
42	0x3c88d7da	0.016704489
43	0x3c1f3ee2	0.009719582
44	0x3c8c884e	0.017154839
45	0x3bbfe02d	0.0058555813
46	0x3c8912e0	0.016732633
47	0xbc24f3a8	-0.010067858

bn1.weight f4 [24]
0	0x3f800000	1.0
1	0x3f1640d3	0.58692664
2	0x3f800000	1.0
3	0x3f66556f	0.8997411
4	0x3de58cd3	0.11208501
5	0x3ddc7ac6	0.10765605
6	0x3f6a2206	0.91458166
7	0x3e386af2	0.18009546
8	0x3f022717	0.50840896
9	0x3e93f4aa	0.288976
10	0x3f7b7abd	0.9823416
11	0xbd222cec	-0.039593622
12	0x3dcc70ef	0.09982478
13	0x3efd7368	0.4950211
14	0x3f800000	1.0
15	0x3f3a3775	0.7274087
16	0xbbd45e6e	-0.0064809835
17	0x3eada08e	0.33911556
18	0x3ec84c07	0.39120504
19	0x3db1388e	0.08653365
20	0x3e111ff3	0.14172344
21	0x3e2e6d23	0.1703382
22	0xba75b4ed	-0.00093729683
23	0x3edde8cf	0.4334168

bn1.bias f4 [24]
0	0xb9a5b94e	-0.00031609315
1	0x3a02689c	0.00049746945
2	0xb9bf38fe	-0.0003647282
3	0xb994491d	-0.00028283233
4	0xb9d19fd7	-0.00039982676
5	0x3a9d051a	0.001197967
6	0x3b079582	0.0020688479
7	0x3c1f9fd4	0.009742696
8	0xbb1ea112	-0.0024204892
9	0x3d02c2ed	0.031924177
10	0xb90f618a	-0.00013673879
11	0x39ab0305	0.0003261791
12	0xb9948e10	-0.00028334605
13	0xb9f18455	-0.00046065697
14	0xb99086be	-0.0002756621
15	0xba36f7f1	-0.0006979695
16	0x394e797a	0.00019690944
17	0x3dbb1643	0.091351055
18	0x3978d328	0.00023729785
19	0xbada7070	-0.0016665589
20	0xbc0c3dc4	-0.008559648
21	0x39a85b30	0.00032111397
22	0x398cda9d	0.0002686576
23	0x3b13560d	0.002248171

bn1.running_mean f4 [24]
0	0x00000000	0.0
1	0x00000004	6e-45
2	0x00000000	0.0
3	0x00000004	6e-45
4	0x00000004	6e-45
5	0x3f0e6d8b	0.556359
6	0x3f9ee5ec	1.2413917
7	0x3f93e7ea	1.155515
8	0x3f6aaf95	0.91674167
9	0x40c26c82	6.0757456
10	0x00000004	6e-45
11	0x00000004	6e-45
12	0x00000004	6e-45
13	0x3ec9c51e	0.394082
14	0x00000000	0.0
15	0x3eb17f27	0.34667322
16	0x3f81fdbe	1.0155561
17	0x3f8df3d6	1.1090038
18	0x00000004	6e-45
19	0x3ad69af8	0.0016373089
20	0x3f8691f2	1.0513289
21	0x3e5955d5	0.21224149
22	0x3eb593f3	0.3546444
23	0x3f06828d	0.52542955

bn1.running_var f4 [24]
0	0x00000004	6e-45
1	0x00000004	6e-45
2	0x00000004	6e-45
3	0x00000004	6e-45
4	0x00000004	6e-45
5	0x3c9403ad	0.018068159
6	0x3f3412e5	0.7034133
7	0x3ef2c572	0.47416264
8	0x3ee09764	0.43865502
9	0x41e341fb	28.407217
10	0x00000004	6e-45
11	0x00000004	6e-45
12	0x00000004	6e-45
13	0x3c7c388d	0.015394342
14	0x00000004	6e-45
15	0x3d923be7	0.07140332
16	0x3c4edada	0.0126254205
17	0x3dc5ee54	0.09664598
18	0x00000004	6e-45
19	0x3894fd2a	7.1043454e-05
20	0x3d2e929f	0.042620298
21	0x3bba8793	0.0056924312
22	0x3c32ef05	0.0109212445
23	0x3e74d65c	0.23909897

bn2.weight f4 [24]
0	0x3f800000	1.0
1	0x3f800000	1.0
2	0x3f800000	1.0
3	0x3f800000	1.0
4	0x3f800000	1.0
5	0x3f800000	1.0
6	0x3f800000	1.0
7	0x3f800000	1.0
8	0x3f800000	1.0
9	0x3f800000	1.0
10	0x3f800000	1.0
11	0x3f800000	1.0
12	0x3f800000	1.0
13	0x3f800000	1.0
14	0x3f800000	1.0
15	0x3f800000	1.0
16	0x3f800000	1.0
17	0x3f800000	1.0
18	0x3f800000	1.0
19	0x3f800000	1.0
20	0x3f800000	1.0
21	0x3f800000	1.0
22	0x3f800000	1.0
23	0x3f800000	1.0

bn2.bias f4 [24]
0	0x00000000	0.0
1	0x00000000	0.0
2	0x00000000	0.0
3	0x00000000	0.0
4	0x00000000	0.0
5	0x00000000	0.0
6	0x00000000	0.0
7	0x00000000	0.0
8	0x00000000	0.0
9	0x00000000	0.0
10	0x00000000	0.0
11	0x00000000	0.0
12	0x00000000	0.0
13	0x00000000	0.0
14	0x00000000	0.0
15	0x00000000	0.0
16	0x00000000	0.0
17	0x00000000	0.0
18	0x00000000	0.0
19	0x00000000	0.0
20	0x00000000	0.0
21	0x00000000	0.0
22	0x00000000	0.0
23	0x00000000	0.0

bn2.running_mean f4 [24]
0	0x00000000	0.0
1	0x00000000	0.0
2	0x00000000	0.0
3	0x00000000	0.0
4	0x00000000	0.0
5	0x00000000	0.0
6	0x00000000	0.0
7	0x00000000	0.0
8	0x00000000	0.0
9	0x00000000	0.0
10	0x00000000	0.0
11	0x00000000	0.0
12	0x00000000	0.0
13	0x00000000	0.0
14	0x00000000	0.0
15	0x00000000	0.0
16	0x00000000	0.0
17	0x00000000	0.0
18	0x00000000	0.0
19	0x00000000	0.0
20	0x00000000	0.0
21	0x00000000	0.0
22	0x00000000	0.0
23	0x00000000	0.0

bn2.running_var f4 [24]
0	0x3f800000	1.0
1	0x3f800000	1.0
2	0x3f800000	1.0
3	0x3f800000	1.0
4	0x3f800000	1.0
5	0x3f800000	1.0
6	0x3f800000	1.0
7	0x3f800000	1.0
8	0x3f800000	1.0
9	0x3f800000	1.0
10	0x3f800000	1.0
11	0x3f800000	1.0
12	0x3f800000	1.0
13	0x3f800000	1.0
14	0x3f800000	1.0
15	0x3f800000	1.0
16	0x3f800000	1.0
17	0x3f800000	1.0
18	0x3f800000	1.0
19	0x3f800000	1.0
20	0x3f800000	1.0
21	0x3f800000	1.0
22	0x3f800000	1.0
23	0x3f800000	1.0
