financial/finance/trained_models/DDPG__percent__ExponentialUtility/critic.pth (torch, 8318 bytes, 5 tensors)

fcs1.weight f4 [24, 8]
000000 98 65 3f be 28 e8 73 bd e1 8f 41 be 48 e7 1a bd
       -0.18691099 -0.059547573 -0.18902542 -0.037818223
000010 40 a5 5a 3b 20 86 57 bc f5 59 cd bd 4a 13 11 3e
       0.0033362657 -0.0131545365 -0.100269236 0.14167514
000020 6c 6f eb 3d 7c fe 4d bd 2a 2c a5 bd 28 69 03 3e
       0.114958614 -0.050291523 -0.08065064 0.12833083
000030 ee da 35 3e c0 63 3f be 40 a5 34 bd b0 2e 9b bc
       0.17759296 -0.18690395 -0.044102907 -0.01894316
000040 b4 5b 97 bd e8 71 32 3e 30 00 f7 bc 50 38 31 3e
       -0.07390538 0.17426264 -0.030151457 0.17306638
000050 00 44 84 3a 50 62 b5 bc da d8 f3 bd c8 00 8b bd
       0.0010091066 -0.022141606 -0.119065955 -0.067872584
000060 f8 b4 86 3d e4 ea b8 3d 80 fc ed bb 8c 2a 47 3e
       0.06577486 0.09029177 -0.0072627664 0.19449824
000070 fa ab 10 be d8 48 a0 3d 16 43 3c 3e bc 61 11 bd
       -0.14128104 0.07826394 0.18384966 -0.035493597
000080 04 f2 25 3e 00 85 5c 3b a1 86 1c be d8 58 e5 bd
       0.16205603 0.003364861 -0.15285732 -0.11198586
000090 74 9a 9b 3d b9 e8 b4 bd e6 73 be 3c 33 44 33 3e
       0.07597819 -0.08833451 0.023248624 0.17506485
0000a0 8c 00 8e 3d d8 7f 9c bc 48 fc 50 3d d0 da f0 bd
       0.06933698 -0.01910393 0.051021844 -0.11760485
0000b0 e1 a1 2f be 62 1f 1d be 4f 64 2f be 20 95 2b 3d
       -0.17151596 -0.15344003 -0.17128108 0.041890264
0000c0 58 db 22 3d 02 a8 b1 bd c3 74 4c be 28 75 e2 3d
       0.039759964 -0.08674623 -0.19966416 0.11057502
0000d0 0d 34 ed bd 70 95 0b bd 1a 43 2f be 1f d8 eb bd
       -0.115821935 -0.03407806 -0.17115441 -0.11515831
0000e0 64 64 ae 3d a3 c0 42 be f6 62 ee bd 02 b6 1c 3e
       0.08515242 -0.19018798 -0.11639969 0.15303805
0000f0 fe 64 d6 bd f1 f8 ad bd 90 57 9a bd 68 bb 8d 3d
       -0.104684815 -0.084947474 -0.075362325 0.069205105
000100 e2 1c 09 be 88 a9 a7 3c fc ad b4 bd 50 ae 43 3f
       -0.13389924 0.020466581 -0.088222474 0.76437855
000110 d6 0f 5e 3e b9 bf 6c 3f d0 24 fb bd f1 70 17 40
       0.21685728 0.92480046 -0.12262881 2.3662684
000120 e8 be d1 bc 0b 0e 82 bf 5c 96 1c bf 83 e7 99 bf
       -0.025603727 -1.0160536 -0.6116693 -1.2023777
000130 4f 29 7b be 02 da ab bd 52 5c a4 3e 71 ad 62 bf
       -0.24527477 -0.08391191 0.32101685 -0.885459
000140 d0 2a 68 bc d6 11 50 3e 00 9f 7c 3a f8 67 26 be
       -0.014170364 0.20319304 0.000963673 -0.16250598
000150 30 e6 73 bc 98 f9 cf 3d ce 75 88 bd 88 ec da bd
       -0.014886424 0.10155028 -0.066630945 -0.10689646
000160 50 30 2c 3e c0 26 dd 3d d4 0b 0e bd 40 dc 2a 3c
       0.16815305 0.107984066 -0.03467925 0.010428488
000170 d8 da b0 bc a8 1c 42 3d e0 b6 ed 3b 73 f9 fc bd
       -0.021588728 0.04739061 0.0072544664 -0.12352266
000180 0c e8 1a 3d 40 f1 ae 3b b0 39 58 3c f8 4f 9f bd
       0.037818953 0.005338818 0.0131973475 -0.07778925
000190 d0 39 56 3d 97 06 29 be 68 ed 79 3d 58 89 e2 3d
       0.052301228 -0.1650642 0.061017424 0.110613525
0001a0 80 07 b8 bc 10 f5 87 bf d5 51 65 3f af 3f 49 3f
       -0.022464514 -1.0621662 0.8957799 0.786128
0001b0 1e 7d 2f be 66 e8 04 3e 7d 8d 1f 3f 49 d3 d7 3f
       -0.17137572 0.12979278 0.6232527 1.6861354
0001c0 b8 ae e7 3d 76 cd 10 3e ac ee a0 3d 90 45 eb 3d
       0.11312622 0.14140877 0.07858023 0.11487877
0001d0 c8 70 0a 3e 50 51 43 bd 50 92 d4 bc 10 0b 15 3e
       0.13519585 -0.047684968 -0.025948673 0.14555001
0001e0 00 28 9a b8 84 ef 0d 3e ae 2d 3e 3f a1 71 01 3f
       -7.350743e-05 0.13860899 0.7428845 0.5056401
0001f0 48 27 c4 3d 05 07 5a 3e d6 3b a7 3e 7d 1d 90 3f
       0.09577805 0.2129174 0.3266284 1.1258999
000200 3d e9 3f be 26 98 7f bf 36 7d 4d bf 0a e7 93 bf
       -0.18741317 -0.99841535 -0.8026918 -1.1554883
000210 26 0e aa bd 82 04 98 be 5e 33 c7 3e f5 c2 70 bf
       -0.0830348 -0.2969094 0.38906378 -0.9404748
000220 47 0e 06 be ca 8f 4a bf fa 56 71 3f e1 2d 31 3f
       -0.13091384 -0.79125655 0.9427334 0.6921063
000230 55 e0 92 3e 5e 10 4c 3e 98 b6 1e 3f 54 d6 b9 3f
       0.28686777 0.19928119 0.61997366 1.4518533
000240 76 fa d1 bd 65 ea 41 bf 47 53 a3 3e aa d1 da bf
       -0.1025285 -0.7574828 0.31899473 -1.7095234
000250 24 82 ae be b7 12 7e be ac 99 12 3f a3 9f 97 bf
       -0.34083664 -0.24811827 0.57265735 -1.1845592
000260 b0 23 ca 3d 60 73 01 be 72 05 48 3e 2e f0 14 3e
       0.09870088 -0.12641668 0.19533327 0.14544746
000270 30 9b 1c 3d 54 fc b9 3d b0 8b 91 3d 1c b0 f6 bd
       0.038233936 0.09081331 0.071067214 -0.12045309
000280 00 4d e9 ba e8 f3 5e 3d cc b7 3c bd 18 71 48 3e
       -0.0017799437 0.054431826 -0.04607372 0.19574392
000290 c0 36 a1 bd 16 ac 3a be 98 05 c7 bd bf fd 41 be
       -0.07871771 -0.18229708 -0.09717864 -0.18944453
0002a0 c0 3e 2c 3e 30 54 49 3f 4d ed 87 bf c1 26 15 bf
       0.16820812 0.78644085 -1.0619293 -0.5826226
0002b0 d3 c0 06 be dd 70 a8 be b3 99 e7 3e 10 c7 bb bf
       -0.13159494 -0.32898608 0.4523445 -1.4670124
0002c0 bc 25 c5 3d 22 6e 27 bf 9b 98 5a bf cb 06 44 bf
       0.09626338 -0.65402424 -0.8538911 -0.76572865
0002d0 13 7f 90 be 6f fb 1b 3c 97 45 00 3f c9 22 63 bf
       -0.2822195 0.009520396 0.50106186 -0.8872495
0002e0 4c 7a 3e 3e 3a 98 4f be 78 9b b7 bc 34 20 26 3d
       0.1860134 -0.20272914 -0.022413 0.040558055
0002f0 1f ae 35 be 40 6f cb 3d d0 52 9f bd 36 33 97 bd
       -0.17742203 0.09933329 -0.07779467 -0.073828146

fcs1.bias f4 [24]
000000 cc 5f 7f be d0 2c 81 3c a2 36 7f be eb 4b 47 be
       -0.24938887 0.015768439 -0.24923185 -0.19462554
000010 79 6d 6d be 28 73 f7 3d 5d be 57 be 51 0d d3 bc
       -0.23186292 0.12082511 -0.21068712 -0.025763186
000020 74 34 80 be bd a5 b4 3e 0e d6 88 be 42 8b 78 be
       -0.2504002 0.35282698 -0.2672581 -0.24271873
000030 d0 38 52 be 66 de 47 3f e6 23 02 be d5 7d 35 3f
       -0.20529485 0.7807373 -0.12709007 0.7089513
000040 70 a0 a7 3e e5 0d 1e 3f 8f dd af 3e 00 23 8f bd
       0.32739592 0.6173995 0.34348723 -0.069890976
000050 d8 b1 35 3d 84 f4 24 3e 43 0f 35 3e 40 c6 38 3d
       0.04435906 0.161089 0.17681603 0.04511094

fc2.weight f4 [48, 25]
000000 32 89 ea bd 20 b2 71 3d c7 16 d7 bd 30 ea fa bc
       -0.11451949 0.059007764 -0.10502391 -0.030629247
000010 59 eb 1f 3d 10 b1 de 3d d0 af 05 3d 3f 1b 94 bd
       0.039042804 0.10873616 0.03263837 -0.07231759
000020 41 cc ee 3f b3 15 a0 bf d8 61 db 3c 10 d7 f8 3d
       1.8656083 -1.2506622 0.026780054 0.12150395
000030 e0 a3 5e 3d 44 bd 73 3f 21 33 ee bd e7 75 4e 3f
       0.054355502 0.9521067 -0.11630846 0.80648655
000040 0c bd b2 bf 1d 69 49 3f 45 c6 22 bf 78 bd dd bc
       -1.3963943 0.78676015 -0.63583785 -0.027067885
000050 60 e3 e9 3c ef 90 99 c0 78 48 d3 bf dc ac 36 3d
       0.028550804 -4.798942 -1.6506491 0.044598445
000060 1e 92 83 c0 38 a8 b9 3c 7c 85 f3 3d 04 52 c7 3d
       -4.1115866 0.02266322 0.118906945 0.0973244
000070 c4 24 fd 3d 6a 04 a0 3d 60 a7 43 bc b0 5c 1a 3d
       0.12360528 0.07813342 -0.011941761 0.03768605
000080 d8 09 77 bd 34 ea fa 3d 90 02 94 3d a6 5b d8 bd
       -0.060312122 0.12251702 0.07227051 -0.105643556
000090 68 98 ff 3d 40 5e 0c bb 60 3e d2 bb f6 cd 21 bd
       0.12480241 -0.0021418482 -0.006416127 -0.03950306
0000a0 f2 fb 1b bd 80 b8 ec 3b 7b 4f 90 bd 73 7c 09 be
       -0.03808207 0.0072241426 -0.0704641 -0.1342638
0000b0 5d 44 98 bd 08 4c eb bc 24 39 df 3d 50 76 d9 3d
       -0.07434914 -0.028722778 0.108995706 0.106182694
0000c0 86 1c b1 bd 20 9b b5 bb c8 a1 2a bd 73 23 9e bd
       -0.086480185 -0.005542174 -0.041658193 -0.07721605
0000d0 a0 ec cf bc 64 22 4d bd 46 3a a5 3d d7 99 92 bd
       -0.025381386 -0.050081626 0.080677554 -0.07158249
0000e0 e8 ea b5 3c 2e d0 a6 bd bb 2e 38 bd a1 5f e7 3d
       0.022206739 -0.08145176 -0.04496644 0.11297537
0000f0 53 1f 91 bd d0 32 0e bc 66 28 0d 3e b0 1b 48 3d
       -0.07086053 -0.008679107 0.13784942 0.04885453
000100 36 76 96 bd 31 43 b2 bd 20 a6 51 bd 4a a4 3a bd
       -0.07346766 -0.08704222 -0.05118382 -0.045566835
000110 3c 8f 7f 3d a0 70 03 bd 30 4f f9 3d 42 01 a3 bd
       0.06239246 -0.03208983 0.12173307 -0.07959224
000120 ca 29 3a bd 28 3f 57 3d 36 33 e9 3d d4 62 0d 3e
       -0.04545001 0.052550465 0.11386721 0.13807231
000130 30 41 bd 3c 20 5c c7 3b d7 70 84 bd a5 a3 78 3d
       0.023102373 0.00608398 -0.06466835 0.06070294
000140 a1 58 ab bd 6a 65 1b bd d7 a1 09 be e8 7f e7 3f
       -0.08366514 -0.037938513 -0.13440643 1.8085909
000150 75 6a c8 be e0 a8 20 3c c4 a5 eb 3d 80 38 eb 3d
       -0.3914372 0.009805888 0.11506227 0.11485386
000160 56 dd 8b 3f f8 98 6c 3d e5 09 60 3f fd 1e d2 be
       1.0926921 0.05776307 0.875151 -0.41039267
000170 6c 82 8c 3f 07 06 e0 ba c0 87 88 bb e0 9d b0 3c
       1.0977302 -0.001709164 -0.0041665733 0.021559656
000180 ae 60 25 c0 12 79 36 bf ec 3d 09 3d ec 8b 40 c0
       -2.5840259 -0.7127849 0.03350632 -3.0085402
000190 58 6d 8f 3d 90 1f b0 bd 32 1e 41 bd da 30 8c bd
       0.070032775 -0.0859977 -0.047147937 -0.06845255
0001a0 f7 3d b6 3d 5c 2b d0 bd 6a f0 96 3d fa 63 5d 3d
       0.088985376 -0.1016452 0.07370074 0.054050423
0001b0 0d 6e 06 40 4b ce d5 bf d6 25 a1 3d a8 ac e9 3d
       2.100467 -1.6703581 0.07868545 0.11409885
0001c0 40 e8 e8 3c eb 00 3a 3f 6e 24 e7 bd fb d1 02 3f
       0.028431058 0.7265765 -0.11286245 0.51101655
0001d0 ae 6a d7 bf eb f2 2d 3f 91 20 5d bf 79 85 12 be
       -1.6829431 0.6794879 -0.8637782 -0.14308728
0001e0 d8 bf 19 bd c2 8f 45 c0 ef b2 c5 bf 1f 78 05 be
       -0.037536472 -3.0868993 -1.5445231 -0.13034104
0001f0 ef c9 38 c0 c2 3e 0c be cf 57 0d be b6 1e b9 bd
       -2.887325 -0.13695815 -0.13803028 -0.09039061
000200 50 2d 9c bc d4 1e 25 3d 44 cf e0 bd a0 be e3 3d
       -0.019064575 0.040312603 -0.10977033 0.11120343
000210 5c a8 05 3e c1 f4 66 c0 5b 13 a5 3f fd d2 85 bd
       0.13052505 -3.6086886 1.2896532 -0.065343834
000220 d4 e0 69 bd a8 95 98 bc 08 04 01 bf 76 35 ce bd
       -0.05709918 -0.01862605 -0.50396776 -0.100687906
000230 dd f8 ea be a2 1f 9d 3f 04 e9 ec be 3a 17 78 3f
       -0.45892993 1.2275279 -0.46271527 0.9691044
000240 e8 0a 71 bd 68 c7 50 3d d9 74 29 40 a6 3a ab 3f
       -0.05884829 0.05097142 2.6477568 1.3377273
000250 f0 ff 02 bc f5 54 34 40 5c 3a a4 3d 74 0b f6 3d
       -0.007995591 2.8176854 0.08018944 0.12013903
000260 c4 e8 97 3d 40 b1 b1 3b 28 be fe 3d cc a1 ad bd
       0.074174434 0.005422741 0.12438613 -0.08478126
000270 8c 67 0b 3e 0c 6e 10 3e c7 3f b3 3d 1e 15 8a bd
       0.13613719 0.1410448 0.08752399 -0.06742309
000280 bb a0 9c bd 60 9e 15 3c b8 19 38 3d ca 0b ac 3c
       -0.076478444 0.009131998 0.044946402 0.021001715
000290 08 72 70 3d 49 08 99 3d fa 1e 14 bd 4c d4 c9 bd
       0.0587025 0.074722834 -0.036162354 -0.098549455
0002a0 30 2c 46 3d fc bf 24 3d 00 6f ac bd b0 bc 64 3c
       0.048381984 0.040222153 -0.08419609 0.013961002
0002b0 d0 6f e0 bd 1a 71 2d bd 12 8f e2 bd 7c 8f 01 3e
       -0.109588265 -0.04234419 -0.11062445 0.12652391
0002c0 13 0c 05 be 17 88 ae bd a5 a4 10 be 00 1b 15 3d
       -0.12992887 -0.08522051 -0.14125307 0.036402702
0002d0 ca 85 e3 bd 88 47 3f 3d 50 54 cd bd 9c 5b bd bd
       -0.111095026 0.046699077 -0.10025847 -0.09245989
0002e0 3b 04 97 bd 90 71 b1 3c e6 cf 07 3e 98 72 0a 3e
       -0.07373854 0.021660596 0.132629 0.13520277
0002f0 80 a9 32 bc 72 c5 10 be e8 51 43 bd bc 50 61 bd
       -0.01090467 -0.1413782 -0.047685534 -0.055008635
000300 88 7e fb bc b0 e4 61 3d 08 c2 94 3d 24 10 83 3d
       -0.030699983 0.055149734 0.07263571 0.06399563
000310 94 e3 28 3d 44 56 6f bd 00 b1 c8 ba 98 7b 96 3c
       0.04123266 -0.05843188 -0.0015311539 0.018369481
000320 c8 fd 96 bd 70 8c 53 bc 70 99 93 bc 18 a5 0b be
       -0.07372624 -0.012911901 -0.0180175 -0.13637197
000330 6c 65 c8 3d 00 17 6f bc 85 89 ff bd a0 df e9 3d
       0.0978497 -0.014592886 -0.12477402 0.11419606
000340 75 0e 9f bd 2c 50 51 3d a8 93 12 3e a0 f2 da 3b
       -0.07766429 0.05110185 0.14314139 0.006681755
000350 a0 17 2a 3d 44 e7 6a 3d 14 6a df 3d 4a 65 35 bd
       0.041526437 0.05734946 0.10908905 -0.04428605
000360 74 57 a6 bd 60 10 39 bc 48 2d e7 3d 10 55 4b 3c
       -0.08122149 -0.011295408 0.112879336 0.012410417
000370 78 63 cd 3d 00 a8 8c ba e4 64 35 3d 00 76 a4 3b
       0.10028738 -0.001073122 0.04428567 0.0050189495
000380 20 64 80 3b a5 a6 0c be 99 36 01 be a0 96 44 3c
       0.003918186 -0.13735445 -0.12618484 0.011998802
000390 d6 4d 92 3d 5f f5 95 3d 40 37 cd 3b d8 34 79 3d
       0.07143752 0.073221914 0.00626269 0.06084141
0003a0 f0 75 2f 3d 45 9c 37 bf 84 f8 2f bf e3 31 e5 bd
       0.042837083 -0.71722823 -0.6873858 -0.11191156
0003b0 80 a1 22 3b 34 ea ba bd bf 12 19 3f dc e7 b0 bc
       0.00248155 -0.09126702 0.5979423 -0.021594934
0003c0 a2 a0 30 3f 81 a4 04 bf 7e 4b 4a 3f 0e 1f 32 3e
       0.68995106 -0.51813513 0.7902144 0.17394659
0003d0 07 95 bc bd 00 66 ee b9 ba 43 9f c0 b0 80 bd bf
       -0.09208112 -0.00045470893 -4.9770174 -1.4804897
0003e0 36 3a 37 bd 14 59 8d c0 74 40 bb bd 90 d1 d9 3d
       -0.04473325 -4.417124 -0.09143153 0.10635674
0003f0 4e 7e 27 bd fa 6b 5d bd 2c f9 97 3d 70 00 08 3e
       -0.040891938 -0.054058053 0.07420573 0.13281417

fc2.bias f4 [48]
000000 9d be 24 3f a0 9f 4c be 0c 5f f3 bd 2d ee 56 3f
       0.6435335 -0.19982767 -0.11883363 0.8395718
000010 c6 4a bf 3e 32 89 39 be d4 38 0f be 2d 4e bf bd
       0.37361735 -0.18118742 -0.13986522 -0.09341083
000020 78 e8 4a be 39 aa 0f 3f ca c6 2e 3f 35 4f 12 3f
       -0.19815242 0.56119114 0.6827208 0.5715211
000030 4d 9d c2 bd 11 46 5d be 5a 3a 25 be 78 71 4c 3f
       -0.09502659 -0.2160876 -0.1613554 0.7986064
000040 06 ea 15 3d 73 e0 a5 bd 5c 6d 17 be f7 80 da bd
       0.036600135 -0.08099451 -0.14787811 -0.10669129
000050 90 d5 8d bc 42 7d 42 be f1 1d 51 be 2c 3f 2b 3f
       -0.017313749 -0.18993095 -0.20421578 0.6689327
000060 1a 8f 09 be cd 97 05 3f 67 c3 fb 3e 07 eb 33 be
       -0.13433495 0.52184755 0.49172518 -0.17570125
000070 58 6b 10 bd 5e 72 02 3f 3a 52 a6 bd d5 38 41 3f
       -0.03525862 0.5095576 -0.08121152 0.75477344
000080 00 cb 7a ba 20 e1 4b be 8e 84 63 3f ca ac 28 3f
       -0.00095669925 -0.19910097 0.8887414 0.65888655
000090 dc 96 64 3f 7f ca 1e be ac 2a 5b 3f b8 e1 3f be
       0.89292693 -0.15506934 0.8561199 -0.18738449
0000a0 33 be 5d bd c8 9c 26 bd 82 8b 9a bd 72 09 b6 3d
       -0.054136466 -0.040676862 -0.0754614 0.0888852
0000b0 30 a3 ba bd 6b 22 92 bd f8 8b 6c bd e1 80 5f be
       -0.09113157 -0.07135471 -0.057750672 -0.21826507

fc3.weight f4 [1, 48]
000000 70 49 74 40 e4 6c 22 3a 95 30 57 3b 05 71 da 3f
       3.8169823 0.00061960355 0.0032835354 1.7065741
000010 17 97 2e 40 63 69 05 41 31 8c b0 bb 90 43 f0 3a
       2.7279718 8.338229 -0.005387806 0.0018330682
000020 9c 64 35 bb 14 d0 2d 41 f5 d1 47 41 18 fd 4c 40
       -0.0027678376 10.8633 12.488759 3.2029476
000030 28 a3 31 3b 8f d0 e5 3c c8 6d 1a ba 75 6e dd 3f
       0.0027105305 0.02805355 -0.00058909925 1.7299334
000040 70 1a 47 c0 d0 36 2f 3b fb ed 22 3d f0 94 d2 b9
       -3.1109886 0.0026735552 0.039777737 -0.00040165288
000050 0e 85 00 bb a7 6c b6 ba 54 1f e1 bc 2f e0 4b 40
       -0.0019610557 -0.0013917879 -0.027480759 3.185558
000060 88 78 0e 41 c1 d6 64 40 44 7a 82 40 c2 6d 14 3b
       8.904427 3.5756075 4.077425 0.0022648429
000070 28 d1 eb b9 1d 44 35 40 0f 77 1c bb bf c5 e8 3f
       -0.00044978526 2.8322823 -0.0023874675 1.8185347
000080 48 75 ba 3a 68 d8 ec 3a 03 99 e2 3f ba 0e 72 40
       0.0014225626 0.0018069865 1.7702945 3.7821488
000090 9b c9 de 3f b4 9c fb c0 ca 34 d6 3f 04 d4 43 ba
       1.7405275 -7.862879 1.673486 -0.00074702525
0000a0 09 a7 9a ba da 66 21 3b 79 6e ef c0 c9 cb 82 c0
       -0.0011799048 0.0024627955 -7.4822354 -4.087376
0000b0 80 74 8c 39 f9 b2 27 bd 90 81 86 b9 83 0f c1 bc
       0.0002678968 -0.040942166 -0.00025655003 -0.023566967
