financial/finance/trained_models/DDPG__percent__CjOeCriterion/critic.pth (torch, 8318 bytes, 5 tensors)

fcs1.weight f4 [24, 8]
00000000: 9865 3fbe 28e8 73bd e18f 41be 48e7 1abd
00000010: 40a5 5a3b 2086 57bc f559 cdbd 4a13 113e
00000020: 6c6f eb3d 7cfe 4dbd 2a2c a5bd 2869 033e
00000030: eeda 353e c063 3fbe 40a5 34bd b02e 9bbc
00000040: b45b 97bd e871 323e 3000 f7bc 5038 313e
00000050: 0044 843a 5062 b5bc dad8 f3bd c800 8bbd
00000060: f8b4 863d e4ea b83d 80fc edbb 8c2a 473e
00000070: faab 10be d848 a03d 1643 3c3e bc61 11bd
00000080: 04f2 253e 0085 5c3b a186 1cbe d858 e5bd
00000090: 749a 9b3d b9e8 b4bd e673 be3c 3344 333e
000000a0: 8c00 8e3d d87f 9cbc 48fc 503d d0da f0bd
000000b0: e1a1 2fbe 621f 1dbe 4f64 2fbe 2095 2b3d
000000c0: 58db 223d 02a8 b1bd c374 4cbe 2875 e23d
000000d0: 0d34 edbd 7095 0bbd 1a43 2fbe 1fd8 ebbd
000000e0: 6464 ae3d a3c0 42be f662 eebd 02b6 1c3e
000000f0: fe64 d6bd f1f8 adbd 9057 9abd 68bb 8d3d
00000100: e21c 09be 88a9 a73c 9da1 b4bd b5cc 433f
00000110: 83fa 593e 8549 6c3f ba21 fbbd 827e 1740
00000120: e8be d1bc 6f1e 82bf f9c8 1cbf 60e2 99bf
00000130: 4942 7abe 24d2 aabd a88c a43e 9cc2 62bf
00000140: d02a 68bc d611 503e 009f 7c3a f867 26be
00000150: 30e6 73bc 98f9 cf3d ce75 88bd 88ec dabd
00000160: 5030 2c3e c026 dd3d d40b 0ebd 40dc 2a3c
00000170: d8da b0bc a81c 423d e0b6 ed3b 73f9 fcbd
00000180: 0ce8 1a3d 40f1 ae3b b039 583c f84f 9fbd
00000190: d039 563d 9706 29be 68ed 793d 5889 e23d
000001a0: 8007 b8bc a602 88bf 8e4f 653f 3845 493f
000001b0: a8e8 2fbe f78e 043e 8785 1f3f ccf1 d73f
000001c0: b8ae e73d 76cd 103e acee a03d 9045 eb3d
000001d0: c870 0a3e 5051 43bd 5092 d4bc 100b 153e
000001e0: 0028 9ab8 e340 0d3e 632d 3e3f 9878 013f
000001f0: e359 c33d adc5 593e e232 a73e c642 903f
00000200: 3de9 3fbe 28b7 7fbf e7c9 4dbf 44e0 93bf
00000210: 9712 a8bd bdc3 97be c15f c73e e6db 70bf
00000220: 470e 06be 9cbb 4abf 8953 713f 1432 313f
00000230: 85c8 923e dec3 4b3e dfaf 1e3f 4bfa b93f
00000240: 76fa d1bd 140a 42bf 43ff a23e 48c9 dabf
00000250: c47d adbe 5b4b 7dbe 79c2 123f da99 97bf
00000260: b023 ca3d 6073 01be 7205 483e 2ef0 143e
00000270: 309b 1c3d 54fc b93d b08b 913d 1cb0 f6bd
00000280: 004d e9ba e8f3 5e3d ccb7 3cbd 1871 483e
00000290: c036 a1bd 16ac 3abe 9805 c7bd bffd 41be
000002a0: c03e 2c3e fc76 493f 86e8 87bf d52c 15bf
000002b0: 069c 06be 7784 a8be 537a e73e bdab bbbf
000002c0: bc25 c53d b478 27bf e99d 5abf 7f0a 44bf
000002d0: be32 90be e054 233c 535b 003f 7b3a 63bf
000002e0: 4c7a 3e3e 3a98 4fbe 789b b7bc 3420 263d
000002f0: 1fae 35be 406f cb3d d052 9fbd 3633 97bd
-0.18691099 -0.059547573 -0.18902542 -0.037818223 0.0033362657 -0.0131545365 -0.100269236 0.14167514
0.114958614 -0.050291523 -0.08065064 0.12833083 0.17759296 -0.18690395 -0.044102907 -0.01894316
-0.07390538 0.17426264 -0.030151457 0.17306638 0.0010091066 -0.022141606 -0.119065955 -0.067872584
0.06577486 0.09029177 -0.0072627664 0.19449824 -0.14128104 0.07826394 0.18384966 -0.035493597
0.16205603 0.003364861 -0.15285732 -0.11198586 0.07597819 -0.08833451 0.023248624 0.17506485
0.06933698 -0.01910393 0.051021844 -0.11760485 -0.17151596 -0.15344003 -0.17128108 0.041890264
0.039759964 -0.08674623 -0.19966416 0.11057502 -0.115821935 -0.03407806 -0.17115441 -0.11515831
0.08515242 -0.19018798 -0.11639969 0.15303805 -0.104684815 -0.084947474 -0.075362325 0.069205105
-0.13389924 0.020466581 -0.08819888 0.76484233 0.21286969 0.9229968 -0.12262292 2.3670964
-0.025603727 -1.0165538 -0.6124416 -1.2022209 -0.24439348 -0.083408624 0.32138562 -0.885782
-0.014170364 0.20319304 0.000963673 -0.16250598 -0.014886424 0.10155028 -0.066630945 -0.10689646
0.16815305 0.107984066 -0.03467925 0.010428488 -0.021588728 0.04739061 0.0072544664 -0.12352266
0.037818953 0.005338818 0.0131973475 -0.07778925 0.052301228 -0.1650642 0.061017424 0.110613525
-0.022464514 -1.0625808 0.89574516 0.78621244 -0.17178595 0.12945162 0.6231312 1.6870666
0.11312622 0.14140877 0.07858023 0.11487877 0.13519585 -0.047684968 -0.025948673 0.14555001
-7.350743e-05 0.13794284 0.74288005 0.50574636 0.09538629 0.21266814 0.32656008 1.1270378
-0.18741317 -0.9988885 -0.80386204 -1.1552815 -0.08206671 -0.29641524 0.38940242 -0.9408554
-0.13091384 -0.7919252 0.9426809 0.6921704 0.2866861 0.19898936 0.6198711 1.4529508
-0.1025285 -0.7579663 0.31835374 -1.7092676 -0.33885014 -0.24735777 0.5732799 -1.1843827
0.09870088 -0.12641668 0.19533327 0.14544746 0.038233936 0.09081331 0.071067214 -0.12045309
-0.0017799437 0.054431826 -0.04607372 0.19574392 -0.07871771 -0.18229708 -0.09717864 -0.18944453
0.16820812 0.7869718 -1.0617836 -0.58271533 -0.13145456 -0.32913563 0.45210513 -1.4661785
0.09626338 -0.65418553 -0.853972 -0.76578516 -0.28163713 0.009968966 0.5013935 -0.8876111
0.1860134 -0.20272914 -0.022413 0.040558055 -0.17742203 0.09933329 -0.07779467 -0.073828146

fcs1.bias f4 [24]
00000000: cc5f 7fbe d02c 813c a236 7fbe eb4b 47be
00000010: 796d 6dbe 2873 f73d 5dbe 57be 510d d3bc
00000020: a433 80be d9d1 b43e 0ed6 88be 428b 78be
00000030: d038 52be 14d6 473f e623 02be 0079 353f
00000040: 60c8 a73e d306 1e3f f828 b03e 0023 8fbd
00000050: d8b1 353d 73b5 243e 165f 353e 40c6 383d
-0.24938887 0.015768439 -0.24923185 -0.19462554 -0.23186292 0.12082511 -0.21068712 -0.025763186
-0.250394 0.3531635 -0.2672581 -0.24271873 -0.20529485 0.7806103 -0.12709007 0.70887756
0.32770061 0.6172916 0.34406257 -0.069890976 0.04435906 0.16084842 0.17712054 0.04511094

fc2.weight f4 [48, 25]
00000000: 3289 eabd 20b2 713d c716 d7bd 30ea fabc
00000010: 59eb 1f3d 10b1 de3d d0af 053d 3f1b 94bd
00000020: d5fd ee3f 2535 a0bf d861 db3c 10d7 f83d
00000030: e0a3 5e3d 85da 733f 2133 eebd ac92 4e3f
00000040: 8edb b2bf d386 493f d4ed 22bf 78bd ddbc
00000050: 60e3 e93c ac72 99c0 6a66 d3bf dcac 363d
00000060: 49a1 83c0 38a8 b93c 7c85 f33d 0452 c73d
00000070: c424 fd3d 6a04 a03d 60a7 43bc b05c 1a3d
00000080: d809 77bd 34ea fa3d 9002 943d a65b d8bd
00000090: 6898 ff3d 405e 0cbb 603e d2bb f6cd 21bd
000000a0: f2fb 1bbd 80b8 ec3b 7b4f 90bd 737c 09be
000000b0: 5d44 98bd 084c ebbc 2439 df3d 5076 d93d
000000c0: 861c b1bd 209b b5bb c8a1 2abd 7323 9ebd
000000d0: a0ec cfbc 6422 4dbd 463a a53d d799 92bd
000000e0: e8ea b53c 2ed0 a6bd bb2e 38bd a15f e73d
000000f0: 531f 91bd d032 0ebc 6628 0d3e b01b 483d
00000100: 3676 96bd 3143 b2bd 20a6 51bd 4aa4 3abd
00000110: 3c8f 7f3d a070 03bd 304f f93d 4201 a3bd
00000120: ca29 3abd 283f 573d 3633 e93d d462 0d3e
00000130: 3041 bd3c 205c c73b d770 84bd a5a3 783d
00000140: a158 abbd 6a65 1bbd d7a1 09be a1b3 e73f
00000150: e9ce c8be e0a8 203c c4a5 eb3d 8038 eb3d
00000160: 6eef 8b3f f898 6c3d 612d 603f ab81 d2be
00000170: 8d94 8c3f f82e 10bb c087 88bb e09d b03c
00000180: b020 25c0 f3a9 36bf ec3d 093d eda9 40c0
00000190: 586d 8f3d 901f b0bd 321e 41bd da30 8cbd
000001a0: f73d b63d 5c2b d0bd 6af0 963d fa63 5d3d
000001b0: 1a88 0640 09ff d5bf d625 a13d a8ac e93d
000001c0: 40e8 e83c f516 3a3f 6e24 e7bd d2e6 023f
000001d0: 629a d7bf 1c09 2e3f e963 5dbf 7985 12be
000001e0: d8bf 19bd a15c 45c0 bde1 c5bf 1f78 05be
000001f0: f1f0 38c0 c23e 0cbe cf57 0dbe b61e b9bd
00000200: 502d 9cbc d41e 253d 44cf e0bd a0be e33d
00000210: 5ca8 053e 1bfa 66c0 4d0f a53f fdd2 85bd
00000220: d4e0 69bd a895 98bc e701 01bf 7635 cebd
00000230: 86f6 eabe 341b 9d3f 13e5 ecbe 1208 783f
00000240: e80a 71bd 68c7 503d 3970 2940 6635 ab3f
00000250: f0ff 02bc a66b 3440 5c3a a43d 740b f63d
00000260: c4e8 973d 40b1 b13b 28be fe3d cca1 adbd
00000270: 8c67 0b3e 0c6e 103e c73f b33d 1e15 8abd
00000280: bba0 9cbd 609e 153c b819 383d ca0b ac3c
00000290: 0872 703d 4908 993d fa1e 14bd 4cd4 c9bd
000002a0: 302c 463d fcbf 243d 006f acbd b0bc 643c
000002b0: d06f e0bd 1a71 2dbd 128f e2bd 7c8f 013e
000002c0: 130c 05be 1788 aebd a5a4 10be 001b 153d
000002d0: ca85 e3bd 8847 3f3d 5054 cdbd 9c5b bdbd
000002e0: 3b04 97bd 9071 b13c e6cf 073e 9872 0a3e
000002f0: 80a9 32bc 72c5 10be e851 43bd bc50 61bd
00000300: 887e fbbc b0e4 613d 08c2 943d 2410 833d
00000310: 94e3 283d 4456 6fbd 00b1 c8ba 987b 963c
00000320: c8fd 96bd 708c 53bc 7099 93bc 18a5 0bbe
00000330: 6c65 c83d 0017 6fbc 8589 ffbd a0df e93d
00000340: 750e 9fbd 2c50 513d a893 123e a0f2 da3b
00000350: a017 2a3d 44e7 6a3d 146a df3d 4a65 35bd
00000360: 7457 a6bd 6010 39bc 482d e73d 1055 4b3c
00000370: 7863 cd3d 00a8 8cba e464 353d 0076 a43b
00000380: 2064 803b a5a6 0cbe 9936 01be a096 443c
00000390: d64d 923d 5ff5 953d 4037 cd3b d834 793d
000003a0: f075 2f3d 453f 37bf 484d 30bf e331 e5bd
000003b0: 80a1 223b 34ea babd e71f 193f dce7 b0bc
000003c0: c2ac 303f d8f7 04bf ed58 4a3f 052c 313e
000003d0: 0795 bcbd 0066 eeb9 0729 9fc0 d5a9 bdbf
000003e0: 363a 37bd c769 8dc0 7440 bbbd 90d1 d93d
000003f0: 4e7e 27bd fa6b 5dbd 2cf9 973d 7000 083e
-0.11451949 0.059007764 -0.10502391 -0.030629247 0.039042804 0.10873616 0.03263837 -0.07231759
1.8671213 -1.2516218 0.026780054 0.12150395 0.054355502 0.9525531 -0.11630846 0.80692554
-1.3973253 0.7872135 -0.63644147 -0.027067885 0.028550804 -4.795248 -1.6515629 0.044598445
-4.113438 0.02266322 0.118906945 0.0973244 0.12360528 0.07813342 -0.011941761 0.03768605
-0.060312122 0.12251702 0.07227051 -0.105643556 0.12480241 -0.0021418482 -0.006416127 -0.03950306
-0.03808207 0.0072241426 -0.0704641 -0.1342638 -0.07434914 -0.028722778 0.108995706 0.106182694
-0.086480185 -0.005542174 -0.041658193 -0.07721605 -0.025381386 -0.050081626 0.080677554 -0.07158249
0.022206739 -0.08145176 -0.04496644 0.11297537 -0.07086053 -0.008679107 0.13784942 0.04885453
-0.07346766 -0.08704222 -0.05118382 -0.045566835 0.06239246 -0.03208983 0.12173307 -0.07959224
-0.04545001 0.052550465 0.11386721 0.13807231 0.023102373 0.00608398 -0.06466835 0.06070294
-0.08366514 -0.037938513 -0.13440643 1.8101693 -0.3922036 0.009805888 0.11506227 0.11485386
1.0932443 0.05776307 0.8756924 -0.41114554 1.0982834 -0.0022000652 -0.0041665733 0.021559656
-2.58012 -0.7135307 0.03350632 -3.0103714 0.070032775 -0.0859977 -0.047147937 -0.06845255
0.088985376 -0.1016452 0.07370074 0.054050423 2.102057 -1.6718456 0.07868545 0.11409885
0.028431058 0.7269128 -0.11286245 0.51133454 -1.6843989 0.6798265 -0.86480576 -0.14308728
-0.037536472 -3.0837786 -1.5459515 -0.13034104 -2.889706 -0.13695815 -0.13803028 -0.09039061
-0.019064575 0.040312603 -0.10977033 0.11120343 0.13052505 -3.6090152 1.2895294 -0.065343834
-0.05709918 -0.01862605 -0.5039353 -0.100687906 -0.45891207 1.2273927 -0.4626852 0.96887314
-0.05884829 0.05097142 2.6474745 1.3375671 -0.007995591 2.8190703 0.08018944 0.12013903
0.074174434 0.005422741 0.12438613 -0.08478126 0.13613719 0.1410448 0.08752399 -0.06742309
-0.076478444 0.009131998 0.044946402 0.021001715 0.0587025 0.074722834 -0.036162354 -0.098549455
0.048381984 0.040222153 -0.08419609 0.013961002 -0.109588265 -0.04234419 -0.11062445 0.12652391
-0.12992887 -0.08522051 -0.14125307 0.036402702 -0.111095026 0.046699077 -0.10025847 -0.09245989
-0.07373854 0.021660596 0.132629 0.13520277 -0.01090467 -0.1413782 -0.047685534 -0.055008635
-0.030699983 0.055149734 0.07263571 0.06399563 0.04123266 -0.05843188 -0.0015311539 0.018369481
-0.07372624 -0.012911901 -0.0180175 -0.13637197 0.0978497 -0.014592886 -0.12477402 0.11419606
-0.07766429 0.05110185 0.14314139 0.006681755 0.041526437 0.05734946 0.10908905 -0.04428605
-0.08122149 -0.011295408 0.112879336 0.012410417 0.10028738 -0.001073122 0.04428567 0.0050189495
0.003918186 -0.13735445 -0.12618484 0.011998802 0.07143752 0.073221914 0.00626269 0.06084141
0.042837083 -0.71580917 -0.6886792 -0.11191156 0.00248155 -0.09126702 0.59814304 -0.021594934
0.6901361 -0.5194068 0.7904194 0.17301948 -0.09208112 -0.00045470893 -4.973758 -1.4817454
-0.04473325 -4.4191623 -0.09143153 0.10635674 -0.040891938 -0.054058053 0.07420573 0.13281417

fc2.bias f4 [48]
00000000: 98be 243f a09f 4cbe 0c5f f3bd 6af5 563f
00000010: 682f bf3e b489 39be d438 0fbe 2d4e bfbd
00000020: 78e8 4abe d398 0f3f 49b4 2e3f 9247 123f
00000030: 4d9d c2bd 1146 5dbe 5a3a 25be e178 4c3f
00000040: df5b 1e3d 73e0 a5bd 566d 17be f780 dabd
00000050: 90d5 8dbc 427d 42be f31d 51be c635 2b3f
00000060: bd3c 09be b899 053f eea2 fb3e 07eb 33be
00000070: 586b 10bd fe82 023f 3a52 a6bd 1340 413f
00000080: 00cb 7aba 20e1 4bbe d48b 633f a8a6 283f
00000090: 2e9e 643f 5b50 1ebe 2f32 5b3f b8e1 3fbe
000000a0: 33be 5dbd c89c 26bd bd39 9abd 3568 b73d
000000b0: 30a3 babd 6b22 92bd f88b 6cbd e180 5fbe
0.64353323 -0.19982767 -0.11883363 0.8396822 0.37340856 -0.18118936 -0.13986522 -0.09341083
-0.19815242 0.56092566 0.68243843 0.5714046 -0.09502659 -0.2160876 -0.1613554 0.79871947
0.038661834 -0.08099451 -0.14787802 -0.10669129 -0.017313749 -0.18993095 -0.20421581 0.66878927
-0.13402076 0.5218768 0.49147743 -0.17570125 -0.03525862 0.5098113 -0.08121152 0.75488394
-0.00095669925 -0.19910097 0.88885236 0.658793 0.89303863 -0.1546034 0.8562345 -0.18738449
-0.054136466 -0.040676862 -0.07530544 0.08955423 -0.09113157 -0.07135471 -0.057750672 -0.21826507

fc3.weight f4 [1, 48]
00000000: 3055 7440 e46c 223a 9530 573b 548b da3f
00000010: 6caa 2e40 ee69 0541 318c b0bb 9043 f03a
00000020: 9c64 35bb 0bce 2d41 5dcf 4741 600a 4d40
00000030: 28a3 313b 8fd0 e53c c86d 1aba d289 dd3f
00000040: 54ff 3ec0 d036 2f3b 03ee 223d f094 d2b9
00000050: 0e85 00bb a76c b6ba 5d1f e1bc 1bec 4b40
00000060: bf74 0e41 4ee3 6440 b084 8240 c26d 143b
00000070: 28d1 ebb9 b854 3540 0f77 1cbb b5e1 e83f
00000080: 4875 ba3a 68d8 ec3a 74b3 e23f fc1a 7240
00000090: 7be5 de3f 67a6 fbc0 3150 d63f 04d4 43ba
000000a0: 09a7 9aba da66 213b ef75 efc0 a2d5 82c0
000000b0: 8074 8c39 f9b2 27bd 9081 86b9 830f c1bc
3.8176994 0.00061960355 0.0032835354 1.707377 2.7291517 8.338362 -0.005387806 0.0018330682
-0.0027678376 10.862803 12.488126 3.2037582 0.0027105305 0.02805355 -0.00058909925 1.7307684
-2.984334 0.0026735552 0.039777767 -0.00040165288 -0.0019610557 -0.0013917879 -0.027480775 3.1862857
8.903502 3.5763736 4.078697 0.0022648429 -0.00044978526 2.8332958 -0.0023874675 1.819388
0.0014225626 0.0018069865 1.7711015 3.782897 1.7413782 -7.864063 1.6743222 -0.00074702525
-0.0011799048 0.0024627955 -7.483146 -4.088578 0.0002678968 -0.040942166 -0.00025655003 -0.023566967
