financial/finance/trained_models/DDPG__time__ExponentialUtility/critic.pth (torch, 8318 bytes, 5 tensors)

fcs1.weight f4 [24, 8]
0	0xbe3f6598	-0.18691099
1	0xbd73e828	-0.059547573
2	0xbe418fe1	-0.18902542
3	0xbd1ae748	-0.037818223
4	0x3b5aa540	0.0033362657
5	0xbc578620	-0.0131545365
6	0xbdcd59f5	-0.100269236
7	0x3e11134a	0.14167514
8	0x3deb6f6c	0.114958614
9	0xbd4dfe7c	-0.050291523
10	0xbda52c2a	-0.08065064
11	0x3e036928	0.12833083
12	0x3e35daee	0.17759296
13	0xbe3f63c0	-0.18690395
14	0xbd34a540	-0.044102907
15	0xbc9b2eb0	-0.01894316
16	0xbd975bb4	-0.07390538
17	0x3e3271e8	0.17426264
18	0xbcf70030	-0.030151457
19	0x3e313850	0.17306638
20	0x3a844400	0.0010091066
21	0xbcb56250	-0.022141606
22	0xbdf3d8da	-0.119065955
23	0xbd8b00c8	-0.067872584
24	0x3d86b4f8	0.06577486
25	0x3db8eae4	0.09029177
26	0xbbedfc80	-0.0072627664
27	0x3e472a8c	0.19449824
28	0xbe10abfa	-0.14128104
29	0x3da048d8	0.07826394
30	0x3e3c4316	0.18384966
31	0xbd1161bc	-0.035493597
32	0x3e25f204	0.16205603
33	0x3b5c8500	0.003364861
34	0xbe1c86a1	-0.15285732
35	0xbde558d8	-0.11198586
36	0x3d9b9a74	0.07597819
37	0xbdb4e8b9	-0.08833451
38	0x3ce22def	0.027609793
39	0x3e37bb74	0.17942601
40	0x3d8e008c	0.06933698
41	0xbc9c7fd8	-0.01910393
42	0x3d50fc48	0.051021844
43	0xbdf0dad0	-0.11760485
44	0xbe2fa1e1	-0.17151596
45	0xbe1d1f62	-0.15344003
46	0xbe2f644f	-0.17128108
47	0x3d2b9520	0.041890264
48	0x3d22db58	0.039759964
49	0xbdb1a802	-0.08674623
50	0xbe4c74c3	-0.19966416
51	0x3de27528	0.11057502
52	0xbded340d	-0.115821935
53	0xbd0b9570	-0.03407806
54	0xbe2f431a	-0.17115441
55	0xbdebd81f	-0.11515831
56	0x3dae6464	0.08515242
57	0xbe42c0a3	-0.19018798
58	0xbdee62f6	-0.11639969
59	0x3e1cb602	0.15303805
60	0xbdd664fe	-0.104684815
61	0xbdadf8f1	-0.084947474
62	0xbd97e849	-0.07417352
63	0x3d902ab2	0.070393935
64	0xbe4eacb9	-0.20183076
65	0x3db2f6ba	0.087384656
66	0x3ad6ee6c	0.001639796
67	0x3b60a572	0.00342783
68	0xbc424b13	-0.011858719
69	0xbd211c70	-0.03933376
70	0x3e358b87	0.17729007
71	0x3e236954	0.15958148
72	0x3d4bb53a	0.049733378
73	0xbe13e4c1	-0.14442731
74	0x3db9f7df	0.09080481
75	0xbdfdbf4d	-0.12390003
76	0x3d04e680	0.032446384
77	0x3e66eaef	0.22550558
78	0x3e11deae	0.14245102
79	0xbd0f542d	-0.034992386
80	0xbc682ad0	-0.014170364
81	0x3e5011d6	0.20319304
82	0x3a7c9f00	0.000963673
83	0xbe2667f8	-0.16250598
84	0xbc73e630	-0.014886424
85	0x3dcff998	0.10155028
86	0xbd8875ce	-0.066630945
87	0xbddaec88	-0.10689646
88	0x3e2c3050	0.16815305
89	0x3ddd26c0	0.107984066
90	0xbd0e0bd4	-0.03467925
91	0x3c2adc40	0.010428488
92	0xbcb0dad8	-0.021588728
93	0x3d421ca8	0.04739061
94	0x3bedb6e0	0.0072544664
95	0xbdfcf973	-0.12352266
96	0x3d1ae80c	0.037818953
97	0x3baef140	0.005338818
98	0x3c5839b0	0.0131973475
99	0xbd9f4ff8	-0.07778925
100	0x3d5639d0	0.052301228
101	0xbe290697	-0.1650642
102	0x3d79ed68	0.061017424
103	0x3de28958	0.110613525
104	0xbd6fa2db	-0.05850492
105	0xbdf3cd0d	-0.11904345
106	0xbcf583d7	-0.029970093
107	0xbcfbb53a	-0.030726064
108	0xbe2a6801	-0.16641237
109	0xbd946e5c	-0.07247612
110	0x3e8b8985	0.27253357
111	0x3e4d3596	0.20039973
112	0x3de7aeb8	0.11312622
113	0x3e10cd76	0.14140877
114	0x3da0eeac	0.07858023
115	0x3deb4590	0.11487877
116	0x3e0a70c8	0.13519585
117	0xbd435150	-0.047684968
118	0xbcd49250	-0.025948673
119	0x3e150b10	0.14555001
120	0xbe5655c2	-0.20931152
121	0xbdb8e5e9	-0.09028227
122	0xbdff2c1f	-0.12459587
123	0x3eacedd1	0.3377519
124	0xbbc9cddc	-0.0061585736
125	0x3d21b76d	0.03948157
126	0xbdc44652	-0.09583725
127	0x3dfe0c72	0.124047175
128	0xbd7c2e2b	-0.061567467
129	0xbdfdc98c	-0.12391958
130	0xbe02016d	-0.12695856
131	0xbd02f472	-0.031971402
132	0x3e6b987a	0.23007384
133	0xbd3d52c9	-0.04622153
134	0x3e1ab725	0.15108927
135	0xbe127492	-0.1430228
136	0xbd4e841e	-0.050418966
137	0x3ddf9d0e	0.10918628
138	0x3daedbfa	0.08538051
139	0xbe4bdc99	-0.1990837
140	0x3ccca9b0	0.024983257
141	0x3e0b8085	0.13623245
142	0x3e738524	0.23781258
143	0xbd230d89	-0.03980783
144	0xbdc71d09	-0.09722335
145	0x3e001c31	0.12510754
146	0x3dd19d63	0.10235097
147	0xbe43849f	-0.1909356
148	0xbd36ae95	-0.04460009
149	0x3dfbbb42	0.12291576
150	0x3e5397e9	0.20663418
151	0xbe13e114	-0.14441329
152	0x3dca23b0	0.09870088
153	0xbe016be2	-0.1263881
154	0x3e47fc7a	0.19529906
155	0x3e14f075	0.14544852
156	0x3d1c9961	0.03823221
157	0x3db9f874	0.09080592
158	0x3d8f0ad4	0.06984487
159	0xbdf6b01f	-0.12045311
160	0xbae94d00	-0.0017799437
161	0x3d5ef3e8	0.054431826
162	0xbd3cb7cc	-0.04607372
163	0x3e487118	0.19574392
164	0xbda136c0	-0.07871771
165	0xbe3aac16	-0.18229708
166	0xbdc70598	-0.09717864
167	0xbe41fdbf	-0.18944453
168	0x3e63c2b6	0.22242245
169	0xbdad7a3f	-0.08470582
170	0xbe026120	-0.12732363
171	0xbd998fc7	-0.074981265
172	0x3cecf517	0.028925462
173	0xbcb356f7	-0.021892054
174	0x3e3dffbf	0.1855459
175	0xbcf8ab07	-0.03035499
176	0x3e23c398	0.15992582
177	0x3e487b61	0.19578315
178	0xbb131859	-0.0022444932
179	0x3d55ef9b	0.05223046
180	0xbc138fcf	-0.009006455
181	0x3e6a7b19	0.2289852
182	0x3e8cdc71	0.27511933
183	0x3d049123	0.032364976
184	0x3e3e7a4c	0.1860134
185	0xbe4f983a	-0.20272914
186	0xbcb79b78	-0.022413
187	0x3d262034	0.040558055
188	0xbe35ae1f	-0.17742203
189	0x3dcb6f40	0.09933329
190	0xbd9f52d0	-0.07779467
191	0xbd973336	-0.073828146

fcs1.bias f4 [24]
0	0xbe7f5fcc	-0.24938887
1	0x3c812cd0	0.015768439
2	0xbe7f36a2	-0.24923185
3	0xbe474beb	-0.19462554
4	0xbe68f637	-0.22750174
5	0x3df77328	0.12082511
6	0xbe57be5d	-0.21068712
7	0xbcc95037	-0.024574382
8	0xbd28317a	-0.04106281
9	0x3e383bd4	0.17991573
10	0xbe88d60e	-0.2672581
11	0xbe788b42	-0.24271873
12	0xbe5238d0	-0.20529485
13	0x3e5224a4	0.2052179
14	0xbe0223e6	-0.12709007
15	0x3e954d3b	0.29160485
16	0x3dc30331	0.09522093
17	0x3c42ff69	0.011901715
18	0xbd34dbc1	-0.044154886
19	0xbd91d8ab	-0.07121404
20	0x3d35b1d8	0.04435906
21	0xbe1154ec	-0.14192551
22	0xbd67bbe9	-0.05657569
23	0x3d38c640	0.04511094

fc2.weight f4 [48, 25]
0	0xbdea8932	-0.11451949
1	0x3d71b220	0.059007764
2	0xbdd716c7	-0.10502391
3	0xbcfaea30	-0.030629247
4	0x3d3b2ff1	0.045700017
5	0x3ddeb110	0.10873616
6	0x3d05afd0	0.03263837
7	0xbd8a9dca	-0.06768377
8	0xbc73f2be	-0.014889417
9	0x3da17379	0.07883353
10	0x3cdb61d8	0.026780054
11	0x3df8d710	0.12150395
12	0x3d5ea3e0	0.054355502
13	0x3e00934f	0.12556194
14	0xbdee3321	-0.11630846
15	0x3dab85c1	0.08375121
16	0xbd83c6ae	-0.064343795
17	0xb9573fc5	-0.00020527754
18	0x3d854d24	0.06508854
19	0xbcddbeb9	-0.027068483
20	0x3ce9e360	0.028550804
21	0x3eca1dc1	0.39475825
22	0xbcca4f9e	-0.024696168
23	0x3d36acdc	0.044598445
24	0xbe510cd6	-0.20415053
25	0x3cb9a838	0.02266322
26	0x3df3857c	0.118906945
27	0x3dc75204	0.0973244
28	0x3dfd24c4	0.12360528
29	0x3da0046a	0.07813342
30	0xbc43a760	-0.011941761
31	0x3d1a5cb0	0.03768605
32	0xbd7709d8	-0.060312122
33	0x3dfaea34	0.12251702
34	0x3d940290	0.07227051
35	0xbdd85ba6	-0.105643556
36	0x3dff9868	0.12480241
37	0xbb0c5e40	-0.0021418482
38	0xbbd23e60	-0.006416127
39	0xbd21cdf6	-0.03950306
40	0xbd1bfbf2	-0.03808207
41	0x3becb880	0.0072241426
42	0xbd904f7b	-0.0704641
43	0xbe097c73	-0.1342638
44	0xbd98445d	-0.07434914
45	0xbceb4c08	-0.028722778
46	0x3ddf3924	0.108995706
47	0x3dd97650	0.106182694
48	0xbdb11c86	-0.086480185
49	0xbbb59b20	-0.005542174
50	0xbd2aa1c8	-0.041658193
51	0xbd9e2373	-0.07721605
52	0xbccfeca0	-0.025381386
53	0xbd4d2264	-0.050081626
54	0x3da53a46	0.080677554
55	0xbd9299d7	-0.07158249
56	0x3cb5eae8	0.022206739
57	0xbda6d02e	-0.08145176
58	0xbd5665cc	-0.052343175
59	0x3dd8bd49	0.10582978
60	0xbd911f53	-0.07086053
61	0xbc0e32d0	-0.008679107
62	0x3e0d2866	0.13784942
63	0x3d2b3ad2	0.041804142
64	0xbd967636	-0.07346766
65	0xbdc1a68c	-0.094555944
66	0xbd6ee36a	-0.058322348
67	0xbd583710	-0.052786887
68	0x3d63f8ad	0.055657078
69	0xbd0370a0	-0.03208983
70	0x3df94f30	0.12173307
71	0xbdaadc2c	-0.08342776
72	0xbd57707e	-0.052597515
73	0x3d573f28	0.052550465
74	0x3ddcec37	0.10787242
75	0x3e0d62d4	0.13807231
76	0x3cbd4130	0.023102373
77	0x3bc75c20	0.00608398
78	0xbd8470d7	-0.06466835
79	0x3db2b962	0.08726765
80	0xbdab58a1	-0.08366514
81	0xbd1b656a	-0.037938513
82	0xbdf67e43	-0.12035801
83	0xbb570b60	-0.0032813177
84	0x3dc09972	0.09404267
85	0x3c20a8e0	0.009805888
86	0x3deba5c4	0.11506227
87	0x3deb3880	0.11485386
88	0x3dffaa11	0.124836095
89	0x3d6c98f8	0.05776307
90	0xbd2e04fb	-0.04248522
91	0x3d8ff32b	0.070288025
92	0x3e098fdb	0.13433783
93	0x3dd9ed6c	0.10640988
94	0xbb8887c0	-0.0041665733
95	0x3cb09de0	0.021559656
96	0x3ea3ec01	0.32015994
97	0x3c52a777	0.01285731
98	0x3d093dec	0.03350632
99	0xbe20c2a8	-0.15699255
100	0x3d8f6d58	0.070032775
101	0xbdb01f90	-0.0859977
102	0xbd411e32	-0.047147937
103	0xbd8c30da	-0.06845255
104	0x3dc38ea9	0.09548695
105	0xbdd02b5c	-0.1016452
106	0x3d96f06a	0.07370074
107	0x3d707497	0.05870494
108	0x3e0f102e	0.13971016
109	0x3c8dbf4a	0.017303128
110	0x3da125d6	0.07868545
111	0x3de9aca8	0.11409885
112	0x3ce8e840	0.028431058
113	0x3d36ce19	0.044630144
114	0xbde7246e	-0.11286245
115	0xbdb823e1	-0.08991218
116	0xbc34158d	-0.010991466
117	0x3d27cedc	0.04096876
118	0xbc8eb69e	-0.017421063
119	0xbe1285af	-0.14308809
120	0xbd19bfd8	-0.037536472
121	0x3eb16967	0.34650728
122	0x3e35c17a	0.17749587
123	0xbe05781f	-0.13034104
124	0xbca42784	-0.020038374
125	0xbe0c3ec2	-0.13695815
126	0xbe0d57cf	-0.13803028
127	0xbdb91eb6	-0.09039061
128	0xbc9c2d50	-0.019064575
129	0x3d251ed4	0.040312603
130	0xbde0cf44	-0.10977033
131	0x3de3bea0	0.11120343
132	0x3e05a85c	0.13052505
133	0xbbff37af	-0.0077886204
134	0x3dcf537b	0.101233445
135	0xbd85d2fd	-0.065343834
136	0xbd69e0d4	-0.05709918
137	0xbc9895a8	-0.01862605
138	0xbc03b666	-0.008039093
139	0xbdce3576	-0.100687906
140	0xbe4a98cc	-0.1978485
141	0x3db0656c	0.08613095
142	0x3da7a8fe	0.081865296
143	0x3e7f03b2	0.24903753
144	0xbd710ae8	-0.05884829
145	0x3d50c768	0.05097142
146	0x3e52cbbd	0.20585532
147	0x3df27ec3	0.11840584
148	0xbc02fff0	-0.007995591
149	0x3e334d5c	0.17509979
150	0x3da43a5c	0.08018944
151	0x3df60b74	0.12013903
152	0x3d97e8c4	0.074174434
153	0x3bb1b140	0.005422741
154	0x3dfebe28	0.12438613
155	0xbdada1cc	-0.08478126
156	0x3e0b678c	0.13613719
157	0x3e106e0c	0.1410448
158	0x3e0d30b0	0.13788104
159	0xbd8a151e	-0.06742309
160	0xbd9ca0bb	-0.076478444
161	0x3c159e60	0.009131998
162	0x3d3819b8	0.044946402
163	0x3d94485c	0.07240364
164	0x3d707208	0.0587025
165	0x3dfbb400	0.12290192
166	0xbd141efa	-0.036162354
167	0xbd41f590	-0.047353327
168	0x3d462c30	0.048381984
169	0x3d24bffc	0.040222153
170	0xbdac6f00	-0.08419609
171	0x3c64bcb0	0.013961002
172	0xbde06fd0	-0.109588265
173	0xbd2d711a	-0.04234419
174	0xbd680860	-0.056648612
175	0x3e018f7c	0.12652391
176	0xbe050c13	-0.12992887
177	0xbdae8817	-0.08522051
178	0xbe10a4a5	-0.14125307
179	0x3d151b00	0.036402702
180	0xbde385ca	-0.111095026
181	0x3d3f4788	0.046699077
182	0xbdcd5450	-0.10025847
183	0xbdbd5b9c	-0.09245989
184	0xbd97043b	-0.07373854
185	0x3cb17190	0.021660596
186	0x3e07cfe6	0.132629
187	0x3e0a7298	0.13520277
188	0xbc32a980	-0.01090467
189	0xbe10c572	-0.1413782
190	0xbd4351e8	-0.047685534
191	0xbd6150bc	-0.055008635
192	0xbcfb7e88	-0.030699983
193	0x3d61e4b0	0.055149734
194	0x3d94c208	0.07263571
195	0x3d831024	0.06399563
196	0x3d28e394	0.04123266
197	0xbd6f5644	-0.05843188
198	0xbac8b100	-0.0015311539
199	0x3c967b98	0.018369481
200	0xbd96fdc8	-0.07372624
201	0xbc538c70	-0.012911901
202	0xbc939970	-0.0180175
203	0xbe0ba518	-0.13637197
204	0x3dc8656c	0.0978497
205	0xbc6f1700	-0.014592886
206	0xbdff8985	-0.12477402
207	0x3de9dfa0	0.11419606
208	0xbd9f0e75	-0.07766429
209	0x3d51502c	0.05110185
210	0x3e1293a8	0.14314139
211	0x3bdaf2a0	0.006681755
212	0x3d2a17a0	0.041526437
213	0x3d6ae744	0.05734946
214	0x3ddf6a14	0.10908905
215	0xbd35654a	-0.04428605
216	0xbda65774	-0.08122149
217	0xbc391060	-0.011295408
218	0x3de72d48	0.112879336
219	0x3c4b5510	0.012410417
220	0x3dcd6378	0.10028738
221	0xba8ca800	-0.001073122
222	0x3d3564e4	0.04428567
223	0x3ba47600	0.0050189495
224	0x3b806420	0.003918186
225	0xbe0ca6a5	-0.13735445
226	0xbe013699	-0.12618484
227	0x3c4496a0	0.011998802
228	0x3d924dd6	0.07143752
229	0x3dc138a0	0.094346285
230	0x3bcd3740	0.00626269
231	0x3d7934d8	0.06084141
232	0x3d6d67ed	0.05796044
233	0xbe03a422	-0.1285558
234	0xbe06a42e	-0.13148567
235	0xbde531e3	-0.11191156
236	0x3b22a180	0.00248155
237	0xbdbaea34	-0.09126702
238	0xbd4e9478	-0.05043456
239	0xbcb0e7dc	-0.021594934
240	0x3d555193	0.05207975
241	0x3ceca07a	0.028885115
242	0x3e04bf42	0.12963584
243	0x3e00d972	0.12582949
244	0xbdbc9507	-0.09208112
245	0xb9ee6600	-0.00045470893
246	0x3cc086a8	0.02350171
247	0x3df979c6	0.121814296
248	0xbd373a36	-0.04473325
249	0xbd7d2e59	-0.06181178
250	0xbdbb4074	-0.09143153
251	0x3dd9d190	0.10635674
252	0xbd277e4e	-0.040891938
253	0xbd5d6bfa	-0.054058053
254	0x3da98282	0.082768455
255	0x3e080070	0.13281417

fc2.bias f4 [48]
0	0x3db2bc66	0.087273404
1	0xbe4c9fa0	-0.19982767
2	0xbdffcd64	-0.12490347
3	0x3c6fa401	0.014626504
4	0xbd51d14b	-0.051224988
5	0xbe4e0d38	-0.2012223
6	0xbdb54b30	-0.088522315
7	0xbdbf4e2d	-0.09341083
8	0xbe4ae878	-0.19815242
9	0x3c6e9193	0.014561075
10	0x3dcc9ca5	0.09990815
11	0x3dd44d6b	0.10366329
12	0xbdc29d4d	-0.09502659
13	0xbe3c0f8b	-0.18365304
14	0xbe253a5a	-0.1613554
15	0x3d47b93f	0.04876065
16	0x3dc0684d	0.09394894
17	0xbda5e073	-0.08099451
18	0xbddee1bd	-0.108829
19	0xbdda80f7	-0.10669129
20	0xbc8dd590	-0.017313749
21	0xbe427d42	-0.18993095
22	0xbe34b982	-0.1764889
23	0x3e774f7c	0.24151415
24	0xbdd7c1a1	-0.10534979
25	0xbd9e75a2	-0.077372804
26	0xbd8cc448	-0.06873375
27	0xbe33eb07	-0.17570125
28	0xbd106b58	-0.03525862
29	0x3d01e447	0.031711843
30	0xbda6523a	-0.08121152
31	0xbd23ad4b	-0.039960187
32	0xba7acb00	-0.00095669925
33	0xbe4be120	-0.19910097
34	0x3e25370c	0.1613428
35	0x3e3fb22a	0.18720308
36	0x3e2c2f82	0.16814998
37	0xbe00086a	-0.1250321
38	0x3e0dea53	0.13858919
39	0xbe3fe1b8	-0.18738449
40	0xbd4aa8c0	-0.04947734
41	0xbd269cc8	-0.040676862
42	0xbda2e157	-0.079531364
43	0x3df0f21b	0.11764928
44	0xbdbaa330	-0.09113157
45	0xbcbde598	-0.023180768
46	0xbd6c8bf8	-0.057750672
47	0xbe4052ff	-0.1878166

fc3.weight f4 [1, 48]
0	0x3d9b5371	0.075842746
1	0x3a226ce4	0.00061960355
2	0x3b7adabc	0.0038277349
3	0xbe2a0d51	-0.16606642
4	0xbda0fa16	-0.078602
5	0xbefa103c	-0.4884051
6	0xbb1baa85	-0.002375276
7	0x3af04390	0.0018330682
8	0xbb35649c	-0.0027678376
9	0xbc134a9e	-0.008989958
10	0xbe21a951	-0.15787245
11	0x3d5a8ecd	0.05335884
12	0x3b31a328	0.0027105305
13	0xbb1227be	-0.002230152
14	0xba1a6dc8	-0.00058909925
15	0x3ec43704	0.38323224
16	0xbd212bbb	-0.039348345
17	0x3b2f36d0	0.0026735552
18	0xbaad77e2	-0.001323458
19	0xb9d294f0	-0.00040165288
20	0xbb00850e	-0.0019610557
21	0xbab66ca7	-0.0013917879
22	0x3b3fdbf0	0.002927538
23	0x3dafae34	0.085781485
24	0x3abe503f	0.0014519765
25	0xbe277418	-0.1635288
26	0x3c0b6a66	0.008509254
27	0x3b146dc2	0.0022648429
28	0xb9ebd128	-0.00044978526
29	0x3f0bbabf	0.54581827
30	0xbb1c770f	-0.0023874675
31	0xbe44331b	-0.1916012
32	0x3aba7548	0.0014225626
33	0x3aecd868	0.0018069865
34	0x3cf9c20a	0.030488033
35	0x3d87c64d	0.0662962
36	0x3d3ce2dc	0.046114787
37	0xbe9f8886	-0.31158847
38	0x3d4f54fa	0.05061815
39	0xba43d404	-0.00074702525
40	0xbab9908b	-0.0014157457
41	0x3b2166da	0.0024627955
42	0xbaa6f0b1	-0.0012736527
43	0x3e875e72	0.26439244
44	0x398c7480	0.0002678968
45	0xba2af374	-0.00065212627
46	0xb9868190	-0.00025655003
47	0x3adc7fe0	0.0016822778
