financial/finance/trained_models/TD3__time__RunningInventoryPenalty/critic.pth (torch, 18810 bytes, 18 tensors)

fcs1.weight f4 [24, 8]
00000000: e07c 323e 8723 b3bd 9022 3f3d bc32 72bd
00000010: 6010 d13d 4081 5c3b 34dd e53d 6066 62bd
00000020: eaee b3bd 5738 883d 0443 24be 6451 2cbe
00000030: b2da c63d 3824 cabd 0d27 70be ef86 8bbd
00000040: b079 6d3c 2cc9 90bd a674 96bd 6824 52bd
00000050: 507b 123e 5859 7a3d 6943 c9bd ac7b 10be
00000060: bff7 603c 3af7 b43c b7de 95bd 0219 a13d
00000070: 7757 273e f48c b23d a45c 4a3d 0a59 a83d
00000080: af69 d1bd 77da 673c c8af 243e 6f18 0bbe
00000090: c30d 43bd 9c0e 07be 513e 93be f28a e4bc
000000a0: 843e 8d3e aa0d 783c e797 4f3e a5e3 aa3d
000000b0: 750b 763e 57ea 5abc 249a 7a3e a62e 9d3d
000000c0: 1a4b 3fbe e7d5 95bd aa0c f03d 39cb a7bd
000000d0: 30e4 8b3d eaac eabd ce70 e4bb ef74 643d
000000e0: fb18 13bc 562f d23d 1446 62bc 95f4 183d
000000f0: 3a13 59bd 0d5d 34be c7fe 8ebe 9d12 ea3c
00000100: 7152 d1bd 7df6 203e 03ce 363e 01ec 013b
00000110: 7ccb 4ebe 4fb5 463b 2c7f febd ad1e 07bc
00000120: bec9 463e b47c 943e 611e 2abe 0f26 723d
00000130: 39f7 983e cc1c 943e c8d0 a83e a1d3 973d
00000140: abef d3bd 7168 603e 6342 0a3e 3b8b 6e3e
00000150: 28aa ddbc e3d0 f8bc 64be 34be 4dfc 43bc
00000160: a8a8 8d3d 753b f0bd 2070 9dbc 3c81 10bd
00000170: 6ab8 3e3e aec3 96bd e28e 4a3e 4033 00be
00000180: 7bd9 c0bd dfe8 5bbe a279 ba3d 8d8b 3ebe
00000190: 7835 e13c b762 17be 8858 3c3e 5e8a 87bc
000001a0: abe7 85be b604 8d3d 81b0 373e 3eeb 33be
000001b0: f8d7 ecbd 7ad4 f83e 50f2 babc d527 c43c
000001c0: e852 2dbd f02e 5e3d 003f babd b8d6 4d3e
000001d0: 18b1 343e 1c4c c33d 9ab6 9bbd 6643 44be
000001e0: c9e2 19bf ce42 25be 10b3 07bf f7fc 07bf
000001f0: c45b a8be 4ce2 5abe 90c2 cebe 45be 6bbe
00000200: 7ef2 253e 7c09 8dbd e124 a2bc c39e 2ebc
00000210: 3267 e5bd d662 17be a9ea f13e 819c 1b3e
00000220: d4be 9d3c 804a 203e 95ed 0b3d 450e 293e
00000230: 07d7 e63d 116b b4bc d81a 2ebe d30b ae3c
00000240: 5e4a cbbd 307b c93b d57f 083d 0fe4 03be
00000250: 6b34 d63d 893e 2cbe 7096 1ebd 73b3 0a3e
00000260: 8eed 843e 1ebb b4bd 092f 093d 19fa 4a3e
00000270: 570c 4a3d 1c97 563e 073e 24bc b8b7 223e
00000280: 130a 993d 4879 023e 2d4a d23c 531d f53c
00000290: 0e97 553e 53f9 b4bd 56c9 103e b585 b63d
000002a0: 700a b13d 6479 1c3e d821 82bd f070 3e3d
000002b0: d024 2a3c d289 10be 50b7 a0bd 2469 94bd
000002c0: aa80 05be 19c1 66be d3c9 17be b7c1 9cbd
000002d0: b170 13be 6a1e 87be f31d 83bd c0c7 da3c
000002e0: 8c20 c33e 4dea b23e f364 f33a 456e 253d
000002f0: 0ca6 423e 7941 b83d 39f9 c53d dbe9 1a3d
0.17430449 -0.08747011 0.04666382 -0.059130415 0.102082014 0.0033646375 0.11223832 -0.055273414
-0.087858036 0.06651371 -0.1604119 -0.16827923 0.097096816 -0.098701894 -0.23452397 -0.06812846
0.014494345 -0.070696205 -0.07346468 -0.05130425 0.14304852 0.06112036 -0.098273106 -0.14109677
0.013730942 0.022090543 -0.0731787 0.07866098 0.16341959 0.08718291 0.049404755 0.08220108
-0.10225236 0.014151207 0.1608268 -0.1358354 -0.047620546 -0.13189167 -0.2875848 -0.027898286
0.27586758 0.0151399765 0.2027279 0.08344201 0.24027808 -0.013361535 0.24472862 0.07674913
-0.18680993 -0.07316189 0.117211655 -0.081930585 0.06830633 -0.11458762 -0.006971455 0.05577558
-0.008978124 0.10262935 -0.013810653 0.037342627 -0.05299685 -0.17613621 -0.27928755 0.028573329
-0.102208026 0.15719028 0.17852025 0.0019824507 -0.2019481 0.003032047 -0.124266 -0.00824706
0.19412896 0.2900139 -0.16613151 0.059118327 0.29876116 0.2892822 0.32971787 0.07413412
-0.103484474 0.21914841 0.13501887 0.232953 -0.027058676 -0.030373042 -0.17650753 -0.011962009
0.06916934 -0.117300905 -0.019218504 -0.035279498 0.18625036 -0.07361542 0.19781068 -0.1251955
-0.09416481 -0.21475552 0.09105231 -0.18607922 0.027491316 -0.1478375 0.18393147 -0.01654547
-0.2615331 0.06885664 0.17938425 -0.17570207 -0.1156463 0.48599607 -0.022820622 0.023944775
-0.042315394 0.05424398 -0.090940475 0.2010144 0.17645681 0.09536001 -0.07603188 -0.19166335
-0.6011167 -0.16138765 -0.530076 -0.5312037 -0.32882512 -0.21375388 -0.40382814 -0.23021801
0.16205785 -0.068865746 -0.019792976 -0.010657969 -0.112013236 -0.14783797 0.47249344 0.1519642
0.019256033 0.1565342 0.034162123 0.1650935 0.11271482 -0.02202371 -0.17002428 0.021245873
-0.09926294 0.0061487183 0.033325035 -0.12879966 0.10459217 -0.1682073 -0.038717687 0.13545017
0.2596249 -0.08824752 0.03349212 0.19821967 0.049328174 0.20956081 -0.010024554 0.15890396
0.07472625 0.12741578 0.025670135 0.02992121 0.20858404 -0.08836617 0.14139304 0.08912221
0.08644569 0.15280682 -0.063541114 0.046494424 0.010384753 -0.14115074 -0.07847464 -0.072466165
-0.13037363 -0.22534598 -0.14823084 -0.07654136 -0.14398457 -0.26390392 -0.06402197 0.026706576
0.3811077 0.34944382 0.0018569514 0.040388364 0.19008654 0.08996863 0.09666676 0.03782068

fcs1.bias f4 [24]
00000000: cc5f 7fbe 6ca9 f8ba a236 7fbe fc9b 67be
00000010: ca6f 89be 0758 8b3d fa5a 86be e9d0 c1bd
00000020: 75c9 86bc bbb3 213e 3d59 54be 428b 78be
00000030: f764 66be c6eb bf3e e623 02be 5b4d 3b3d
00000040: cd95 a23d c2f4 8c3d 85ab f1bc fde2 d6bd
00000050: 1ea3 d13c d856 a5bd 3cea 0bbd 3910 383d
-0.24938887 -0.001897139 -0.24923185 -0.22618097 -0.268431 0.06803899 -0.26241285 -0.094636746
-0.016453484 0.15791218 -0.20737167 -0.24271873 -0.22499453 0.37484568 -0.12709007 0.04572807
0.079387285 0.06882621 -0.029500732 -0.10492513 0.025590476 -0.08073205 -0.03415893 0.044937346

fc2.weight f4 [48, 25]
00000000: a7d2 a03e 7e9e 5f3e d3ca 8cbe d03e 443e
00000010: f72e 493e b88f f13d fe94 4cbd 6ad7 02b9
00000020: 4032 c2bd 63aa f03d 151a da3d 24ae fcbe
00000030: e2d0 c53e 9c66 393d 4af9 d3be 050b f03d
00000040: 5d64 023e 5f3e 793d b94d e03d 070d 423e
00000050: 231e 193e 319d b4be 3e7e af3d 4e9b 7bbc
00000060: 4462 c9bd 2550 173e 622c 303e b312 59be
00000070: 1845 46be ea41 1e3d 846a 83bc 7b13 903c
00000080: 101c 1c3d 43be cebd 4854 adbd f77c 38be
00000090: f454 543c b57d 123e 15d3 cdbd 5617 55be
000000a0: a270 3abd 8d28 24bd 126a a63c 5e93 c6bd
000000b0: 29ca 1abe bdc1 c2bd 07a7 8c3d ee83 e3bc
000000c0: 079c 73bd 6ea1 15bd 831f bfbb f598 ae3b
000000d0: f931 55be 2d37 a3bc d07f efbc dcaa 26be
000000e0: 8326 f7bd b28d cbbd 69c2 95bd fd47 ecbd
000000f0: c990 88bd 8a41 3c3d 9f06 953c e3fb 303c
00000100: d013 4bbe 5b6c 383d a3f4 63be 0524 14be
00000110: 88a0 2f3b 08eb f2bd b158 fb3c af5a 8d3b
00000120: ea5d 0c3d 1306 193e aefa 853c 5059 10bd
00000130: 92d2 213e 446a 883d 897d 33be 0d97 24bd
00000140: 7e5e 29be c723 873d f058 bdbd 7b01 50bd
00000150: 90a9 43bd 71ec c0bd a924 163c 28ae 223e
00000160: 5be8 d53c 1ad7 a73a 248e 3cbd 93ff 0a3e
00000170: a29a d7bd fff9 dd3d a95b 2a3d 1476 b73d
00000180: 366a 743c 968c dabd 7d95 c1bd 3434 d4bc
00000190: 3554 353e e18b 81bd 92dd d8bc 4aab 1abe
000001a0: 3eea 983d 4f74 023e 7b37 d03c 94e0 71bd
000001b0: 3522 1c3d 02b0 b73c 042c d3bd c843 5cbb
000001c0: 5fe4 663d e4e0 9e3d ddaf 0dbe f4c4 3f3c
000001d0: 0097 20be 13e7 9fbd ece8 7b3d 3e1b 0bbe
000001e0: 1e19 f63c d120 993b 99c7 c13d 4dde 4dbd
000001f0: 8d62 363d e3e4 f2bd db63 43be 658f 823d
00000200: 8e2a ca3d 4615 f33d 2e9c ffbd 4940 d23d
00000210: 95b1 063d 9d8a e43d 8111 57bd aef2 1f3d
00000220: 02fc ac3d f119 743d 6965 26be 05b0 f13c
00000230: 7ef4 04bd b9ab ec3c a0d6 aabd c627 88be
00000240: bb11 eabd 749f afbd c603 2bbd 3038 db3d
00000250: 748c 06bd 277c 8a3d 2909 f93d e7dc 063c
00000260: fddc aabd 4191 40be 517e dbbd a0cf c6bd
00000270: 85a2 d0bc 9942 66bd fd61 9bbd 6f47 a63d
00000280: a982 e2bd dea1 183d d686 923d 202e bfbc
00000290: d963 8cbd 0a46 6b3d b649 72bd 0d99 76bb
000002a0: 09e4 9f3d e481 8ebd 2825 9d3d befe d83d
000002b0: a5b9 9bbd 3a5b 15bd c505 a0bd b18e bd3d
000002c0: eefb fe3d 826a 8ebd 4e9e bebd c58f 85bd
000002d0: f560 f5bd f0e8 eb3b bf40 b9bd 11c2 75be
000002e0: 54e3 c6bd 0a21 62be 8c11 18bc ca88 ef3d
000002f0: b509 a73d f046 903d e89b df3c c174 93bc
00000300: 64f5 7e3b 4999 efbc 4b5e c5bd aebc bc3c
00000310: 740e bebd cd0a 5ebd 298d abbc 089f 2d3d
00000320: a998 63bd 5d02 993d 19f8 5dbe 1612 24be
00000330: 57c7 4fbd 38ac 15be ff19 263d 6e42 66bd
00000340: dd8e b9bd acc7 293d 1075 54bd 5da1 133e
00000350: bbfa 1cbd 771f 043e 6dd4 40be 40ed 023d
00000360: cbbe 65bd 0b49 eabb 5b2f b43d 76fb 04be
00000370: b334 14be bf00 f7bd 1d07 d33d 1274 fa3d
00000380: 3dc4 8ebd fafc b13c 6051 91bd 65c6 51bd
00000390: 7950 783d 82e3 4d3d a0e3 f9bd a6cb 713e
000003a0: 1c15 20be d3cb 26be b618 a2ba fc7a 223e
000003b0: e54b 313e 3f8f d23d 13d8 323d dcd3 3dbe
000003c0: 74d0 49bd ddd8 45bd 5dd7 cfbd a4a1 923d
000003d0: a4e9 57bd 2714 05be 6f15 393d e140 e7bb
000003e0: b9fe d7bd c653 4abe 9b10 77bd 14ba a1bd
000003f0: cc59 56be 5882 4e3d a3cf cd3a ea52 a9bc
0.31410715 0.21837804 -0.27498493 0.19164586 0.19646822 0.1179499 -0.049946778 -0.00012478014
-0.09482241 0.11751249 0.10649506 -0.4935161 0.38635927 0.04526387 -0.4140113 0.11720852
0.12733598 0.060850497 0.109523244 0.18950282 0.14952902 -0.35276178 0.08569001 -0.015356852
-0.09833196 0.14776666 0.1720443 -0.2119854 -0.19362295 0.03863708 -0.016042002 0.017587414
0.0381127 -0.10094883 -0.08463341 -0.1801642 0.0129597075 0.14305766 -0.10050026 -0.20809683
-0.04551757 -0.040077735 0.02031425 -0.09696077 -0.1511618 -0.09509609 0.068677954 -0.02777287
-0.05947497 -0.036530904 -0.005832614 0.0053282925 -0.20819844 -0.01992377 -0.02923575 -0.16276115
-0.120678924 -0.099391356 -0.073124714 -0.11537168 -0.066682406 0.04596094 0.018191634 0.010802242
-0.19831777 0.04502521 -0.2226129 -0.14466865 0.0026798565 -0.11861235 0.03068194 0.004313789
0.03426925 0.14943723 0.016354885 -0.035241425 0.15802982 0.066608936 -0.17528357 -0.040183116
-0.16539952 0.06598621 -0.09245479 -0.050782662 -0.04776913 -0.094200976 0.009164014 0.15886748
0.026111772 0.0012805194 -0.046033993 0.13574056 -0.10527541 0.108386986 0.04159132 0.089580685
0.014917901 -0.10671346 -0.09452341 -0.025903799 0.17707904 -0.06325508 -0.02647284 -0.15104404
0.07466553 0.1273968 0.02541708 -0.059052065 0.03811856 0.022422794 -0.1031113 -0.0033609737
0.056370135 0.07757738 -0.13836618 0.011704672 -0.15682602 -0.07807746 0.06150143 -0.13584611
0.030041274 0.0046731015 0.09461898 -0.05026083 0.04452758 -0.11860063 -0.1908106 0.063750066
0.09871398 0.11869292 -0.12480961 0.10266168 0.0328842 0.11159251 -0.052506927 0.039049797
0.08446504 0.059595052 -0.16249622 0.029502878 -0.03245973 0.028890477 -0.08341718 -0.26592845
-0.11429163 -0.08575335 -0.041751646 0.10704076 -0.03284879 0.067619614 0.1215995 0.008231378
-0.083429314 -0.1880541 -0.10717452 -0.0970757 -0.02546812 -0.056215856 -0.07587049 0.081190936
-0.11060078 0.037263744 0.07154624 -0.023337424 -0.06854982 0.05743984 -0.059152327 -0.0037627846
0.07807166 -0.069583684 0.076731026 0.10595463 -0.07603768 -0.036463954 -0.078136005 0.09255732
0.124503955 -0.069539085 -0.09307538 -0.065215625 -0.11981384 0.007199399 -0.090455525 -0.23999812
-0.09711328 -0.22082916 -0.009281527 0.11696012 0.08156148 0.0704478 0.027296022 -0.018000009
0.0038903588 -0.029247897 -0.096371256 0.023039188 -0.092801005 -0.05420952 -0.020941334 0.042387992
-0.05556551 0.07471154 -0.21676673 -0.16022524 -0.050727215 -0.14616477 0.040552136 -0.056215696
-0.09060452 0.041450188 -0.051869452 0.14417024 -0.038325053 0.12902628 -0.18831034 0.03196454
-0.056090157 -0.0071498207 0.08798095 -0.1298655 -0.14473228 -0.12060689 0.10304091 0.1222917
-0.06971023 0.021727074 -0.07095599 -0.051214594 0.06062362 0.050265796 -0.12201619 0.23612842
-0.15633053 -0.1628869 -0.0012366984 0.15867227 0.17314108 0.10281228 0.043663096 -0.18537849
-0.049271062 -0.04830252 -0.10148499 0.07159737 -0.05271305 -0.12995969 0.045186456 -0.0070572947
-0.10546631 -0.1975852 -0.06031857 -0.0789682 -0.20932692 0.050417274 0.0015702139 -0.02066942

fc2.bias f4 [48]
00000000: e84d c1be 363e 9abe b99f 65be 764b 08bd
00000010: 49a6 28be 96d2 0fbe 95cb 84be c692 3bbe
00000020: 6363 9dbe 86e0 90be 9a6b e03c 93f0 2ebe
00000030: d126 9ebd 8355 66be 6729 53be f5f5 febc
00000040: 70a9 5ebd a74e 7abe 4d05 21be 5bc8 8cbe
00000050: 5377 febd 8455 80be 2897 9fbe 407a ecbd
00000060: 7f1f 73be 1759 f9bd 9393 97be a995 70be
00000070: ca75 0cbe c73d 833d e83d 78be f998 6bbe
00000080: 07a3 56be 5582 8dbe 8a8a f7bd a4bc a8be
00000090: dbdf 7abd f65d 74be 0e66 e5bd 3382 63be
000000a0: 32e3 abbe c898 68be 83c0 8dbe 0135 20be
000000b0: 7101 87be 3f12 95be acee 7abb 6b22 b7be
-0.3775475 -0.30125588 -0.2242421 -0.03327509 -0.16469683 -0.14045176 -0.2593657 -0.18317708
-0.3073989 -0.28296298 0.027395058 -0.1708396 -0.077222474 -0.22493558 -0.20621262 -0.03112314
-0.054360807 -0.24444066 -0.15724678 -0.2749661 -0.12425103 -0.25065243 -0.3117001 -0.11546755
-0.23742484 -0.12175196 -0.29604778 -0.23494591 -0.13716808 0.064082675 -0.24242365 -0.23007573
-0.20960627 -0.27638498 -0.12086971 -0.3295642 -0.06124864 -0.23863968 -0.11201106 -0.22217636
-0.33571774 -0.22714531 -0.27685937 -0.1564522 -0.26368287 -0.29115483 -0.0038289232 -0.35768446

fc3.weight f4 [1, 48]
00000000: 5a88 dd3d 8223 0a3d eae2 923c 669d 453d
00000010: 1c4e 033d d6c4 44bd 63d9 acbc d4cf 88bc
00000020: 1af4 45bc 380d febb e8db 89bd ba4b 44bc
00000030: e35e 893d a928 abb8 c563 1b3e 1ed4 96bc
00000040: 1090 9a3d 9941 b6bc e2f4 223c 4142 3a3f
00000050: c4cc 4e3c a206 e6bc 1756 e2bc c142 21ba
00000060: bab8 d23c 9781 3fbc be9b e63a 7c54 ccbc
00000070: 0202 4e3c 6aec 293e 5784 a7bc 115a e739
00000080: bb9b 053d 7e35 693d 2601 9ebc 988a fabc
00000090: 9f4b 8b3e ec24 04bb 6a5d 4cbc 4dae 04bc
000000a0: 8f26 e63b 81a1 ce3a ea7c debd cb6b 08bc
000000b0: 0cc4 2ebc bb95 f53e e9cc aabd 19e6 fd3c
0.108170226 0.03372527 0.017930467 0.04824581 0.032056913 -0.04803928 -0.021099752 -0.016700663
-0.012082124 -0.0077530406 -0.06731397 -0.011980945 0.06707551 -8.161489e-05 0.15174778 -0.018411692
0.07547009 -0.022248076 0.00994608 0.72757345 0.012622062 -0.028079335 -0.027628941 -0.00061516097
0.02572285 -0.0116886115 0.0017594022 -0.024942629 0.012573721 0.16594091 -0.020448847 0.00044126858
0.03261922 0.05693578 -0.019287657 -0.030583665 0.27206132 -0.0020163609 -0.0124734435 -0.008098197
0.0070236395 0.0015764685 -0.10863669 -0.008326481 -0.010666858 0.47965798 -0.08339865 0.030993508

fcs4.weight f4 [24, 8]
00000000: 22f3 183e 4bd3 15be 0ad8 253e c206 503e
00000010: 48e9 db3c 7c13 23be 9811 223d a0db 28bd
00000020: 5bf1 173d 7cce 5cbe 1f9c ce3d 6b65 0a3b
00000030: e5e0 28bd 4782 743d 2e6f 07be f9d8 9bbe
00000040: aedc f3bd 2963 a7bd d056 b23c f452 a13d
00000050: f80f 1cbd 64fe a4bd fc70 b73d 1f3c 4bbe
00000060: d1fd 083e 6ec3 a8bd 2a67 d93c 5bfa 003d
00000070: 6066 54bd e932 3bbd 6c8b 87be 52b6 c3bc
00000080: 0042 56bf ea6b 4ebe d4f3 f7be 0794 2dbe
00000090: fb05 923e c446 9a3d b4c7 e1bc b694 17c1
000000a0: 66ca 18bf 7105 07bf a290 a3be 7a74 8ebd
000000b0: 02cd ee3e a059 57be 94eb a93e d22e d0bc
000000c0: 409c e93e 9c67 4abf 823f c1be 8687 673e
000000d0: e5b0 3abf a5ce 443e 6e1d 42bd 3824 12be
000000e0: 3b69 2d3e c9bc eb3d cb0c 093e 8c6a eb3d
000000f0: 2269 1ebe a08f 3d3b 1a55 99be d267 ffbc
00000100: 732f 4fbe 0ae6 50be 989d 4ebe d4e5 003e
00000110: 3006 ae3c 005e f339 08fc 043d ca35 9ebd
00000120: dea5 d5bc 29da 03be 379b 0cbe 471f 09be
00000130: f2aa a13c e00b 253e 562e fcbd d118 1c3e
00000140: 65ab 65be deca 08be b963 f33c 79f0 073d
00000150: 8a87 023e 860c 6dbd 2f5f 1ebe 2058 2cbe
00000160: 957a 14bc 1d24 28be a956 18be 0ce9 5d3c
00000170: 83e3 bdbd 3e6c bbbe 7582 d0bd cbd1 103e
00000180: 8028 7cbd 8ce9 2bbe d0a7 8ebe 33f6 0dbe
00000190: 33fc 8b3d fec5 bc3d ac49 afbd 3b3c 3dbe
000001a0: 16d5 573d f23c b43d 756b 8e3e 6fd1 7a3a
000001b0: b78f a43e 0680 823e ea41 e6bc 4ee2 063e
000001c0: 985c 4e3e e016 15bd 5e84 033e fc3d d8bd
000001d0: 9b8d 4bbe dd9c 26be 183e d6bd 6c22 85bd
000001e0: 0a40 9cbd 61ca e63d 57ee 77be 9079 d93d
000001f0: 830b 1a3e a0e4 04bc 55a9 56bf 38f7 5fbd
00000200: 885a 463d 14f8 b83d 7425 7ebd 2676 8fbd
00000210: d538 c5bd 8d2b 4abe 50d2 923d 4b06 1ebe
00000220: b939 453d 5189 0d3e 7f56 813e 1d22 5f3e
00000230: ee33 923d e0cb ae3e 39a3 cd3d 5170 8d3e
00000240: aacf 64bc f95f 073e cb1c 8a3d 7c7c 36be
00000250: d9ab 0ebe c98d e4bc c59a 34be 7674 cabd
00000260: cd01 243e b979 c23d 3cee 4b3e b850 bfbb
00000270: 39dd 15be 054a df3d 020b 0b3b d277 01bd
00000280: 2568 8d3d 2f58 413e 9dc4 11bd 2acd e43e
00000290: c408 423e 5492 99bd c593 113d e0a1 673e
000002a0: 8d30 b2bd 3f6a 58be 7367 9bbc 226b 423e
000002b0: 63c7 dcbc 5a68 993b 9201 483e 714b 9c3d
000002c0: 5076 123e 23c3 8c3c 89fe 80bd abe3 0cbe
000002d0: c0b0 e9bd 167f 51be 2cbc b33c cd61 10bb
000002e0: 1941 923d ebfa 073d 7303 56ba 758d 41be
000002f0: 9bce 5dbd 25fe b6bd be31 f0be 9d62 5abd
0.14936498 -0.14631383 0.16195694 0.20315078 0.026844636 -0.15925401 0.03956756 -0.041225076
0.03709541 -0.21563143 0.100883715 0.0021117579 -0.0412301 0.059694555 -0.13226005 -0.30438974
-0.11907326 -0.0817321 0.021769911 0.0787715 -0.038101166 -0.08056334 0.08957097 -0.19847153
0.13378073 -0.082404 0.02653845 0.031488758 -0.051855445 -0.04570285 -0.26473558 -0.023890648
-0.8369446 -0.20158353 -0.48428214 -0.16950999 0.28520188 0.07533029 -0.027561046 -9.473806
-0.59683836 -0.5274268 -0.31946284 -0.0695581 0.46640784 -0.21030283 0.33187544 -0.02541295
0.45627022 -0.79064345 -0.37743765 0.22610292 -0.7292617 0.19219454 -0.047391348 -0.14271629
0.16934673 0.11510617 0.13383786 0.114949316 -0.15469792 0.0028924718 -0.2994774 -0.031177435
-0.20232944 -0.20400253 -0.20177305 0.12587672 0.021243185 0.00046418607 0.03246692 -0.07725103
-0.026080068 -0.1287619 -0.13731085 -0.13390838 0.019734833 0.16117811 -0.123135254 0.15243842
-0.22428663 -0.13358638 0.029710637 0.033188317 0.12747017 -0.05787327 -0.15465997 -0.16830492
-0.009062429 -0.16420026 -0.14876808 0.013544332 -0.0927191 -0.3660602 -0.10181133 0.1414253
-0.06156206 -0.1678831 -0.27862406 -0.13863449 0.068352126 0.092174515 -0.08558974 -0.18480007
0.05269345 0.08800687 0.27816358 0.0009567951 0.32140896 0.254883 -0.028107602 0.13172266
0.20152509 -0.03639877 0.12843463 -0.105586976 -0.19878237 -0.16270776 -0.10461062 -0.06500706
-0.07629402 0.112690695 -0.24212013 0.10618889 0.15043454 -0.008111149 -0.8385213 -0.054679126
0.04842618 0.09031692 -0.062047437 -0.07004957 -0.096299805 -0.19743176 0.0716902 -0.15432088
0.04815075 0.13821913 0.25261304 0.21790357 0.07138811 0.3413992 0.10040898 0.27624753
-0.013965527 0.13220204 0.06743773 -0.17820925 -0.13932742 -0.02789964 -0.17637165 -0.098854944
0.16016312 0.09495873 0.19915098 -0.00583848 -0.14635171 0.1090279 0.0021216278 -0.03160841
0.069046296 0.18881296 -0.035587896 0.44687778 0.18948656 -0.07498613 0.035541315 0.22620344
-0.087006666 -0.2113428 -0.018970227 0.1898618 -0.026950544 0.004681629 0.19531849 0.07631577
0.14302945 0.017182892 -0.06298549 -0.13758723 -0.114106655 -0.20458636 0.021940313 -0.002203095
0.07141323 0.03319828 -0.0008163966 -0.18901618 -0.054152112 -0.08935193 -0.4691295 -0.0533167

fcs4.bias f4 [24]
00000000: 939f 8fbe ef73 42bb eeb6 83be 3ac3 7dbe
00000010: 7600 ff3c eb6a 7ebe e813 2a3c c0cb 29be
00000020: 6b79 1dbe 776d 493e 8d18 93bc 4816 963e
00000030: 61f9 c8ba 4798 e43e f0dd 91be e4da 163c
00000040: 1657 26be c281 4cb9 0be2 f2bc 706e 02bd
00000050: ec98 8b3d 6329 9e3e c97a babe 5edd e8bb
-0.28051433 -0.0029671153 -0.25725502 -0.24781504 0.03112815 -0.24845473 0.010380723 -0.1658163
-0.15378349 0.19670664 -0.017956043 0.29313874 -0.001533311 0.44647428 -0.28489637 0.009207461
-0.16244158 -0.00019503295 -0.029648801 -0.031843603 0.06816277 0.3089095 -0.36421803 -0.007106467

fc5.weight f4 [48, 25]
00000000: fb48 8c3d d502 e13d 200b 64be fa4c b13d
00000010: 2509 72be 7d99 29be 3be7 86bc 73cc cbbd
00000020: f8dd 92bd 00d4 3bbd 41f3 bbbd 5414 2fbc
00000030: e5d4 303d c00b 52bd f1f4 07bd 5e1b dfbd
00000040: e04b 76be 9c67 583d d67a f2bd 8e06 03be
00000050: 68eb efbc e011 963c 1608 cb3c 307d 43be
00000060: a98a 203e d5aa e8bb 174f b3bc 4517 dc3d
00000070: 74f6 f43d 2e70 0fbe 31d5 a93e 84e4 79be
00000080: 2fcf df3d 6589 073d f8ee cd3d 7ac7 42bd
00000090: 60ee 133e 24b5 eebd a9e0 4c3e 6041 17be
000000a0: 11fa bc3d b5c5 23be 5bb0 613e d174 5bbe
000000b0: 5ab1 8b3e e03e 373e d021 483d 95c6 823e
000000c0: 6f4f 833d aa0d c0be ee2a cd3c c30f e73c
000000d0: 3230 68be 7c67 9ebc d164 633c c57d 60bd
000000e0: caf0 dabd dd33 98bd 1e16 52be d1cf cb3d
000000f0: a094 3dbe 1c48 77bc b4c3 64bc b974 c6bd
00000100: 504c e0bc 7ee8 c0bd d6f0 e13c f8fc 5f3c
00000110: b9c7 01be 3df8 02be e3f3 22bd 68b9 313c
00000120: bac8 d5bd a974 97bc 1206 f5bd 1c33 0f3c
00000130: 27a9 013d e775 debd 8b5e 07be 6fc6 f7bc
00000140: 757b 8abd e614 d0be cb5a 0bbd b713 5fbe
00000150: ec10 ae3d 14b2 803c a99c b3bd 61cd 933d
00000160: 5925 a8bd 5f50 27be d4bc 763c 3108 5ebe
00000170: 0ee2 22bd 1bf0 4ebe 6fa2 a83c aeef 9f38
00000180: 27ee 433c 5de8 3bbd 84ac cebd fd86 9f3e
00000190: dba0 1e3f 6794 f93e e608 02be ec73 cf3d
000001a0: 7a1e 423e 079f b7bb 9385 98be 272e 84be
000001b0: 0dec fabe dcdf ea3d f720 1abf bd22 b63d
000001c0: e108 f03e 6f18 1cbe 900b a7be fc30 923d
000001d0: 57a0 0bbf d411 f83c a39b f7be d742 563d
000001e0: 9da6 173e 6586 bd3d 304d d73d 8a3d 29bf
000001f0: 082f 8c3e f4f8 c9bd 5126 b3bd ce55 f63d
00000200: 8d32 4ebe ca5e a3bd d15a c8bd a4de f1bc
00000210: 7b07 86be eacc f43d 359d 3dbe 90fe 2c3e
00000220: af7f 08be ab8a b4bd 2b38 1fbe e3e0 ec3d
00000230: f526 c4bd b7d7 85bb bb71 15be f6b7 a93d
00000240: 0dc1 4dbe 2459 8cbe 85ca bebe 3cac 86be
00000250: ec78 12be 7bf3 8abe fe03 753e fb32 a4bd
00000260: 7d26 7bbe aba2 b0bd d883 663d 72f7 20bd
00000270: 2667 63bd 5ed2 643c 614b 39be f328 563d
00000280: 7f33 9bbd 93a6 b1bd 73b4 d4bd ab8c 9b3d
00000290: 8107 38bd eeaa 763d 501e 49be c697 943d
000002a0: efa7 61bd e7c0 d3bc 42d2 c6bd 6b2f d8bd
000002b0: b757 80bd 396d d6bd 9756 dc3c 9d61 e83d
000002c0: 9087 b03d b0e8 363d c3c6 21be 1bec f3bd
000002d0: e1ca 3bbd 1ad5 0fbe 87f8 80be 44b7 8abe
000002e0: e15e f1bd 5970 9fbd c250 78bc 9f7a d33d
000002f0: ec56 ebbd 0e1c c93c c29c 213e 88fb 8dbe
00000300: ba30 93bd 6dae 28bd f605 05bd 9a0f de3b
00000310: a21b 903c d566 c7bc 4bc8 18be 74b2 e13f
00000320: 5445 203e 0d39 8dbd 0a9d c5be 2ce2 623c
00000330: 2687 823d 2e28 f7bc 87e0 6dbe 1bea 49be
00000340: 41d8 aabe b4e9 803c 3f8f 93bd 8439 013d
00000350: 3bc1 d63d b0f0 703d 44ac 03be cdec 853d
00000360: f228 1ebe c5f5 37bd 7d7e 18be 75f9 3abe
00000370: b20c 10be 25a8 003d 2662 a43c a16c aabe
00000380: 2096 12be d52a 4c3e c040 2e3e bf3f f8bd
00000390: a7b6 c1bd b154 44be 81f9 4ebd c7ab 40be
000003a0: fca3 e4bd ed3c f6be eb7f 24be 80c3 82be
000003b0: 5f53 a6bd d48d 3f3e 7f72 2bbe e180 82be
000003c0: ac0e c53d fb22 e8be 904e 843d e5a0 e5be
000003d0: f932 763c 0021 83bc 47af 59bd 0897 d8bd
000003e0: 3638 bfbe b01e b03e 59fb 633e 450f 1d3e
000003f0: 465a 93be ecee 4cbe 7f8a 66be 3875 98be
0.068498574 0.10986868 -0.22269869 0.0865726 -0.23636301 -0.16562457 -0.016467681 -0.09951105
-0.071712434 -0.045856476 -0.091772564 -0.010685999 0.043171782 -0.051280737 -0.03319258 -0.10893892
-0.24052382 0.052833185 -0.11839835 -0.12795469 -0.029287055 0.01831907 0.02478413 -0.19090724
0.15677895 -0.007100443 -0.021888299 0.10746626 0.1196107 -0.14007637 0.33170465 -0.24403578
0.10928189 0.033090014 0.10055345 -0.047553517 0.14446402 -0.116556436 0.20007576 -0.14771032
0.09227384 -0.15993388 0.2203993 -0.2143128 0.27283746 0.17895079 0.04886037 0.2554213
0.06411635 -0.37510425 0.025044885 0.028205758 -0.22674635 -0.019336455 0.013879017 -0.054807443
-0.10690458 -0.07431767 -0.2051625 0.09951747 -0.18513727 -0.015092876 -0.013962675 -0.09690232
-0.027380139 -0.09419344 0.02758066 0.013671152 -0.12673844 -0.12790008 -0.03978337 0.010847427
-0.10438676 -0.018488245 -0.119640484 0.008740213 0.031655457 -0.10862332 -0.13219659 -0.030245988
-0.06761829 -0.40640944 -0.034022134 -0.21784864 0.08499321 0.015709914 -0.08770115 0.07216907
-0.082102485 -0.16339253 0.015059669 -0.21682812 -0.039766364 -0.2020878 0.020585267 7.6263546e-05
0.011958635 -0.045875896 -0.100914985 0.31157675 0.61964196 0.48746035 -0.12698707 0.10129532
0.18956938 -0.0056036743 -0.2978941 -0.2581646 -0.49008217 0.11468479 -0.6020655 0.088933446
0.46881774 -0.15243696 -0.3262601 0.07138249 -0.54541534 0.030281939 -0.4836093 0.052309837
0.14809652 0.09254149 0.10512769 -0.66109526 0.27379632 -0.09861937 -0.08747543 0.12028085
-0.20136471 -0.07977064 -0.09782947 -0.029525109 -0.26177582 0.11953147 -0.18517001 0.16893983
-0.13329957 -0.08815511 -0.1554877 0.11566331 -0.09577743 -0.004084553 -0.14594166 0.08287041
-0.20093174 -0.2741176 -0.37263885 -0.2630328 -0.1430394 -0.27138886 0.23927304 -0.08017536
-0.24526401 -0.086247765 0.05627808 -0.039298482 -0.055518292 0.013966171 -0.18095161 0.052285146
-0.075781815 -0.0867435 -0.103859805 0.0759519 -0.04492903 0.060221605 -0.1964047 0.07255511
-0.055091795 -0.025848819 -0.09708072 -0.10555919 -0.0626673 -0.10470051 0.026896758 0.11346743
0.086196065 0.0446555 -0.15798478 -0.11910268 -0.045847777 -0.14046136 -0.2518961 -0.27092946
-0.11785675 -0.077851005 -0.015155973 0.103261225 -0.114911884 0.02454951 0.15782455 -0.27730966
-0.07187028 -0.04118197 -0.032476388 0.006776762 0.017591301 -0.024341026 -0.14920156 1.7632585
0.15651447 -0.06895647 -0.38596374 0.013847869 0.06373434 -0.030170526 -0.23230182 -0.1971821
-0.33368114 0.015736438 -0.072050564 0.03154899 0.104860745 0.058823287 -0.12858683 0.06539307
-0.15445307 -0.04491212 -0.14892001 -0.18259223 -0.14067343 0.031410355 0.020066332 -0.33286002
-0.1431508 0.19938214 0.17016888 -0.121215336 -0.09458666 -0.19172932 -0.050530914 -0.18815528
-0.1116409 -0.48093358 -0.16064422 -0.2553978 -0.081213705 0.18706447 -0.16742896 -0.25488952
0.09621939 -0.45339188 0.06460297 -0.44849315 0.015026801 -0.016006947 -0.053145673 -0.10575682
-0.37347573 0.34398413 0.2226385 0.15337856 -0.2877981 -0.20013016 -0.2251377 -0.2977693

fc5.bias f4 [48]
00000000: e18b fcbd 50e5 a6bd 5d2f 95be d027 bc3b
00000010: 132c 14bf b4b0 9ebd 4b4f 9abe 0abf 46bb
00000020: e7f5 01be 3f23 78be e4fa 60be 6b65 74be
00000030: df58 bc3c b23c 29be 3b19 d7bd 6792 71bd
00000040: 83e9 86be fa95 49bd 71b9 2cbe d03d cabe
00000050: a985 13be ce3e 66be d65a 12be 4763 9bbd
00000060: 0607 6cbe 5766 333c 4268 ffbd 5052 63be
00000070: 6936 afbe f4e3 f1bd e717 abbe d1db a3bd
00000080: 8218 a3be 692f 32be 26fc e0be 39aa 36bd
00000090: 1023 e33b 53be 053d aec8 893d 0644 393d
000000a0: 5082 143d 5294 82bd feee 35bb a252 98be
000000b0: b544 31be 2a7f 82be d308 43be 6601 cdbd
-0.12331367 -0.08149207 -0.29137698 0.0057420507 -0.5787975 -0.07748547 -0.3013862 -0.003032627
-0.1269146 -0.24232195 -0.21970707 -0.23866813 0.022991596 -0.1652706 -0.10502859 -0.05897751
-0.2635003 -0.049215294 -0.16867615 -0.39500284 -0.14406456 -0.22484896 -0.14292464 -0.07587295
-0.23049554 0.010949693 -0.124710575 -0.22199368 -0.342212 -0.11811057 -0.33416674 -0.08000911
-0.31854635 -0.17400898 -0.43942374 -0.04459593 0.00693167 0.03265221 0.0672773 0.045230888
0.03625709 -0.06375946 -0.0027760859 -0.29750544 -0.17311366 -0.25487643 -0.19046335 -0.10010032

fc6.weight f4 [1, 48]
00000000: 80a6 513c c224 133e 7870 db3c 6b5b 61bb
00000010: 57c4 0ebe 1168 8e3d 03d6 3cbc 0464 693e
00000020: 8bf3 833c 83f2 313a a1f7 c2be 0ee0 273c
00000030: a098 09be 3af6 863c fce0 39bc 57a7 24be
00000040: 6e80 963c 55a9 85bd 7d6f 1abc a014 5eba
00000050: 5804 af3c 9453 a63c 9d0f 543c 2478 043f
00000060: 7f59 343c ff70 413e e7fd 8d3d 6f75 843c
00000070: 4191 743c e0c8 43bb aab3 75bb 5b4c 953c
00000080: 8627 8cbb 8b8f cf3c 052f eebc d3ea b2bd
00000090: 4440 79bd 9c49 38be e959 1d3e db1b 923e
000000a0: dd05 bebc d073 923d 5e96 a6bb ba5b 7d3c
000000b0: d19c e13b 2708 64bc 5f75 fb3c d25d cdbc
0.012796044 0.1436949 0.026787028 -0.0034386765 -0.13942085 0.06953443 -0.011525634 0.22792059
0.016107341 0.0006788151 -0.3807955 0.01024629 -0.13437128 0.016474832 -0.011345144 -0.1607946
0.018371787 -0.06526438 -0.009425995 -0.00084717013 0.021364376 0.020303525 0.012943176 0.5174582
0.011007666 0.18890761 0.06933194 0.016169278 0.014927209 -0.002987437 -0.0037491121 0.018224886
-0.0042771725 0.025337001 -0.029075155 -0.087361954 -0.060852304 -0.1799683 0.15366329 0.28536877
-0.023196155 0.07150996 -0.005083843 0.015463764 0.006885149 -0.013917959 0.030695615 -0.025069151

bn1.weight f4 [24]
00000000: 0000 803f 294c 4a3f 0000 803f cb59 5c3f
00000010: 9a88 8a3f 770c 2b3f 73d0 e53e e270 5e3f
00000020: 2957 4f3f bf04 283f 219a 043f 20ed 383f
00000030: ce50 073f b240 363f 0000 803f 465e e93e
00000040: 19d5 413f 73c0 683f 3770 383f 0369 523f
00000050: da29 3b3f f381 4c3f d58b 263f 1fe6 433f
1.0 0.7902246 1.0 0.86074513 1.0822937 0.66815895 0.44885597 0.86890996
0.8099237 0.6563224 0.5179768 0.72236824 0.52857673 0.7119247 1.0 0.45579737
0.75715786 0.90918654 0.72046226 0.82191485 0.73110735 0.79885787 0.65057117 0.7652301

bn1.bias f4 [24]
00000000: 48e5 d1bd 464c 2fbd 4259 7e3c 33c0 4c3e
00000010: bf90 1d3e 9ce3 843e 2185 f73d 530f a03e
00000020: 988c 923e 25bb 833e e8f1 9c3d 2e52 023e
00000030: f7e0 bbbd fb81 9e3e 5b2b 653d 5ea8 e2bc
00000040: 27b3 373e a9eb 903e d564 2e3e 34f0 713e
00000050: ed44 6e3e f222 853d 5dea c73d f65c ca3e
-0.1024881 -0.04279735 0.01552421 0.19995193 0.15387248 0.25954902 0.12085939 0.3126169
0.2862289 0.25728717 0.076633275 0.12726662 -0.09173768 0.30958542 0.05594955 -0.027668174
0.17939435 0.28304794 0.17030652 0.23626786 0.2326848 0.06500806 0.09761498 0.3952405

bn1.running_mean f4 [24]
00000000: 0000 0000 0400 0000 0000 0000 0400 0000
00000010: b311 5c3a a5a0 6e3e 0400 0000 0400 0000
00000020: 0400 0000 6263 ba3e 0400 0000 eb5e cc3d
00000030: 0400 0000 d2f7 cf3e 0000 0000 0400 0000
00000040: 41b7 bb3e 744d ac3d 1d89 893c 35e4 333c
00000050: 9a42 4c3e aaf5 583e 0400 0000 267d c03d
0.0 6e-45 0.0 6e-45 0.00083949714 0.23303469 6e-45 6e-45
6e-45 0.36403948 6e-45 0.09979042 6e-45 0.4061876 0.0 6e-45
0.3666325 0.084132105 0.016789014 0.010979702 0.19947281 0.21187463 6e-45 0.0939887

bn1.running_var f4 [24]
00000000: 0400 0000 0400 0000 0400 0000 0400 0000
00000010: c0c4 c635 c1fe 853a 0400 0000 0400 0000
00000020: 0400 0000 3e1c 4e3b 0400 0000 3b24 f23a
00000030: 0400 0000 b109 e53a 0400 0000 0400 0000
00000040: fdfa 7c3b 2e6a f53b 9ea2 2d3a c286 9439
00000050: ca2e cb3b 89aa 243a 0400 0000 440d 7739
6e-45 6e-45 6e-45 6e-45 1.4809411e-06 0.0010223017 6e-45 6e-45
6e-45 0.003144994 6e-45 0.0018473932 6e-45 0.0017474202 6e-45 6e-45
0.003860175 0.0074894642 0.0006623658 0.00028329162 0.006200646 0.0006281515 6e-45 0.00023560697

bn2.weight f4 [24]
00000000: 0000 803f 0000 803f 0000 803f 0000 803f
00000010: 0000 803f 0000 803f 0000 803f 0000 803f
00000020: 0000 803f 0000 803f 0000 803f 0000 803f
00000030: 0000 803f 0000 803f 0000 803f 0000 803f
00000040: 0000 803f 0000 803f 0000 803f 0000 803f
00000050: 0000 803f 0000 803f 0000 803f 0000 803f
1.0 1.0 1.0 1.0 1.0 1.0 1.0 1.0
1.0 1.0 1.0 1.0 1.0 1.0 1.0 1.0
1.0 1.0 1.0 1.0 1.0 1.0 1.0 1.0

bn2.bias f4 [24]
00000000: 0000 0000 0000 0000 0000 0000 0000 0000
00000010: 0000 0000 0000 0000 0000 0000 0000 0000
00000020: 0000 0000 0000 0000 0000 0000 0000 0000
00000030: 0000 0000 0000 0000 0000 0000 0000 0000
00000040: 0000 0000 0000 0000 0000 0000 0000 0000
00000050: 0000 0000 0000 0000 0000 0000 0000 0000
0.0 0.0 0.0 0.0 0.0 0.0 0.0 0.0
0.0 0.0 0.0 0.0 0.0 0.0 0.0 0.0
0.0 0.0 0.0 0.0 0.0 0.0 0.0 0.0

bn2.running_mean f4 [24]
00000000: 0000 0000 0000 0000 0000 0000 0000 0000
00000010: 0000 0000 0000 0000 0000 0000 0000 0000
00000020: 0000 0000 0000 0000 0000 0000 0000 0000
00000030: 0000 0000 0000 0000 0000 0000 0000 0000
00000040: 0000 0000 0000 0000 0000 0000 0000 0000
00000050: 0000 0000 0000 0000 0000 0000 0000 0000
0.0 0.0 0.0 0.0 0.0 0.0 0.0 0.0
0.0 0.0 0.0 0.0 0.0 0.0 0.0 0.0
0.0 0.0 0.0 0.0 0.0 0.0 0.0 0.0

bn2.running_var f4 [24]
00000000: 0000 803f 0000 803f 0000 803f 0000 803f
00000010: 0000 803f 0000 803f 0000 803f 0000 803f
00000020: 0000 803f 0000 803f 0000 803f 0000 803f
00000030: 0000 803f 0000 803f 0000 803f 0000 803f
00000040: 0000 803f 0000 803f 0000 803f 0000 803f
00000050: 0000 803f 0000 803f 0000 803f 0000 803f
1.0 1.0 1.0 1.0 1.0 1.0 1.0 1.0
1.0 1.0 1.0 1.0 1.0 1.0 1.0 1.0
1.0 1.0 1.0 1.0 1.0 1.0 1.0 1.0
