financial/finance/trained_models/TD3__volume__NormalizedExec/actor.pth (torch, 9687 bytes, 9 tensors)

fc1.weight f4 [24, 8]
-0.17299037 0.11902565 0.109096795 0.19122186 -0.06854546 0.010380164 0.039986014 0.2037605
0.1633402 0.008649803 -0.12112425 -0.15946355 -0.051635128 0.12415853 0.08264136 0.1726124
0.15130109 0.002959311 -0.12651113 0.19932735 0.16374251 0.08837411 -0.11150557 0.16080478
0.018578544 0.13497382 0.08519465 0.10839164 -0.17911404 -0.11318299 0.12242785 -0.04252638
-0.17758387 0.18563035 -0.00441429 0.16466367 -0.15954687 0.070278674 -0.076887175 -0.08589858
-0.011388624 -0.20830613 0.04349935 -0.07741231 0.12071461 0.07323476 0.0066163517 -0.08874114
-0.18691099 -0.059547573 -0.18902542 -0.037818223 0.0033362657 -0.0131545365 -0.100269236 0.14167514
0.114958614 -0.050291523 -0.08065064 0.12833083 0.17759296 -0.18690395 -0.044102907 -0.01894316
-0.046199825 0.042769946 -0.08761318 0.15177326 -0.020428099 -0.01342978 -0.01557666 -0.028807694
0.07818343 0.1735577 0.04314449 0.14319856 -0.10337266 0.016482847 0.19401494 0.011948486
0.16205603 0.003364861 -0.15285732 -0.11198586 0.07597819 -0.08833451 0.04909411 0.20091027
0.06933698 -0.01910393 0.051021844 -0.11760485 -0.17151596 -0.15344003 -0.17128108 0.041890264
0.039759964 -0.08674623 -0.19966416 0.11057502 -0.115821935 -0.03407806 -0.17115441 -0.11515831
0.062668346 -0.30613768 -0.18659596 0.1270531 -0.09634903 -0.03296537 -0.093314394 -0.0031158316
-0.17955033 0.047405988 0.023888603 -0.024165945 0.03960375 -0.026348596 0.13353065 0.06388393
-0.0030492125 -0.04610141 0.09967687 0.07652894 -0.006649934 0.029745102 0.13997899 0.009024397
0.020653443 0.047257286 -0.04268208 -0.17999405 -0.045808822 0.110819265 0.016158385 -0.09631446
0.15653054 0.10409272 -0.01905942 -5.422676e-05 -0.015583298 0.024535924 -0.0595116 -0.13707957
0.003918772 0.0014451426 -0.022111539 -0.056831263 0.024201794 -0.01226293 0.106439106 0.05322634
-0.055824656 0.043546006 0.054613687 0.011562642 -0.10440627 -0.13496184 0.15712985 0.061973654
0.073361 0.014205496 0.011468488 0.12237232 0.0816478 0.00397761 -0.11494465 -0.0077685565
-0.024577562 0.020764958 -0.095504 0.07770108 0.12689923 0.11920638 0.06871798 0.082322784
-0.14311309 -0.056166742 -0.11391342 0.1633782 0.010600052 -0.091211155 0.09865896 -0.055847306
-0.12939239 0.20093033 0.09236217 -0.12533508 -0.09305151 0.044756256 0.0840652 0.042222634
00000000: 6324 31be b8c3 f33d 246e df3d aacf 433e
00000010: 9061 8cbd 9011 2a3c 60c8 233d 98a6 503e
00000020: a742 273e e7b7 0d3c fe0f f8bd 6a4a 23be
00000030: 5b7f 53bd d446 fe3d e03f a93d 4ec1 303e
00000040: acee 1a3e 00f1 413b 228c 01be 781c 4c3e
00000050: 1eac 273e 7cfd b43d 085d e4bd 02aa 243e
00000060: 0832 983c 9436 0a3e 887a ae3d 70fc dd3d
00000070: ac69 37be 7ccc e7bd 74bb fa3d 2430 2ebd
00000080: 8cd8 35be e215 3e3e c0a5 90bb 989d 283e
00000090: 4160 23be 44ee 8f3d 0677 9dbd 98eb afbd
000000a0: 5a97 3abc 344e 55be 602c 323d 588a 9ebd
000000b0: 3939 f73d 1bfc 953d fbcd d83b eabd b5bd
000000c0: 9865 3fbe 28e8 73bd e18f 41be 48e7 1abd
000000d0: 40a5 5a3b 2086 57bc f559 cdbd 4a13 113e
000000e0: 6c6f eb3d 7cfe 4dbd 2a2c a5bd 2869 033e
000000f0: eeda 353e c063 3fbe 40a5 34bd b02e 9bbc
00000100: 073c 3dbd 8a2f 2f3d 8a6e b3bd 736a 1b3e
00000110: d458 a7bc 9408 5cbc 3f35 7fbc 1dfe ebbc
00000120: a21e a03d 1cb9 313e 47b8 303d a5a2 123e
00000130: 0cb5 d3bd 0907 873c daab 463e 95c3 433c
00000140: 04f2 253e 0085 5c3b a186 1cbe d858 e5bd
00000150: 749a 9b3d b9e8 b4bd e816 493d 6cbb 4d3e
00000160: 8c00 8e3d d87f 9cbc 48fc 503d d0da f0bd
00000170: e1a1 2fbe 621f 1dbe 4f64 2fbe 2095 2b3d
00000180: 58db 223d 02a8 b1bd c374 4cbe 2875 e23d
00000190: 0d34 edbd 7095 0bbd 1a43 2fbe 1fd8 ebbd
000001a0: 4358 803d 14be 9cbe 0313 3fbe 351a 023e
000001b0: a452 c5bd b206 07bd 9e1b bfbd fb32 4cbb
000001c0: 0bdc 37be c82c 423d 08b2 c33c a9f7 c5bc
000001d0: 8b37 223d 03d9 d7bc 42bc 083e 94d5 823d
000001e0: 4cd5 47bb d5d4 3cbd 6323 cc3d 34bb 9c3d
000001f0: b1e7 d9bb 00ac f33c a756 0f3e 10db 133c
00000200: 6931 a93c db90 413d 68d3 2ebd 5c50 38be
00000210: 08a2 3bbd 36f5 e23d 975e 843c 8440 c5bd
00000220: 8b49 203e 902e d53d 8022 9cbc 8a71 63b8
00000230: 1751 7fbc 90ff c83c 6fc2 73bd 965e 0cbe
00000240: 0b69 803b f06a bd3a 4223 b5bc e6c7 68bd
00000250: d742 c63c 75ea 48bc bffc d93d dd03 5a3d
00000260: 65a8 64bd 4c5d 323d 9ab2 5f3d 3c71 3d3c
00000270: f4d2 d5bd 7033 0abe a6e6 203e 16d8 7d3d
00000280: 4b3e 963d 2bbe 683c 53e6 3b3c 579e fa3d
00000290: f636 a73d 9c56 823b 1a68 ebbd 608f febb
000002a0: e256 c9bc 461b aa3c 9a97 c3bd be21 9f3d
000002b0: dff1 013e 7922 f43d 03bc 8c3d d998 a83d
000002c0: 3d8c 12be 190f 66bd 704b e9bd 9d4c 273e
000002d0: d7ab 2d3c eacc babd b50d ca3d 25c0 64bd
000002e0: 707f 04be aec0 4d3e 6128 bd3d d757 00be
000002f0: ca91 bebd 5652 373d 602a ac3d a4f1 2c3d

fc1.bias f4 [24]
-0.24938887 0.015765242 -0.24923185 -0.19462554 -0.2060175 0.15088151 -0.21068712 -0.0077135563
0.06460122 0.22794838 -0.2672581 -0.24271873 -0.20529485 0.24755086 -0.13751248 0.29828835
0.16211565 0.015172724 -0.09282684 -0.19901013 0.1303759 -0.12528507 -0.007900456 0.045104362
00000000: cc5f 7fbe 1c26 813c a236 7fbe eb4b 47be
00000010: 40f6 52be af80 1a3e 5dbe 57be 00c2 fcbb
00000020: a54d 843d 4d6b 693e 0ed6 88be 428b 78be
00000030: d038 52be f97d 7d3e 12d0 0cbe 40b9 983e
00000040: a501 263e 0497 783c 001c bebd 50c9 4bbe
00000050: 4381 053e bb4a 00be ea70 01bc 5abf 383d

fc2.weight f4 [48, 24]
-0.30421904 -0.032936666 0.26462469 0.109762095 -0.3291844 0.14564794 0.32455572 -0.28351712
0.24172027 -0.16711791 0.38433707 -0.13830763 0.26111925 0.13072021 -0.08257563 -0.15191682
0.1014282 0.02321778 -0.15505101 0.0037868365 -0.008062034 -0.2883743 -0.16671093 -0.22036754
-0.01646623 0.016671835 0.03784451 0.12285544 -0.23571293 -0.116140395 0.21099094 -0.24526969
0.064234145 0.21212469 0.14138655 -0.0755456 0.055767618 0.021517681 0.37842378 0.14278072
0.062478207 -0.31559968 0.28222257 -0.019967536 -0.23520303 0.13319269 -0.03515579 0.047897257
-0.21621616 0.16512802 -0.0006717437 0.07257354 -0.037424836 0.0054937657 0.1348591 -0.15494892
-0.11485026 0.19665234 0.12987955 0.018001579 0.15692961 0.030605908 0.14595902 0.22708406
-0.17052838 -0.21037763 0.33288 -0.05361951 -0.077499576 0.22585057 -0.04529771 0.14741878
-0.23517025 -0.0424867 0.24258582 0.21987978 0.000774849 0.17631617 0.10950907 -0.08286519
0.061973974 0.11831218 0.1970404 -0.22917856 0.24549058 -0.0002459457 0.02508 -0.029839018
0.031264775 -0.031271175 0.043561902 -0.3787954 -0.10399753 -0.22978891 0.03816813 0.089285225
-0.39641896 -0.06309702 0.2756483 0.23725994 -0.3408582 -0.0057475674 0.39543274 -0.38736644
0.11208336 -0.09793034 0.27914497 -0.20516898 0.24141094 -0.0073398454 -0.002806305 0.050758496
-0.017892703 -0.12520537 -0.14410493 -0.2898094 0.036382504 -0.29198456 0.08777115 -0.104681976
-0.13791731 0.159422 0.21101826 0.23277706 -0.07040622 -0.09843085 0.028883614 -0.010791881
-0.1437762 0.078322746 -0.026603034 -0.23360008 0.1744423 -0.08054413 0.38407233 0.22815256
-0.02950927 -0.108815715 0.2968849 0.05879528 -0.04022525 0.1598652 0.04165034 0.12622167
-0.20764863 -0.18616784 0.24968405 0.106183976 -0.14252006 0.0058555757 0.16470185 -0.28228304
0.28043666 -0.17380816 0.29772484 -0.1456275 0.31235075 0.10861846 -0.039155785 0.044317875
0.1160564 -0.0003784455 -0.21603622 -0.17095962 0.06663068 -0.13705622 -0.16396391 -0.22009641
-0.1159772 0.14585283 0.20756796 -0.04967217 -0.011601718 -0.22348508 -0.05908503 -0.16866195
-0.06943755 0.14410016 -0.030534236 0.029341385 0.20990147 -0.06738281 0.3900994 0.03696167
-0.14521706 -0.18008137 0.35924497 -0.13915844 -0.21242186 0.15705402 0.08426279 0.23109184
-0.18998101 0.19356962 0.077619575 0.20503978 -0.14167641 -0.021833071 0.21381143 -0.013888028
0.006535092 0.13187513 0.2665257 -0.22200331 0.26858795 0.051986273 0.3927556 0.04552077
-0.20175403 -0.1870533 0.35846576 0.10161746 -0.021877445 0.24543437 -0.01599515 0.072373845
-0.1762029 -0.07735995 0.14840578 0.24290974 -0.33958784 0.073485345 0.17196783 -0.10356987
0.039918575 -0.1418802 0.09891869 -0.19788797 0.11538047 0.09336097 -0.2163565 -0.12940623
0.050384223 -0.009827311 0.04329953 -0.08362429 0.0073262816 -0.36621308 -0.10174742 -0.136472
-0.1021963 0.13500474 0.14753436 0.13733545 -0.03058229 -0.13260841 0.070260726 -0.052511793
-0.11197725 0.08610021 0.055701472 -0.21018085 0.17033961 -0.0904842 0.14507642 0.21267161
00000000: 99c2 9bbe 99e8 06bd e37c 873e f3ca e03d
00000010: dc8a a8be bc24 153e 2b2c a63e 2829 91be
00000020: 8585 773e f520 2bbe d4c7 c43e 84a0 0dbe
00000030: 6cb1 853e 85db 053e 691d a9bd 1590 1bbe
00000040: 97b9 cf3d 3733 be3c b1c5 1ebe 932c 783b
00000050: 9f16 04bc cca5 93be 45b6 2abe 07a8 61be
00000060: 30e4 86bc 5f93 883c d802 1b3d a29b fb3d
00000070: bb5e 71be 04db edbd 020e 583e fa27 7bbe
00000080: 318d 833d 3737 593e a3c7 103e a7b7 9abd
00000090: 966c 643d d945 b03c c3c0 c13e 1c35 123e
000000a0: 26e9 7f3d 4896 a1be 7a7f 903e f592 a3bc
000000b0: 10d9 70be aa63 083e 85ff 0fbd ea2f 443d
000000c0: c567 5dbe 5217 293e f517 30ba 70a1 943d
000000d0: c94a 19bd 0c05 b43b 8118 0a3e eeaa 1ebe
000000e0: 9d36 ebbd 3b5f 493e 25ff 043e 0c78 933c
000000f0: 28b2 203e 3eb9 fa3c 4876 153e b988 683e
00000100: fe9e 2ebe 3c6d 57be 3f6f aa3e 22a0 5bbd
00000110: 19b8 9ebd 5f45 673e 178a 39bd f3f4 163e
00000120: 78d0 70be 8906 2ebd 6b68 783e 2a28 613e
00000130: 3c1f 4b3a 3a8c 343e 4b46 e03d 3ab5 a9bd
00000140: 6cd8 7d3d a84d f23d f5c4 493e c9ad 6abe
00000150: e261 7b3e 46f2 80b9 9274 cd3c f570 f4bc
00000160: 7e0f 003d 3416 00bd f76d 323d 78f1 c1be
00000170: a8fc d4bd c94d 6bbe 2f56 1c3d 2cdb b63d
00000180: 6df7 cabe 0339 81bd c621 8d3e 45f4 723e
00000190: f784 aebe 1756 bcbb 2976 ca3e e554 c6be
000001a0: f68b e53d b48f c8bd 17ec 8e3e d117 52be
000001b0: 6e34 773e 1683 f0bb fce9 37bb 24e8 4f3d
000001c0: b893 92bc d635 00be 3e90 13be e661 94be
000001d0: d205 153d 007f 95be 5cc1 b33d 8163 d6bd
000001e0: 323a 0dbe 853f 233e 2c15 583e 1c5d 6e3e
000001f0: 2331 90bd 1d96 c9bd 549d ec3c 6ed0 30bc
00000200: 113a 13be ad67 a03d 9bee d9bc dc34 6fbe
00000210: 01a1 323e 52f4 a4bd 21a5 c43e d3a0 693e
00000220: 6dbd f1bc c6da debd 4c01 983e 52d3 703d
00000230: 3bc3 24bd b4b3 233e 8c99 2a3d 4140 013e
00000240: d8a1 54be c8a2 3ebe 2dad 7f3e fc76 d93d
00000250: c7f0 11be 21e0 bf3b 9aa7 283e 6787 90be
00000260: 6595 8f3e c4fa 31be 646f 983e 601f 15be
00000270: 70ec 9f3e 5b73 de3d d161 20bd a986 353d
00000280: faae ed3d 186a c6b9 9938 5dbe 0a10 2fbe
00000290: aa75 883d 7758 0cbe 28e6 27be f460 61be
000002a0: 7485 edbd 725a 153e b28c 543e 0c75 4bbd
000002b0: 2215 3ebc 46d9 64be 2503 72bd b8b5 2cbe
000002c0: 4635 8ebd fe8e 133e ef22 fabc 585d f03c
000002d0: 69f0 563e 0000 8abd 1cbb c73e 1f65 173d
000002e0: c8b3 14be 4067 38be f5ee b73e 8d7f 0ebe
000002f0: 1e85 59be c5d2 203e f891 ac3d 57a3 6c3e
00000300: 628a 42be 1d37 463e 03f7 9e3d f3f5 513e
00000310: 9f13 11be 45db b2bc 62f1 5a3e 9d8a 63bc
00000320: 5324 d63b 460a 073e 0e76 883e d654 63be
00000330: 5c84 893e 8fef 543d 4317 c93e fd73 3a3d
00000340: 9c98 4ebe e68a 3fbe d388 b73e d11c d03d
00000350: 5438 b3bc 2653 7b3e 4308 83bc bd38 943d
00000360: 886e 34be e56e 9ebd aff7 173e 55bd 783e
00000370: 75de adbe 7c7f 963d 5618 303e 711c d4bd
00000380: a981 233d 0b49 11be e295 ca3d 25a3 4abe
00000390: 994c ec3d 0934 bf3d 8f8c 5dbe 1183 04be
000003a0: b05f 4e3d bb02 21bc d95a 313d 3643 abbd
000003b0: 4e11 f03b 4880 bbbe f460 d0bd 51bf 0bbe
000003c0: 4b4c d1bd af3e 0a3e 3f13 173e aaa1 0c3e
000003d0: b687 fabc 80ca 07be dbe4 8f3d 9b16 57bd
000003e0: 5454 e5bd 4f55 b03d 3a27 643d a639 57be
000003f0: 826d 2e3e c84f b9bd ea8e 143e 96c6 593e

fc2.bias f4 [48]
0.007200392 0.26866192 -0.035666306 0.22322273 0.061139785 0.03618592 0.15022385 0.09068757
0.123404115 0.23934361 0.020205878 0.2158544 0.31117383 0.028564068 0.22619997 0.00463809
0.28764057 0.35112035 0.11892212 0.17276724 -0.0661908 0.27412403 0.1744217 0.26586926
0.27902082 0.33887225 0.2696684 0.08357023 0.13736176 -0.035901655 0.19401161 0.15490212
0.18945608 0.06472889 0.022703256 0.1308262 0.20236574 0.19158702 0.31798407 0.121462025
0.16917357 0.0033158946 0.273933 0.12861885 0.24600667 0.27510527 0.3455158 0.1404672
00000000: 44f1 eb3b 0e8e 893e d516 12bd 8094 643e
00000010: b66d 7a3d b037 143d 48d4 193e 68ba b93d
00000020: 4cbb fc3d 7e16 753e cc86 a53c f008 5d3e
00000030: 2d52 9f3e 31ff e93c f7a0 673e 1efb 973b
00000040: a045 933e 0cc6 b33e 718d f33d e5e9 303e
00000050: 0b8f 87bd fc59 8c3e 9a9b 323e 0420 883e
00000060: d1db 8e3e aa80 ad3e fa11 8a3e de26 ab3d
00000070: 90a8 0c3e 9d0d 13bd fbaa 463e a99e 1e3e
00000080: c600 423e 9590 843d 2efc b93c 4ef7 053e
00000090: f738 4f3e 632f 443e cfce a23e 15c1 f83d
000000a0: d63b 2d3e 7b4f 593b f240 8c3e a9b4 033e
000000b0: 2ce9 7b3e 99da 8c3e 72e7 b03e a2d6 0f3e

fc3.weight f4 [1, 48]
0.14369036 0.18811476 0.21482876 0.15230176 0.26662377 0.18529007 0.121208735 0.177367
0.21927747 0.15616424 0.16885786 0.12755582 0.20623724 0.15237926 0.19378062 0.2171557
0.16554184 0.18128419 0.1340942 0.27244586 0.17361598 0.15408511 0.20139508 0.10332231
0.19694516 0.18807034 0.12724702 0.18402213 0.17092218 0.13514757 0.15234624 0.15570392
0.13972615 0.18311715 0.20719948 0.14987159 0.111349076 0.25687063 0.17907882 0.15254916
0.22123405 0.29934266 0.19943944 0.15317996 0.10696295 0.19164367 0.1889917 0.12925354
00000000: 9123 133e 28a1 403e 12fc 5b3e fef4 1b3e
00000010: e982 883e aebc 3d3e 493c f83d b29f 353e
00000020: 468a 603e 85e9 1f3e 13e9 2c3e fe9d 023e
00000030: db2f 533e 4f09 1c3e 6d6e 463e 105e 5e3e
00000040: cd83 293e 90a2 393e fd4f 093e 067e 8b3e
00000050: 63c8 313e 7dc8 1d3e 833a 4e3e a69a d33d
00000060: feab 493e 8395 403e 0b4d 023e 4c70 3c3e
00000070: 3906 2f3e 2064 0a3e a700 1c3e d970 1f3e
00000080: 5f14 0f3e 1083 3b3e 1a2c 543e f077 193e
00000090: fc0a e43d 8c84 833e 7060 373e d935 1c3e
000000a0: 2e8b 623e 7143 993e da39 4c3e 35db 1c3e
000000b0: 640f db3d 3d3e 443e 0a87 413e 0a5b 043e

bn1.weight f4 [24]
1.0 1.1259632 1.0 1.0 1.0 1.1353288 1.0 1.0
1.1314447 1.1236496 1.0 1.0 1.0 1.0528971 1.3627222 1.1107993
1.1344708 1.1026627 1.4323347 1.2787243 1.0563068 1.315231 1.0148243 1.1040523
00000000: 0000 803f 901f 903f 0000 803f 0000 803f
00000010: 0000 803f 7452 913f 0000 803f 0000 803f
00000020: 2ed3 903f c0d3 8f3f 0000 803f 0000 803f
00000030: 0000 803f 55c5 863f ae6d ae3f ac2e 8e3f
00000040: 5736 913f 0d24 8d3f be56 b73f 3dad a33f
00000050: 1035 873f 7d59 a83f c3e5 813f 9651 8d3f

bn1.bias f4 [24]
-0.2584989 -0.2071948 0.26586768 0.27013692 -0.2753166 0.20451102 0.28602198 -0.2857889
0.24930303 -0.19539511 0.29511026 -0.2840114 0.26895642 0.19670326 -0.16385613 -0.1919118
0.19917051 -0.18828687 -0.15853174 -0.29412046 0.18144283 -0.25164983 -0.20077108 -0.19865555
00000000: f859 84be e02a 54be cf1f 883e 634f 8a3e
00000010: 4cf6 8cbe 566b 513e 7971 923e ec52 92be
00000020: 4b49 7f3e a815 48be b118 973e f169 91be
00000030: a8b4 893e 946c 493e e7c9 27be 8784 44be
00000040: 5bf3 4b3e 46ce 40be 2556 22be f596 96be
00000050: 26cc 393e 3fd8 80be ef96 4dbe 5c6c 4bbe

bn1.running_mean f4 [24]
0.0 0.17483829 0.0 0.0 0.0 0.11031317 0.0 0.0
0.03652857 0.3970732 0.0 0.0 0.0 0.16760585 0.01760257 0.42050588
0.12571615 6e-45 0.026365308 0.0022116033 0.029726684 0.0036711884 0.04593102 0.13770318
00000000: 0000 0000 cf08 333e 0000 0000 0000 0000
00000010: 0000 0000 dfeb e13d 0000 0000 0000 0000
00000020: fb9e 153d 2e4d cb3e 0000 0000 0000 0000
00000030: 0000 0000 dea0 2b3e 4433 903c 8c4c d73e
00000040: bcbb 003e 0400 0000 0ffc d73c 8cf0 103b
00000050: 6085 f33c 5298 703b 2a22 3c3d 1002 0d3e

bn1.running_var f4 [24]
6e-45 0.0033136327 6e-45 6e-45 6e-45 0.0006215961 6e-45 6e-45
9.773849e-05 0.00048867 6e-45 6e-45 6e-45 0.00010501764 0.0004228288 0.00025731238
0.0006846491 6e-45 0.0005119012 2.933822e-05 0.00017681108 5.6483055e-05 4.758435e-05 0.0004130693
00000000: 0400 0000 8829 593b 0400 0000 0400 0000
00000010: 0400 0000 9cf2 223a 0400 0000 0400 0000
00000020: f4f8 cc38 171a 003a 0400 0000 0400 0000
00000030: 0400 0000 eb3c dc38 1faf dd39 e2e7 8639
00000040: 067a 333a 0400 0000 1c31 063a 591b f637
00000050: 5d66 3939 38e8 6c38 4f95 4738 3991 d839
