financial/finance/trained_models/DDPG__spread__PnL/critic.pth (torch, 8318 bytes, 5 tensors)

fcs1.weight f4 [24, 8]
-0.18691099 -0.059547573 -0.18902542 -0.037818223 0.0033362657 -0.0131545365 -0.100269236 0.14167514
0.114958614 -0.050291523 -0.08065064 0.12833083 0.17759296 -0.18690395 -0.044102907 -0.01894316
-0.07390538 0.17426264 -0.030151457 0.17306638 0.0010091066 -0.022141606 -0.119065955 -0.067872584
0.06577486 0.09029177 -0.0072627664 0.19449824 -0.14128104 0.07826394 0.18384966 -0.035493597
0.16205603 0.003364861 -0.15285732 -0.11198586 0.07597819 -0.08833451 0.024344038 0.1761603
0.06933698 -0.01910393 0.051021844 -0.11760485 -0.17151596 -0.15344003 -0.17128108 0.041890264
0.039759964 -0.08674623 -0.19966416 0.11057502 -0.115821935 -0.03407806 -0.17115441 -0.11515831
0.08515242 -0.19018798 -0.11639969 0.15303805 -0.104684815 -0.084947474 -0.07534752 0.06921994
0.33817804 -0.25987056 -0.112459175 -0.15206386 0.11867628 -0.04720545 0.1410067 0.21219788
0.4963725 -0.46008405 -0.13794205 0.019551087 0.23506853 0.48453164 0.1299709 0.18016927
-0.014170364 0.20319304 0.000963673 -0.16250598 -0.014886424 0.10155028 -0.066630945 -0.10689646
0.16815305 0.107984066 -0.03467925 0.010428488 -0.021588728 0.04739061 0.0072544664 -0.12352266
0.037818953 0.005338818 0.0131973475 -0.07778925 0.052301228 -0.1650642 0.061017424 0.110613525
0.39477402 -0.33992162 -0.18629114 -0.09823395 -0.1347786 -0.04013433 0.2531651 0.24474345
0.11312622 0.14140877 0.07858023 0.11487877 0.13519585 -0.047684968 -0.025948673 0.14555001
-0.45044574 0.24797402 -0.09655944 0.20562635 -0.012806821 0.13216303 -0.06646619 0.06512222
0.18679811 -0.35899478 -0.22656035 0.15276872 0.083855934 -0.16738687 0.06399255 -0.51439565
0.22058499 -0.020551287 -0.044846557 -0.15375927 -0.10940852 0.03004859 0.20589927 -0.05118865
0.33034876 0.04744561 -0.0366749 -0.16561186 -0.031191185 -0.013678684 0.17853539 -0.058681767
0.5666186 -0.48896182 0.058468137 0.06376851 0.12783754 0.09321222 0.14500633 -0.034628455
-0.0017799437 0.054431826 -0.04607372 0.19574392 -0.07871771 -0.18229708 -0.09717864 -0.18944453
0.6258283 -0.43864366 -0.2668826 -0.09407538 -0.02605172 -0.08492225 0.17139407 -0.040383488
0.4802702 -0.078147046 -0.115005225 0.079084024 0.008389346 0.14439288 0.23853983 0.065222405
0.1860134 -0.20272914 -0.022413 0.040558055 -0.17742203 0.09933329 -0.07779467 -0.073828146
00000000: 9865 3fbe 28e8 73bd e18f 41be 48e7 1abd
00000010: 40a5 5a3b 2086 57bc f559 cdbd 4a13 113e
00000020: 6c6f eb3d 7cfe 4dbd 2a2c a5bd 2869 033e
00000030: eeda 353e c063 3fbe 40a5 34bd b02e 9bbc
00000040: b45b 97bd e871 323e 3000 f7bc 5038 313e
00000050: 0044 843a 5062 b5bc dad8 f3bd c800 8bbd
00000060: f8b4 863d e4ea b83d 80fc edbb 8c2a 473e
00000070: faab 10be d848 a03d 1643 3c3e bc61 11bd
00000080: 04f2 253e 0085 5c3b a186 1cbe d858 e5bd
00000090: 749a 9b3d b9e8 b4bd 266d c73c 5e63 343e
000000a0: 8c00 8e3d d87f 9cbc 48fc 503d d0da f0bd
000000b0: e1a1 2fbe 621f 1dbe 4f64 2fbe 2095 2b3d
000000c0: 58db 223d 02a8 b1bd c374 4cbe 2875 e23d
000000d0: 0d34 edbd 7095 0bbd 1a43 2fbe 1fd8 ebbd
000000e0: 6464 ae3d a3c0 42be f662 eebd 02b6 1c3e
000000f0: fe64 d6bd f1f8 adbd cd4f 9abd 2fc3 8d3d
00000100: ac25 ad3e c10d 85be ff50 e6bd a1b6 1bbe
00000110: 8d0c f33d 805a 41bd 0f64 103e 674a 593e
00000120: 8924 fe3e 2390 ebbe ae40 0dbe 9a29 a03c
00000130: ceb5 703e 8814 f83e 1717 053e 4b7e 383e
00000140: d02a 68bc d611 503e 009f 7c3a f867 26be
00000150: 30e6 73bc 98f9 cf3d ce75 88bd 88ec dabd
00000160: 5030 2c3e c026 dd3d d40b 0ebd 40dc 2a3c
00000170: d8da b0bc a81c 423d e0b6 ed3b 73f9 fcbd
00000180: 0ce8 1a3d 40f1 ae3b b039 583c f84f 9fbd
00000190: d039 563d 9706 29be 68ed 793d 5889 e23d
000001a0: d21f ca3e 350a aebe 1bc3 3ebe e22e c9bd
000001b0: 6703 0abe e563 24bd db9e 813e 079e 7a3e
000001c0: b8ae e73d 76cd 103e acee a03d 9045 eb3d
000001d0: c870 0a3e 5051 43bd 5092 d4bc 100b 153e
000001e0: d3a0 e6be e7ec 7d3e f5c0 c5bd b78f 523e
000001f0: b3d3 51bc bf55 073e 6d1f 88bd cc5e 853d
00000200: 0148 3f3e 2ace b7be 70ff 67be 676f 1c3e
00000210: a9bc ab3d 7767 2bbe 870e 833d 6faf 03bf
00000220: 08e1 613e 2c5b a8bc 06b1 37bd 1273 1dbe
00000230: 9311 e0bd 7628 f63c 42d7 523e 31ab 51bd
00000240: 7923 a93e 5456 423d 6c38 16bd 2896 29be
00000250: a884 ffbc 8f1c 60bc fbd1 363e 4b5c 70bd
00000260: eb0d 113f 3459 fabe 497c 6f3d 1199 823d
00000270: d8e7 023e 0ce6 be3d 8a7c 143e 91d6 0dbd
00000280: 004d e9ba e8f3 5e3d ccb7 3cbd 1871 483e
00000290: c036 a1bd 16ac 3abe 9805 c7bd bffd 41be
000002a0: 4936 203f e795 e0be d6a4 88be 98aa c0bd
000002b0: 6b6a d5bc b7eb adbd ed81 2f3e 2869 25bd
000002c0: fae5 f53e 8f0b a0bd dc87 ebbd cef6 a13d
000002d0: 7873 093c badb 133e c943 743e 5393 853d
000002e0: 4c7a 3e3e 3a98 4fbe 789b b7bc 3420 263d
000002f0: 1fae 35be 406f cb3d d052 9fbd 3633 97bd

fcs1.bias f4 [24]
-0.24938887 0.015768439 -0.24923185 -0.19462554 -0.23076746 0.12082511 -0.21068712 -0.025748346
-0.05055297 0.17918888 -0.2672581 -0.24271873 -0.20529485 0.1958981 -0.12709007 0.28240052
0.019742712 -0.0013335968 -0.054321084 -0.09465724 0.04435906 -0.11342961 -0.06299329 0.04511094
00000000: cc5f 7fbe d02c 813c a236 7fbe eb4b 47be
00000010: 4e4e 6cbe 2873 f73d 5dbe 57be 32ee d2bc
00000020: a210 4fbd 4a7d 373e 0ed6 88be 428b 78be
00000030: d038 52be 8399 483e e623 02be cd96 903e
00000040: 78bb a13c 15cc aeba c97f 5ebd a8db c1bd
00000050: d8b1 353d c94d e8bd a002 81bd 40c6 383d

fc2.weight f4 [48, 25]
-0.11451949 0.059007764 -0.10502391 -0.030629247 0.044751547 0.10873616 0.03263837 -0.068900585
-0.031162463 0.074759744 0.026780054 0.12150395 0.054355502 0.11848737 -0.11630846 0.07409776
-0.036678948 -0.010750379 0.051252536 0.2777119 0.028550804 0.43137717 -0.038380485 0.044598445
-0.21866317 0.02266322 0.118906945 0.0973244 0.12360528 0.07813342 -0.011941761 0.03768605
-0.060312122 0.12251702 0.07227051 -0.105643556 0.12480241 -0.0021418482 -0.006416127 -0.03950306
-0.03808207 0.0072241426 -0.0704641 -0.1342638 -0.07434914 -0.028722778 0.108995706 0.106182694
-0.086480185 -0.005542174 -0.041658193 -0.07721605 -0.025381386 -0.050081626 0.080677554 -0.07158249
0.022206739 -0.08145176 -0.05243268 0.103761345 -0.07086053 -0.008679107 0.13784942 0.039030813
-0.07346766 -0.096302524 -0.059546378 -0.054357246 0.05511668 -0.035721734 0.12173307 -0.08342078
-0.05400543 0.052550465 0.10420547 0.13807231 0.023102373 0.00608398 -0.06466835 0.07614747
-0.08366514 -0.037938513 -0.12523992 -0.034604214 0.09967903 0.009805888 0.11506227 0.11485386
0.11396617 0.05776307 -0.050257165 0.10082395 0.11724773 0.108239986 0.3184709 0.021559656
0.3271389 -0.014066975 0.03350632 -0.17583928 0.070032775 -0.0859977 -0.047147937 -0.06845255
0.09447288 -0.1016452 0.07370074 0.057431154 0.08520679 0.014474372 0.07868545 0.11409885
0.028431058 0.025672637 -0.11286245 -0.097586274 0.035988163 0.026987966 -0.008573854 0.12511417
-0.037536472 0.3212552 0.1407917 -0.13034104 -0.013071987 -0.13695815 -0.13803028 -0.09039061
-0.019064575 0.040312603 -0.10977033 0.11120343 0.13052505 0.005359118 0.112691134 -0.065343834
-0.05709918 -0.01862605 0.008555858 -0.100687906 -0.119622245 0.05626621 0.039212186 0.13998534
-0.058970302 0.05097142 -0.05838854 0.06778434 -0.007995591 0.096935816 0.08018944 0.12013903
0.074174434 0.005422741 0.12438613 -0.08478126 0.13613719 0.1410448 0.13788104 -0.06742309
-0.076478444 0.009131998 0.044946402 0.07240364 0.0587025 0.12290192 -0.036162354 -0.047353327
0.048381984 0.040222153 -0.08419609 0.013961002 -0.109588265 -0.04234419 -0.056648612 0.12652391
-0.12992887 -0.08522051 -0.14125307 0.036402702 -0.111095026 0.046699077 -0.10025847 -0.09245989
-0.07373854 0.021660596 0.132629 0.13520277 -0.01090467 -0.1413782 -0.047685534 -0.055008635
-0.030699983 0.055149734 0.07263571 0.06399563 0.04123266 -0.05843188 -0.0015311539 0.018369481
-0.07372624 -0.012911901 -0.0180175 -0.13637197 0.0978497 -0.014592886 -0.12477402 0.11419606
-0.07766429 0.05110185 0.14314139 0.006681755 0.041526437 0.05734946 0.10908905 -0.04428605
-0.08122149 -0.011295408 0.112879336 0.012410417 0.10028738 -0.001073122 0.04428567 0.0050189495
0.003918186 -0.13735445 -0.12618484 0.011998802 0.07143752 0.09331413 0.00626269 0.06084141
0.056959704 -0.12881728 -0.13082767 -0.11191156 0.00248155 -0.09126702 -0.05046041 -0.021594934
0.052036937 0.029773327 0.12979074 0.12682539 -0.09208112 -0.00045470893 0.024426434 0.12181841
-0.04473325 -0.061652884 -0.09143153 0.10635674 -0.040891938 -0.054058053 0.08093308 0.13281417
00000000: 3289 eabd 20b2 713d c716 d7bd 30ea fabc
00000010: 664d 373d 10b1 de3d d0af 053d c01b 8dbd
00000020: 6c48 ffbc a31b 993d d861 db3c 10d7 f83d
00000030: e0a3 5e3d 82a9 f23d 2133 eebd 91c0 973d
00000040: aa3c 16bd 5c22 30bc 2eee 513d 4130 8e3e
00000050: 60e3 e93c 78dd dc3e db34 1dbd dcac 363d
00000060: 3de9 5fbe 38a8 b93c 7c85 f33d 0452 c73d
00000070: c424 fd3d 6a04 a03d 60a7 43bc b05c 1a3d
00000080: d809 77bd 34ea fa3d 9002 943d a65b d8bd
00000090: 6898 ff3d 405e 0cbb 603e d2bb f6cd 21bd
000000a0: f2fb 1bbd 80b8 ec3b 7b4f 90bd 737c 09be
000000b0: 5d44 98bd 084c ebbc 2439 df3d 5076 d93d
000000c0: 861c b1bd 209b b5bb c8a1 2abd 7323 9ebd
000000d0: a0ec cfbc 6422 4dbd 463a a53d d799 92bd
000000e0: e8ea b53c 2ed0 a6bd a6c3 56bd d480 d43d
000000f0: 531f 91bd d032 0ebc 6628 0d3e c6de 1f3d
00000100: 3676 96bd 423a c5bd e7e6 73bd b4a5 5ebd
00000110: 07c2 613d f450 12bd 304f f93d 84d8 aabd
00000120: cc34 5dbd 283f 573d ad69 d53d d462 0d3e
00000130: 3041 bd3c 205c c73b d770 84bd 34f3 9b3d
00000140: a158 abbd 6a65 1bbd e53e 00be 26bd 0dbd
00000150: 8524 cc3d e0a8 203c c4a5 eb3d 8038 eb3d
00000160: 1867 e93d f898 6c3d 75da 4dbd c97c ce3d
00000170: 941f f03d edac dd3d 9e0e a33e e09d b03c
00000180: c07e a73e 2b79 66bc ec3d 093d 360f 34be
00000190: 586d 8f3d 901f b0bd 321e 41bd da30 8cbd
000001a0: ff7a c13d 5c2b d0bd 6af0 963d ee3c 6b3d
000001b0: e680 ae3d eb25 6d3c d625 a13d a8ac e93d
000001c0: 40e8 e83c 6c4f d23c 6e24 e7bd 50db c7bd
000001d0: 5368 133d de15 dd3c 5a79 0cbc ee1d 003e
000001e0: d8bf 19bd 907b a43e b32b 103e 1f78 05be
000001f0: e32b 56bc c23e 0cbe cf57 0dbe b61e b9bd
00000200: 502d 9cbc d41e 253d 44cf e0bd a0be e33d
00000210: 5ca8 053e 8a9b af3b 9cca e63d fdd2 85bd
00000220: d4e0 69bd a895 98bc df2d 0c3c 7635 cebd
00000230: 82fc f4bd 6677 663d f59c 203d 5158 0f3e
00000240: d88a 71bd 68c7 503d d228 6fbd 84d2 8a3d
00000250: f0ff 02bc 4986 c63d 5c3a a43d 740b f63d
00000260: c4e8 973d 40b1 b13b 28be fe3d cca1 adbd
00000270: 8c67 0b3e 0c6e 103e b030 0d3e 1e15 8abd
00000280: bba0 9cbd 609e 153c b819 383d 5c48 943d
00000290: 0872 703d 00b4 fb3d fa1e 14bd 90f5 41bd
000002a0: 302c 463d fcbf 243d 006f acbd b0bc 643c
000002b0: d06f e0bd 1a71 2dbd 6008 68bd 7c8f 013e
000002c0: 130c 05be 1788 aebd a5a4 10be 001b 153d
000002d0: ca85 e3bd 8847 3f3d 5054 cdbd 9c5b bdbd
000002e0: 3b04 97bd 9071 b13c e6cf 073e 9872 0a3e
000002f0: 80a9 32bc 72c5 10be e851 43bd bc50 61bd
00000300: 887e fbbc b0e4 613d 08c2 943d 2410 833d
00000310: 94e3 283d 4456 6fbd 00b1 c8ba 987b 963c
00000320: c8fd 96bd 708c 53bc 7099 93bc 18a5 0bbe
00000330: 6c65 c83d 0017 6fbc 8589 ffbd a0df e93d
00000340: 750e 9fbd 2c50 513d a893 123e a0f2 da3b
00000350: a017 2a3d 44e7 6a3d 146a df3d 4a65 35bd
00000360: 7457 a6bd 6010 39bc 482d e73d 1055 4b3c
00000370: 7863 cd3d 00a8 8cba e464 353d 0076 a43b
00000380: 2064 803b a5a6 0cbe 9936 01be a096 443c
00000390: d64d 923d 7b1b bf3d 4037 cd3b d834 793d
000003a0: 944e 693d ade8 03be b0f7 05be e331 e5bd
000003b0: 80a1 223b 34ea babd 93af 4ebd dce7 b0bc
000003c0: af24 553d 31e7 f33c dde7 043e 84de 013e
000003d0: 0795 bcbd 0066 eeb9 f219 c83c ee7b f93d
000003e0: 363a 37bd bc87 7cbd 7440 bbbd 90d1 d93d
000003f0: 4e7e 27bd fa6b 5dbd 3ec0 a53d 7000 083e

fc2.bias f4 [48]
0.081362784 -0.19982767 -0.12840874 0.018368471 -0.045852844 -0.16715384 -0.088522315 -0.09341083
-0.19815242 0.014873959 0.108479075 0.09616966 -0.09502659 -0.18365304 -0.1613554 0.037108753
0.099381596 -0.08099451 -0.108829 -0.10669129 -0.017313749 -0.18993095 -0.1764889 0.24709825
-0.09538322 -0.07620405 -0.070372485 -0.17570125 -0.03525862 0.07073317 -0.08121152 -0.05039511
-0.00095669925 -0.19910097 0.15777628 0.17800154 0.16182654 -0.1473303 0.13262102 -0.18738449
-0.04947734 -0.040676862 -0.08903586 0.10599396 -0.09113157 -0.023180768 -0.057750672 -0.1878166
00000000: 88a1 a63d a09f 4cbe 957d 03be 7a79 963c
00000010: 31d0 3bbd 602a 2bbe 304b b5bd 2d4e bfbd
00000020: 78e8 4abe e8b1 733c 472a de3d 99f4 c43d
00000030: 4d9d c2bd 8b0f 3cbe 5a3a 25be 59ff 173d
00000040: 9488 cb3d 73e0 a5bd bde1 debd f780 dabd
00000050: 90d5 8dbc 427d 42be 82b9 34be 5307 7d3e
00000060: 4758 c3bd de10 9cbd 731f 90bd 07eb 33be
00000070: 586b 10bd 8ddc 903d 3a52 a6bd 1a6b 4ebd
00000080: 00cb 7aba 20e1 4bbe 1b90 213e 0946 363e
00000090: dbb5 253e c1dd 16be cecd 073e b8e1 3fbe
000000a0: c0a8 4abd c89c 26bd 6f58 b6bd 5c13 d93d
000000b0: 30a3 babd 98e5 bdbc f88b 6cbd ff52 40be

fc3.weight f4 [1, 48]
-0.05126961 0.00061960355 0.005084619 -0.2707263 -0.017955132 0.014613479 -0.002375276 0.0018330682
-0.0027678376 -0.01013138 -0.19109479 0.05761668 0.0027105305 -0.002230152 -0.00058909925 0.27995777
-0.08705754 0.0026735552 -0.001323458 -0.00040165288 -0.0019610557 -0.0013917879 0.002927538 0.41183618
0.00022089179 -0.086695276 -0.0016306828 0.0022648429 -0.00044978526 0.18647459 -0.0023874675 -0.1953333
0.0014225626 0.0018069865 0.02035944 0.04258633 0.04663644 -0.3446696 0.060945835 -0.00074702525
-0.0014157457 0.0024627955 0.017108213 0.2709381 0.0002678968 -0.00065212627 -0.00025655003 0.0016822778
00000000: 1500 52bd e46c 223a e09c a63b a39c 8abe
00000010: a416 93bc 606d 6f3c 85aa 1bbb 9043 f03a
00000020: 9c64 35bb 16fe 25bc 5aae 43be 78ff 6b3d
00000030: 28a3 313b be27 12bb c86d 1aba a056 8f3e
00000040: 394b b2bd d036 2f3b e277 adba f094 d2b9
00000050: 0e85 00bb a76c b6ba f0db 3f3b 31dc d23e
00000060: 309f 6739 4b8d b1bd a3bc d5ba c26d 143b
00000070: 28d1 ebb9 32f3 3e3e 0f77 1cbb 7405 48be
00000080: 4875 ba3a 68d8 ec3a d7c8 a63c 016f 2e3d
00000090: da05 3f3d 8978 b0be 57a2 793d 04d4 43ba
000000a0: 8b90 b9ba da66 213b 8626 8c3c 66b8 8a3e
000000b0: 8074 8c39 74f3 2aba 9081 86b9 e07f dc3a
