financial/finance/trained_models/DDPG__volume__RunningInventoryPenalty/actor.pth (torch, 8116 bytes, 5 tensors)

fc1.weight f4 [24, 8]
-0.17299037 0.11902565 0.109096795 0.19122186 -0.06854546 0.010380164 0.039986014 0.2037605
0.058521613 0.013224298 -0.03771777 0.056455873 0.21102118 0.20423022 -0.08963309 0.6986705
0.15130109 0.002959311 -0.12651113 0.19932735 0.16374251 0.08837411 -0.11150557 0.16080478
0.018578544 0.13497382 0.08519465 0.10839164 -0.17911404 -0.11318299 0.12242785 -0.04252638
-0.17758387 0.18563035 -0.00441429 0.16466367 -0.15954687 0.070278674 -0.076887175 -0.08589858
0.0013552164 -0.09377234 0.11222132 -0.121396154 -0.10319779 -0.17932948 -0.08897993 0.5996755
-0.18691099 -0.059547573 -0.18902542 -0.037818223 0.0033362657 -0.0131545365 -0.100269236 0.14167514
0.114958614 -0.050291523 -0.08065064 0.12833083 0.17759296 -0.18690395 -0.044102907 -0.01894316
-0.07390538 0.17426264 -0.030151457 0.17306638 0.0010091066 -0.022141606 -0.119065955 -0.067872584
0.06520602 0.09427291 0.09845314 0.15016152 -0.44123128 -0.253341 0.2227058 0.89363354
0.16205603 0.003364861 -0.15285732 -0.11198586 0.07597819 -0.08833451 0.04909411 0.20091027
0.06933698 -0.01910393 0.051021844 -0.11760485 -0.17151596 -0.15344003 -0.17128108 0.041890264
0.039759964 -0.08674623 -0.19966416 0.11057502 -0.115821935 -0.03407806 -0.17115441 -0.11515831
0.13651362 -0.14037295 -0.0009922766 0.06335375 -0.42077562 -0.4105135 -0.12572515 0.92412865
0.005656061 0.036175292 -0.06024953 0.110336244 0.26219875 0.21320325 0.045429185 0.61119556
0.15555803 -0.35649532 -0.13435943 0.18133605 0.1556772 0.1902589 0.23680085 -0.20573144
-0.087983675 -0.028170623 0.004545109 -0.085354485 0.19872664 0.2774943 0.055466972 0.044760846
0.014618322 0.03599065 -0.017322311 0.08002515 0.23068924 0.20588194 -0.106787935 0.44364008
-0.030971011 0.054791547 -0.041756187 0.05302159 0.17132296 0.14243753 -0.073495544 0.65948796
0.0023764924 -0.02996865 0.07088471 0.11321178 0.13736132 0.07381835 0.031794865 0.6503757
0.0785305 0.08192322 0.007309508 0.076571785 0.24506187 0.19000126 -0.14499511 0.68385345
0.008004618 -0.02817942 0.019289434 0.168802 0.25257233 0.19166219 0.009680876 0.6444907
-0.09898577 -0.10194143 -0.18741858 0.010600816 -0.2504383 -0.32928085 0.03260093 0.6462707
0.026045393 -0.026787141 -0.0017962535 -0.21775733 -0.34237483 -0.1103381 0.07340558 0.810616
00000000: 6324 31be b8c3 f33d 246e df3d aacf 433e
00000010: 9061 8cbd 9011 2a3c 60c8 233d 98a6 503e
00000020: 5cb4 6f3d baaa 583c f37d 1abd 463e 673d
00000030: f015 583e ba21 513e 8e91 b7bd 12dc 323f
00000040: acee 1a3e 00f1 413b 228c 01be 781c 4c3e
00000050: 1eac 273e 7cfd b43d 085d e4bd 02aa 243e
00000060: 0832 983c 9436 0a3e 887a ae3d 70fc dd3d
00000070: ac69 37be 7ccc e7bd 74bb fa3d 2430 2ebd
00000080: 8cd8 35be e215 3e3e c0a5 90bb 989d 283e
00000090: 4160 23be 44ee 8f3d 0677 9dbd 98eb afbd
000000a0: 84a1 b13a b60b c0bd 4bd4 e53d 8c9e f8bd
000000b0: 5d59 d3bd 26a2 37be 1c3b b6bd 5584 193f
000000c0: 9865 3fbe 28e8 73bd e18f 41be 48e7 1abd
000000d0: 40a5 5a3b 2086 57bc f559 cdbd 4a13 113e
000000e0: 6c6f eb3d 7cfe 4dbd 2a2c a5bd 2869 033e
000000f0: eeda 353e c063 3fbe 40a5 34bd b02e 9bbc
00000100: b45b 97bd e871 323e 3000 f7bc 5038 313e
00000110: 0044 843a 5062 b5bc dad8 f3bd c800 8bbd
00000120: bc8a 853d 2812 c13d cda1 c93d f1c3 193e
00000130: 11e9 e1be e9b5 81be fd0c 643e 2bc5 643f
00000140: 04f2 253e 0085 5c3b a186 1cbe d858 e5bd
00000150: 749a 9b3d b9e8 b4bd e816 493d 6cbb 4d3e
00000160: 8c00 8e3d d87f 9cbc 48fc 503d d0da f0bd
00000170: e1a1 2fbe 621f 1dbe 4f64 2fbe 2095 2b3d
00000180: 58db 223d 02a8 b1bd c374 4cbe 2875 e23d
00000190: 0d34 edbd 7095 0bbd 1a43 2fbe 1fd8 ebbd
000001a0: 3aca 0b3e edbd 0fbe 470f 82ba 9cbf 813d
000001b0: e76f d7be d32e d2be 18be 00be b293 6c3f
000001c0: 7b56 b93b 8b2c 143d 36c8 76bd f8f7 e13d
000001d0: ea3e 863e f451 5a3e f413 3a3d 5077 1c3f
000001e0: 9b4a 1f3e 8e86 b6be 8595 09be 28b0 393e
000001f0: d869 1f3e 3bd3 423e ec7b 723e 43ab 52be
00000200: c930 b4bd 14c6 e6bc 23ef 943b 55ce aebd
00000210: ff7e 4b3e bc13 8e3e 5631 633d 2657 373d
00000220: b081 6f3c ef6a 133d 85e7 8dbc 3ae4 a33d
00000230: cd39 6c3e b7d2 523e a2b3 dabd cb24 e33e
00000240: ebb6 fdbc 1a6d 603d 8908 2bbd 2b2d 593d
00000250: 496f 2f3e 25db 113e d584 96bd 34d4 283f
00000260: edbe 1b3b d080 f5bc 012c 913d 94db e73d
00000270: 72a8 0c3e 132e 973d 553b 023d 067f 263f
00000280: 99d4 a03d 5cc7 a73d 9984 ef3b abd1 9c3d
00000290: 80f1 7a3e b18f 423e 9979 14be 0511 2f3f
000002a0: cd25 033c 87d8 e6bc e004 9e3c 6eda 2c3e
000002b0: 2951 813e 1843 443e 899c 1e3c 58fd 243f
000002c0: 0db9 cabd abc6 d0bd a8ea 3fbe 0caf 2d3c
000002d0: 7339 80be 8097 a8be 8e88 053d ff71 253f
000002e0: 265d d53c b570 dbbc 4470 ebba c7fb 5ebe
000002f0: c14b afbe f1f8 e1bd aa55 963d 8884 4f3f

fc1.bias f4 [24]
-0.24938887 -0.22064781 -0.24923185 -0.19462554 -0.2060175 -0.06093278 -0.21068712 -0.0077135563
0.014873326 0.124958426 -0.2672581 -0.24271873 -0.20529485 0.031131376 -0.3424535 0.5607772
0.32940298 -0.13136424 -0.23276052 -0.29999003 -0.16844699 -0.27794415 -0.16013707 -0.22113396
00000000: cc5f 7fbe 80f1 61be a236 7fbe eb4b 47be
00000010: 40f6 52be a794 79bd 5dbe 57be 00c2 fcbb
00000020: 40af 733c 34ea ff3d 0ed6 88be 428b 78be
00000030: d038 52be 3a07 ff3c 1156 afbe 188f 0f3f
00000040: 82a7 a83e 5984 06be c658 6ebe 4b98 99be
00000050: 5e7d 2cbe b24e 8ebe f9fa 23be f170 62be

fc2.weight f4 [48, 24]
-0.0724986 0.06969692 0.025173262 -0.12636456 -0.09353723 0.031592146 0.08931239 -0.04637043
0.06979205 -0.0893901 0.13812146 0.102846876 0.027035475 0.06421471 0.05025211 -0.08517319
-0.0012586117 0.03848912 -0.032579042 0.13841185 -0.055661827 -0.1289035 -0.06871567 -0.1339575
0.1189411 0.38102219 -0.10155205 -0.015602708 -0.09725587 -0.5976711 0.07358475 -0.10836801
0.06806849 -0.13558458 -0.00032375753 0.06409116 -0.08085193 -0.24835423 1.0420779 0.037812572
0.075542115 1.8166689 1.3847018 0.4761928 0.6394005 0.6511497 -0.5821624 -0.5966823
-0.11451949 0.08584397 -0.10502391 -0.030629247 0.06411928 0.038491137 0.03263837 -0.053844072
-0.06278184 0.038764074 0.026780054 0.12150395 0.054355502 0.077215314 -0.013483846 0.06405656
-0.1451079 -0.16969676 0.019739361 0.013176767 0.04469973 0.26437002 -0.1699673 0.02445778
-0.11600472 0.67022836 0.118906945 0.0973244 0.12360528 -0.24753416 -0.011941761 0.03768605
-0.060312122 -0.008805183 0.07227051 -0.105643556 0.12480241 -0.21685688 0.97963506 0.020095916
-0.017362792 1.6082186 1.0893141 0.4821638 0.8842719 0.7392284 -0.21569689 -0.23426668
-0.086480185 -0.005542174 -0.041658193 -0.07721605 -0.025381386 -0.050081626 0.080677554 -0.07158249
0.022206739 -0.08145176 -0.045048483 0.11362597 -0.07086053 -0.008679107 0.13784942 0.04940203
-0.07346766 -0.08666071 -0.050615452 -0.045199193 0.06284268 -0.03208983 0.12173307 -0.079195365
-0.045134895 0.06905493 0.11527586 0.13807231 0.023102373 -0.075273514 -0.06466835 0.08155343
-0.08366514 -0.09134313 -0.120636865 -0.13875793 0.08067775 -0.041454513 0.20990935 0.05189642
-0.014341355 -0.10131848 -0.029854447 0.107749276 0.07456204 0.17889394 -0.10616636 -0.011742608
0.0006404072 -0.23399793 0.03350632 -0.10610908 0.070032775 -0.56870115 -0.047147937 -0.06845255
0.113927245 -0.15244408 0.07370074 0.07238966 0.1020574 -0.20271482 -0.34073728 0.3187774
0.104482315 -0.21385649 -0.47420964 -0.17557244 -0.3094003 -0.035193503 -0.70336884 -0.757536
-0.037536472 0.08236542 0.12428483 -0.13034104 0.06891173 -0.19672823 -0.13803028 -0.09039061
-0.019064575 0.0021441025 -0.10977033 0.11120343 0.13052505 -0.02582425 0.21600546 -0.11153653
-0.12305357 -0.1032011 0.037727084 -0.060457595 -0.097512014 0.18390675 -0.019453792 0.123987004
-0.05884829 0.059840508 -0.058245756 0.07125217 -0.007995591 0.020843612 0.08018944 0.12013903
0.074174434 -0.055496003 0.12438613 -0.08478126 0.13613719 0.081891246 0.22723235 -0.13697098
-0.17134194 -0.15419175 0.04524421 0.09683715 0.055933807 0.24349293 -0.14372806 -0.08892997
0.048381984 0.08510513 -0.08419609 0.013961002 -0.109588265 -0.079542816 -0.056648612 0.12652391
-0.12992887 -0.1023283 -0.14125307 0.036402702 -0.111095026 0.034440182 0.014643976 -0.11913719
-0.11609693 -0.0056580035 0.17584288 0.19281718 0.027293434 0.0037137992 -0.06732407 -0.047687113
-0.030699983 0.08239128 0.07263571 0.06399563 0.04123266 -0.12346941 -0.0015311539 0.018369481
-0.07372624 -0.052495204 -0.0180175 -0.13637197 0.0978497 -0.050934907 -0.023309266 0.06509066
00000000: 257a 94bd 42bd 8e3d 2838 ce3c b665 01be
00000010: 7290 bfbd c466 013d 6ae9 b63d ecee 3dbd
00000020: 22ef 8e3d 2812 b7bd b66f 0d3e 62a1 d23d
00000030: 8079 dd3c 0083 833d 28d5 4d3d 486f aebd
00000040: 00f8 a4ba c4a6 1d3d 9a71 05bd d6bb 0d3e
00000050: a8fd 63bd 47ff 03be cdba 8cbd 282c 09be
00000060: 6497 f33d 5715 c33e 85fa cfbd 80a2 7fbc
00000070: 162e c7bd f900 19bf 9ab3 963d 0cf0 ddbd
00000080: 7e67 8b3d afd6 0abe 00be a9b9 3a42 833d
00000090: b295 a5bd 9250 7ebe cf62 853f 5be1 1a3d
000000a0: d3b5 9a3d 9b88 e83f e93d b13f 8bcf f33e
000000b0: c0af 233f bfb1 263f 9808 15bf 2cc0 18bf
000000c0: 3289 eabd f7ce af3d c716 d7bd 30ea fabc
000000d0: f850 833d e2a8 1d3d d0af 053d 9a8b 5cbd
000000e0: c493 80bd 14c7 1e3d d861 db3c 10d7 f83d
000000f0: e0a3 5e3d 1023 9e3d 59eb 5cbc 1630 833d
00000100: 2a97 14be fdc4 2dbe 71b4 a13c 5ee3 573c
00000110: 1017 373d 825b 873e e80b 2ebe af5b c83c
00000120: e293 edbd 1694 2b3f 7c85 f33d 0452 c73d
00000130: c424 fd3d 9879 7dbe 60a7 43bc b05c 1a3d
00000140: d809 77bd 9d43 10bc 9002 943d a65b d8bd
00000150: 6898 ff3d bb0f 5ebe 5dc9 7a3f 31a0 a43c
00000160: 6a3c 8ebc 1bda cd3f a56e 8b3f 2cde f63e
00000170: a55f 623f 133e 3d3f a5df 5cbe 9be3 6fbe
00000180: 861c b1bd 209b b5bb c8a1 2abd 7323 9ebd
00000190: a0ec cfbc 6422 4dbd 463a a53d d799 92bd
000001a0: e8ea b53c 2ed0 a6bd c284 38bd bcb4 e83d
000001b0: 531f 91bd d032 0ebc 6628 0d3e c859 4a3d
000001c0: 3676 96bd 2c7b b1bd 2652 4fbd ca22 39bd
000001d0: aab3 803d a070 03bd 304f f93d 2e31 a2bd
000001e0: 5edf 38bd ac6c 8d3d c015 ec3d d462 0d3e
000001f0: 3041 bd3c 0029 9abd d770 84bd 7c05 a73d
00000200: a158 abbd 1b12 bbbd 7610 f7bd 8f16 0ebe
00000210: 603a a53d 35cc 29bd 7af2 563e 5791 543d
00000220: 01f8 6abc 1080 cfbd 5091 f4bc a7ab dc3d
00000230: fcb3 983d f92f 373e c06d d9bd 1164 40bc
00000240: 00e1 273a 279d 6fbe ec3d 093d b84f d9bd
00000250: 586d 8f3d 6696 11bf 321e 41bd da30 8cbd
00000260: b052 e93d 4d1a 1cbe 6af0 963d 0841 943d
00000270: 7803 d13d 7994 4fbe 1e75 aebe cb36 a33e
00000280: d3fa d53d 32fd 5abe 9bcb f2be 43c9 33be
00000290: b769 9ebe 1027 10bd fb0f 34bf e1ed 41bf
000002a0: d8bf 19bd 34af a83d 0c89 fe3d 1f78 05be
000002b0: 9821 8d3d 2073 49be cf57 0dbe b61e b9bd
000002c0: 502d 9cbc 1284 0c3b 44cf e0bd a0be e33d
000002d0: 5ca8 053e 618d d3bc 8930 5d3e 446d e4bd
000002e0: 8303 fcbd 195b d3bd b787 1a3d 62a2 77bd
000002f0: 61b4 c7bd 0d52 3c3e 8f5d 9fbc e6ec fd3d
00000300: e80a 71bd 521b 753d 1a93 6ebd a8ec 913d
00000310: f0ff 02bc 39c0 aa3c 5c3a a43d 740b f63d
00000320: c4e8 973d c74f 63bd 28be fe3d cca1 adbd
00000330: 8c67 0b3e 99b6 a73d 99af 683e 1f42 0cbe
00000340: 4374 2fbe 71e4 1dbe fe51 393d 8e52 c63d
00000350: d91a 653d 3656 793e 732d 13be eb20 b6bd
00000360: 302c 463d 994b ae3d 006f acbd b0bc 643c
00000370: d06f e0bd 58e7 a2bd 6008 68bd 7c8f 013e
00000380: 130c 05be 8091 d1bd a5a4 10be 001b 153d
00000390: ca85 e3bd 2611 0d3d 4aed 6f3c 33fe f3bd
000003a0: 3ac4 edbd c666 b9bb 2810 343e de71 453e
000003b0: 7b96 df3c 3663 733b 34e1 89bd 9053 43bd
000003c0: 887e fbbc c2bc a83d 08c2 943d 2410 833d
000003d0: 94e3 283d 88dd fcbd 00b1 c8ba 987b 963c
000003e0: c8fd 96bd 3605 57bd 7099 93bc 18a5 0bbe
000003f0: 6c65 c83d 1fa1 50bd 13f3 bebc 404e 853d

fc2.bias f4 [48]
-0.16133076 0.14099923 -0.16412354 0.16472206 -0.19445755 -0.09180291 0.2375711 -0.009249101
-0.046515055 0.033837613 -0.06869952 -0.056086835 0.3050406 -0.13207895 0.0069335005 -0.012169159
0.22899507 0.27764234 0.14150271 -0.15186274 -0.118964896 0.2466582 0.14692956 0.31193796
-0.036682706 0.17988704 0.22549722 -0.1326485 -0.12505586 -0.06382139 -0.061138578 -0.018352762
-0.103439905 -0.09860053 -0.18243098 0.09689341 0.15777999 -0.026513422 0.22686446 -0.08523702
-0.100123346 -0.1856456 0.042294517 0.0057455143 0.20501561 0.26839045 0.19554882 0.009182364
00000000: e433 25be 1a62 103e 0010 28be e6ac 283e
00000010: e11f 47be 2a03 bcbd d745 733e 8b89 17bc
00000020: 9286 3ebd 4f99 0a3d 55b2 8cbd 4fbb 65bd
00000030: 482e 9c3e b43f 07be 6b32 e33b 2761 47bc
00000040: af7d 6a3e 2327 8e3e 16e6 103e e881 1bbe
00000050: dea3 f3bd f893 7c3e b474 163e 55b6 9f3e
00000060: 9b40 16bd 4f34 383e bee8 663e 02d5 07be
00000070: a50e 00be cab4 82bd 726c 7abd 8858 96bc
00000080: 4dd8 d3bd 13ef c9bd 30cf 3abe 0d70 c63d
00000090: 1491 213e ad32 d9bc 284f 683e bf90 aebd
000000a0: 780d cdbd e119 3ebe 043d 2d3d de44 bc3b
000000b0: 9def 513e 796a 893e f33d 483e a071 163c

fc3.weight f4 [1, 48]
0.0007126394 2.5137663 -0.055188473 1.5572206 0.0024590208 -0.04569355 1.0287766 -0.04915395
-0.04684346 -0.04004718 -0.045053072 0.60491365 3.4628375 -0.00026857713 -0.38492423 -0.21088816
1.2535899 1.5946155 -1.4517323 -0.11830906 -0.4183383 2.4357555 1.7115062 1.4158628
0.6457498 1.6518699 2.3766878 -0.00018905033 0.64084387 -0.24359928 0.612942 0.0010316111
0.59272265 -0.3503183 1.2151897e-05 2.6833317 3.3545272 -0.024082398 1.3946162 -0.00011953176
0.65001893 0.76249236 0.0007887094 -0.274205 2.6922028 1.3431317 2.3407986 0.0011900873
00000000: 6cd0 3a3a 8ce1 2040 4f0d 62bd 0153 c73f
00000010: 8627 213b 2929 3bbd f4ae 833f a755 49bd
00000020: eede 3fbd 8308 24bd 9289 38bd 9fdb 1a3f
00000030: 219f 5d40 d0cf 8cb9 ca14 c5be 11f3 57be
00000040: a275 a03f 5c1c cc3f 5dd2 b9bf 054c f2bd
00000050: 7030 d6be 6be3 1b40 a312 db3f fe3a b53f
00000060: dc4f 253f 7970 d33f a71b 1840 d03b 46b9
00000070: 580e 243f 1772 79be c4e9 1c3f 2037 873a
00000080: acbc 173f ec5c b3be 00e0 4b37 b5bb 2b40
00000090: 93b0 5640 7348 c5bc c982 b23f 20ad fab8
000000a0: a467 263f b332 433f 64c1 4e3a 9964 8cbe
000000b0: 0d4d 2c40 bdeb ab3f a5cf 1540 b4fc 9b3a
