financial/finance/trained_models/DDPG__spread__ExponentialUtility/actor.pth (torch, 8116 bytes, 5 tensors)

fc1.weight f4 [24, 8]
00000000: 6324 31be b8c3 f33d 246e df3d aacf 433e
00000010: 9061 8cbd 9011 2a3c 60c8 233d 98a6 503e
00000020: 84df cd3d a809 4dbe 7650 87be 64ee 82be
00000030: 2328 02be fabf 083e b1a5 503e e090 b13e
00000040: acee 1a3e 00f1 413b 228c 01be 781c 4c3e
00000050: 1eac 273e 7cfd b43d 085d e4bd 02aa 243e
00000060: 0832 983c 9436 0a3e 887a ae3d 70fc dd3d
00000070: ac69 37be 7ccc e7bd 74bb fa3d 2430 2ebd
00000080: 8cd8 35be e215 3e3e c0a5 90bb 989d 283e
00000090: 4160 23be 44ee 8f3d 0677 9dbd 98eb afbd
000000a0: ef4c 06be cfca 2fbe 020a a53c b49e e3bd
000000b0: 2c82 023e b0a7 143c a74b db3d e153 093d
000000c0: 9865 3fbe 28e8 73bd e18f 41be 48e7 1abd
000000d0: 40a5 5a3b 2086 57bc f559 cdbd 4a13 113e
000000e0: 6c6f eb3d 7cfe 4dbd 2a2c a5bd 2869 033e
000000f0: eeda 353e c063 3fbe 40a5 34bd b02e 9bbc
00000100: b45b 97bd e871 323e 3000 f7bc 5038 313e
00000110: 0044 843a 5062 b5bc dad8 f3bd c800 8bbd
00000120: 8266 a5bc 53cf 5cbb c1fa c6bd 3aa6 fc3d
00000130: a59a 2dbe 20ae 263d c64a a13e 3c66 e03d
00000140: 04f2 253e 0085 5c3b a186 1cbe d858 e5bd
00000150: 749a 9b3d b9e8 b4bd e816 493d 6cbb 4d3e
00000160: 8c00 8e3d d87f 9cbc 48fc 503d d0da f0bd
00000170: e1a1 2fbe 621f 1dbe 4f64 2fbe 2095 2b3d
00000180: 58db 223d 02a8 b1bd c374 4cbe 2875 e23d
00000190: 0d34 edbd 7095 0bbd 1a43 2fbe 1fd8 ebbd
000001a0: 2504 2fbb e570 92be 232d 55be 0ba6 a43d
000001b0: d06d 08be eaaf fbbd c090 a13d 9459 743e
000001c0: 88b2 5abe 51e2 89bd 770e 06ba 0d8c adbd
000001d0: d71c 163b 1103 4ebe 370c 753e 39f3 6f3e
000001e0: 532d ebbd df55 88be 4a86 3bbc 1329 753d
000001f0: 780c 83bd 04b8 6e3d 2a5c 5f3e b90a 983d
00000200: 9b8a d2bd 0983 da3d a3c7 babd 4ec8 70be
00000210: b952 2fbd 697c 823d 7d09 983d 95f4 423d
00000220: a53c c33d 5320 c33c 1927 f0bd 8bca 62bd
00000230: 13c9 6bbd 43c8 093c 870b fe3d 393a 0a3c
00000240: b212 50bd 1ed7 babd 64aa a1bd 4e2a 1abe
00000250: 9d30 c53c bc27 50be 8877 503e 5159 873e
00000260: b695 e2bd 1c2e 82be a867 bcbd b076 92bd
00000270: 2d8b 50be c545 3abe 3b38 a83e 0cc4 9a3e
00000280: 6218 d63c f186 3d3d e1e6 4bbc 5ec9 2f3d
00000290: 279f d93d 21d5 afbd eb7e e23d aea1 993e
000002a0: b6fe 76bd 1c14 51be 2595 6abe a281 823d
000002b0: 6182 173e bbe1 093e da8b 253e 5b36 8e3e
000002c0: 8505 8bbe 9210 76be a368 92be 814c c03d
000002d0: ec2e 05bd db71 07be 2801 4d3e 9427 8c3d
000002e0: ae46 5abe 0161 57bc a5d8 51bd c03b 5dbe
000002f0: 8eed 29be 1564 6b3d 80f1 903e 857c 213e
-0.17299037 0.11902565 0.109096795 0.19122186 -0.06854546 0.010380164 0.039986014 0.2037605
0.10052398 -0.20023215 -0.26428574 -0.25572503 -0.12710623 0.13354483 0.20375706 0.34680843
0.15130109 0.002959311 -0.12651113 0.19932735 0.16374251 0.08837411 -0.11150557 0.16080478
0.018578544 0.13497382 0.08519465 0.10839164 -0.17911404 -0.11318299 0.12242785 -0.04252638
-0.17758387 0.18563035 -0.00441429 0.16466367 -0.15954687 0.070278674 -0.076887175 -0.08589858
-0.13115285 -0.17167209 0.020146374 -0.111142546 0.12744969 0.009073183 0.10707789 0.03352726
-0.18691099 -0.059547573 -0.18902542 -0.037818223 0.0033362657 -0.0131545365 -0.100269236 0.14167514
0.114958614 -0.050291523 -0.08065064 0.12833083 0.17759296 -0.18690395 -0.044102907 -0.01894316
-0.07390538 0.17426264 -0.030151457 0.17306638 0.0010091066 -0.022141606 -0.119065955 -0.067872584
-0.020190481 -0.003369291 -0.09715796 0.12336393 -0.16953523 0.040693402 0.3150236 0.10957
0.16205603 0.003364861 -0.15285732 -0.11198586 0.07597819 -0.08833451 0.04909411 0.20091027
0.06933698 -0.01910393 0.051021844 -0.11760485 -0.17151596 -0.15344003 -0.17128108 0.041890264
0.039759964 -0.08674623 -0.19966416 0.11057502 -0.115821935 -0.03407806 -0.17115441 -0.11515831
-0.0026705351 -0.28601757 -0.20818 0.08039483 -0.1332314 -0.12289412 0.07888937 0.23862296
-0.21357167 -0.067326196 -0.000511385 -0.08473978 0.0022905373 -0.20118357 0.23930441 0.23432626
-0.11483254 -0.26628014 -0.011445591 0.059853625 -0.063988626 0.05828096 0.21812502 0.0742392
-0.10280343 0.10669524 -0.09120109 -0.2351391 -0.0428035 0.063713856 0.07423685 0.047596533
0.095330514 0.023819124 -0.11726207 -0.05536894 -0.057564806 0.0084095625 0.124045424 0.008436733
-0.05079908 -0.091230616 -0.078938276 -0.150552 0.024071032 -0.20327657 0.20358098 0.2643533
-0.11063711 -0.25425804 -0.09199458 -0.07151544 -0.20365591 -0.18190677 0.328554 0.30227697
0.026134674 0.04627127 -0.012445183 0.042916648 0.10626059 -0.08585573 0.11059364 0.30006164
-0.060301505 -0.20417827 -0.22908457 0.06372382 0.1479583 0.13465016 0.1616663 0.27775845
-0.2715265 -0.24029759 -0.28595456 0.09389592 -0.03251545 -0.13227026 0.20019972 0.068434864
-0.21316025 -0.013145686 -0.051232 -0.21604824 -0.16594526 0.057468493 0.2830925 0.15770157

fc1.bias f4 [24]
00000000: cc5f 7fbe 4425 1a3e a236 7fbe eb4b 47be
00000010: 40f6 52be 2da6 843e 5dbe 57be 00c2 fcbb
00000020: 40af 733c 66a8 b73e 0ed6 88be 428b 78be
00000030: d038 52be 293d c43e e0b4 a03c 0c70 e13e
00000040: 5963 893e 29f4 243e 55ed 0e3e d562 8e3d
00000050: ebc8 383e 5e3f 3f3d 7b56 033e 8dc5 303e
-0.24938887 0.15053278 -0.24923185 -0.19462554 -0.2060175 0.25908032 -0.21068712 -0.0077135563
0.014873326 0.35870665 -0.2672581 -0.24271873 -0.20529485 0.38327911 0.019617498 0.44030797
0.2683361 0.16108765 0.13957722 0.069524445 0.18045394 0.04669129 0.12825958 0.1726286

fc2.weight f4 [48, 24]
00000000: 257a 94bd 42bd 8e3d 2838 ce3c b665 01be
00000010: 7290 bfbd c466 013d 6ae9 b63d ecee 3dbd
00000020: 22ef 8e3d 2812 b7bd b66f 0d3e 62a1 d23d
00000030: 8079 dd3c 0083 833d 28d5 4d3d 486f aebd
00000040: 00f8 a4ba c4a6 1d3d 9a71 05bd d6bb 0d3e
00000050: a8fd 63bd 47ff 03be cdba 8cbd 282c 09be
00000060: 6497 f33d 0898 883d 85fa cfbd 80a2 7fbc
00000070: 162e c7bd 84be 633d 9ab3 963d 0cf0 ddbd
00000080: 7e67 8b3d c2d7 683e 00be a9b9 3a42 833d
00000090: b295 a5bd 12c4 743e 9d1b 923e b664 203e
000000a0: 74a3 873e 48a3 3d3b a92f ef3d 55ac 213e
000000b0: a91b 403c 153a 663e c44b a93d 5aba 9b3d
000000c0: 3289 eabd 938d 433e c716 d7bd 30ea fabc
000000d0: f850 833d f4d0 723e d0af 053d 9a8b 5cbd
000000e0: c493 80bd 4d3e 503e d861 db3c 10d7 f83d
000000f0: e0a3 5e3d 27ec 783e 03c8 ef3c 8658 743e
00000100: ed8a 833d a4c9 d63d 4f32 093e e001 d23d
00000110: 9e55 2a3e a559 913e 1c54 483d b96b 313e
00000120: e293 edbd 5ab5 1c3e 7c85 f33d 0452 c73d
00000130: c424 fd3d d210 553e 60a7 43bc b05c 1a3d
00000140: d809 77bd c16c 793e 9002 943d a65b d8bd
00000150: 6898 ff3d 786a fc3d 8bfd 0c3e 8c7a a73d
00000160: 1508 c13d ca3d 1c3e 8d45 7a3d 5fa1 c8bb
00000170: 6d4d 7c3d 8877 ff3d 227e 7b3e ddf5 6e3e
00000180: 861c b1bd 209b b5bb c8a1 2abd 7323 9ebd
00000190: a0ec cfbc 6422 4dbd 463a a53d d799 92bd
000001a0: e8ea b53c 2ed0 a6bd c284 38bd bcb4 e83d
000001b0: 531f 91bd d032 0ebc 6628 0d3e c859 4a3d
000001c0: 3676 96bd 2c7b b1bd 2652 4fbd ca22 39bd
000001d0: aab3 803d a070 03bd 304f f93d 2e31 a2bd
000001e0: 5edf 38bd 2cbb 3c3e c015 ec3d d462 0d3e
000001f0: 3041 bd3c c2a6 0c3e d770 84bd 7c05 a73d
00000200: a158 abbd 6a29 ad3d 7610 f7bd 8f16 0ebe
00000210: 603a a53d 0ce2 0b3e bb31 853e 6340 733e
00000220: 8064 563e b441 513e a270 c33d 851d 533e
00000230: 1dad 533e 0789 513e 6bf3 083e 44bd 193e
00000240: 00e1 273a e286 d6bd ec3d 093d b84f d9bd
00000250: 586d 8f3d 901f b0bd 321e 41bd da30 8cbd
00000260: b052 e93d 5c2b d0bd 6af0 963d 0841 943d
00000270: 7803 d13d 1821 143d d625 a13d a8ac e93d
00000280: 40e8 e83c 4c05 493d 6e24 e7bd 4c94 1ebd
00000290: 606c 563c 6042 8f3c bedf 50bd 7985 12be
000002a0: d8bf 19bd 053f 3c3e 0c89 fe3d 1f78 05be
000002b0: 9821 8d3d 9a9b 0fbc cf57 0dbe b61e b9bd
000002c0: 502d 9cbc 758b 233e 44cf e0bd a0be e33d
000002d0: 5ca8 053e e3c0 073e 7009 853e 685c 5e3d
000002e0: b879 963d 752c 003e 2411 153e bfc9 d23c
000002f0: ecd0 963c c3b4 553e 0e8e 343e 6a88 883e
00000300: e80a 71bd 2f45 383e 1a93 6ebd a8ec 913d
00000310: f0ff 02bc 153d 713e 5c3a a43d 740b f63d
00000320: c4e8 973d 3332 003e 28be fe3d cca1 adbd
00000330: 8c67 0b3e 8abc 873e 3bb2 8f3e 7955 573d
00000340: 8436 5f3d 65f8 1c3e ad58 333e 1bfc 4b3e
00000350: 80c7 453e 6dcf 8c3e d2c9 ca3d 4fc3 a03d
00000360: 302c 463d e357 303e 006f acbd b0bc 643c
00000370: d06f e0bd 6794 b63d 6008 68bd 7c8f 013e
00000380: 130c 05be d91e 193d a5a4 10be 001b 153d
00000390: ca85 e3bd 08d3 313e 82c6 393d 8f9e f83c
000003a0: 365e 763d 728d 2c3e 9912 883e d4a0 873e
000003b0: c6d3 013e 865d 623c 8959 b93d 65ff 963d
000003c0: 887e fbbc c14c 3f3e 08c2 943d 2410 833d
000003d0: 94e3 283d 1c02 953d 00b1 c8ba 987b 963c
000003e0: c8fd 96bd f32e e03d 7099 93bc 18a5 0bbe
000003f0: 6c65 c83d 5896 e53d 4721 a63c ef76 723e
-0.0724986 0.06969692 0.025173262 -0.12636456 -0.09353723 0.031592146 0.08931239 -0.04637043
0.06979205 -0.0893901 0.13812146 0.102846876 0.027035475 0.06421471 0.05025211 -0.08517319
-0.0012586117 0.03848912 -0.032579042 0.13841185 -0.055661827 -0.1289035 -0.06871567 -0.1339575
0.1189411 0.06669623 -0.10155205 -0.015602708 -0.09725587 0.05560161 0.07358475 -0.10836801
0.06806849 0.22738555 -0.00032375753 0.06409116 -0.08085193 0.2390292 0.28536692 0.15663418
0.26491892 0.0028936435 0.11679012 0.15788396 0.011725345 0.22483094 0.08266404 0.07603903
-0.11451949 0.19096975 -0.10502391 -0.030629247 0.06411928 0.23712522 0.03263837 -0.053844072
-0.06278184 0.20336266 0.026780054 0.12150395 0.054355502 0.24308835 0.029270178 0.23861894
0.06422982 0.10487679 0.13398097 0.10254264 0.16634223 0.28388706 0.048908338 0.17326249
-0.11600472 0.15303555 0.118906945 0.0973244 0.12360528 0.20807198 -0.011941761 0.03768605
-0.060312122 0.24357893 0.07227051 -0.105643556 0.12480241 0.12324995 0.13768594 0.08177671
0.0942537 0.15257946 0.061101485 -0.0061227526 0.061597276 0.12473971 0.24559835 0.23335977
-0.086480185 -0.005542174 -0.041658193 -0.07721605 -0.025381386 -0.050081626 0.080677554 -0.07158249
0.022206739 -0.08145176 -0.045048483 0.11362597 -0.07086053 -0.008679107 0.13784942 0.04940203
-0.07346766 -0.08666071 -0.050615452 -0.045199193 0.06284268 -0.03208983 0.12173307 -0.079195365
-0.045134895 0.18430775 0.11527586 0.13807231 0.023102373 0.13735488 -0.06466835 0.08155343
-0.08366514 0.08455165 -0.120636865 -0.13875793 0.08067775 0.13660449 0.26014504 0.2375503
0.20936775 0.2043522 0.095429674 0.2061673 0.20671506 0.20462428 0.13374107 0.15013605
0.0006404072 -0.104749456 0.03350632 -0.10610908 0.070032775 -0.0859977 -0.047147937 -0.06845255
0.113927245 -0.1016452 0.07370074 0.07238966 0.1020574 0.036164373 0.07868545 0.11409885
0.028431058 0.049077317 -0.11286245 -0.038715646 0.013087362 0.017487705 -0.050994627 -0.14308728
-0.037536472 0.18383415 0.12428483 -0.13034104 0.06891173 -0.008765126 -0.13803028 -0.09039061
-0.019064575 0.15971167 -0.10977033 0.11120343 0.13052505 0.13257174 0.25983763 0.054287344
0.07347435 0.12516959 0.1455732 0.025730966 0.018410169 0.20869736 0.17632315 0.26666576
-0.05884829 0.17995141 -0.058245756 0.07125217 -0.007995591 0.23558457 0.08018944 0.12013903
0.074174434 0.1251915 0.12438613 -0.08478126 0.13613719 0.2651103 0.28065667 0.052571747
0.05449535 0.1532913 0.17514296 0.1992039 0.19314384 0.27502003 0.099017754 0.07849752
0.048381984 0.17221026 -0.08419609 0.013961002 -0.109588265 0.08915024 -0.056648612 0.12652391
-0.12992887 0.037382934 -0.14125307 0.036402702 -0.111095026 0.17365658 0.045355327 0.030349044
0.06014844 0.16850832 0.2657669 0.2648989 0.12678441 0.013816243 0.090502806 0.073729314
-0.030699983 0.18681623 0.07263571 0.06399563 0.04123266 0.07275793 -0.0015311539 0.018369481
-0.07372624 0.10946455 -0.0180175 -0.13637197 0.0978497 0.112103164 0.02027954 0.23678182

fc2.bias f4 [48]
00000000: e433 25be 0c75 8e3e c851 c8ba 812c 7a3e
00000010: e11f 47be 38ba a33d 40c9 0d3b 6912 173e
00000020: 722b 043e b9f3 373e 3a3e bd3d d57d 273e
00000030: ea9a a23e b43f 07be 8097 36bc f093 9fbd
00000040: 24a9 953e 0969 933e 8240 c53d 1631 1b3d
00000050: 700c 993c 6c81 853e 304e 66bc a2b8 9d3e
00000060: 4b8e 6d3e 108e 963e 994f 8d3e 02d5 07be
00000070: d73e 333e b363 fa3c d5c8 5e3e 8858 96bc
00000080: 9449 053e a0f2 bbbc 30cf 3abe e8ec 433e
00000090: 0bf9 253e b7cb 043e 814a 823e bf90 aebd
000000a0: 1c58 3e3e 4e90 1b3d 043d 2d3d 634a 8b3d
000000b0: 682f 843e 315e 963e 8ee9 953e a071 163c
-0.16133076 0.27823675 -0.0015283162 0.2443104 -0.19445755 0.07994503 0.0021634847 0.14753117
0.12907198 0.17964067 0.092403844 0.16356595 0.31758815 -0.13207895 -0.011144519 -0.07791889
0.29230607 0.28791073 0.096314445 0.03788861 0.018682688 0.26075304 -0.014056727 0.30804926
0.23198812 0.2940526 0.2759979 -0.1326485 0.1750444 0.030565118 0.21756299 -0.018352762
0.13016349 -0.022942841 -0.18243098 0.19133341 0.16208284 0.12968336 0.25447467 -0.08523702
0.18588299 0.037979417 0.042294517 0.068012975 0.25817418 0.29368737 0.2927975 0.009182364

fc3.weight f4 [1, 48]
00000000: 6cd0 3a3a 540c e33d ddf8 063e e32d e63d
00000010: 8627 213b 4558 013e 983d c9b9 16e7 ff3d
00000020: f2e0 fb3d 7981 013e 82ac 013e c7d1 033e
00000030: 18c2 e53d d0cf 8cb9 184a 8a3a a898 253b
00000040: b2fb e03d 12c2 e13d 092e eb3d e3cc fe3d
00000050: eb60 2d3e cb72 ed3d 4058 b5b8 2f00 e83d
00000060: 48b6 f73d 24dc e63d 5a63 ea3d d03b 46b9
00000070: 4398 f73d 4ad2 013e f159 ee3d 2037 873a
00000080: 96b8 fb3d c492 0f3e 00e0 4b37 0051 ef3d
00000090: 0b8b 013e 4bce f93d 4248 ef3d 20ad fab8
000000a0: 4c62 f33d de1a 343e 64c1 4e3a 8c9b 093e
000000b0: a141 fa3d 3568 e53d a009 e93d b4fc 9b3a
0.0007126394 0.11086336 0.13180871 0.11239221 0.0024590208 0.12631328 -0.00038383598 0.12495248
0.12298764 0.12647046 0.12663463 0.12872992 0.11218661 -0.00026857713 0.0010550646 0.0025267992
0.10985507 0.11023344 0.1148339 0.12441423 0.16931503 0.11594161 -8.6471904e-05 0.1132816
0.12095314 0.11272457 0.11444731 -0.00018905033 0.120895885 0.12677875 0.11638249 0.0010316111
0.12291066 0.1402083 1.2151897e-05 0.116853714 0.12650697 0.121975504 0.11683704 -0.00011953176
0.11883983 0.17588374 0.0007887094 0.13438243 0.12219549 0.112015165 0.11378789 0.0011900873
