financial/finance/trained_models/TD3__percent__ShortfallPenalties/actor.pth (torch, 9687 bytes, 9 tensors)

fc1.weight f4 [24, 8]
000000 42 f7 36 be a9 41 d7 3d 07 4e cf 3d 1d 3e 35 3e
       -0.17867759 0.105105706 0.101223044 0.17699476
000010 cb f0 b3 bd f7 15 15 bc eb 9b 57 3d 3d 34 38 3e
       -0.08786162 -0.009099475 0.05263893 0.17988677
000020 5a 41 6e 3e 35 06 8e bd fb 12 0a be cc 37 09 be
       0.23267117 -0.06934778 -0.13483803 -0.13400191
000030 d8 05 81 bd 51 58 6e 3e bf 6b 11 3e ee a6 df 3d
       -0.06299943 0.23275878 0.14201258 0.10920511
000040 7b 9d 3d 3e 16 6e 0a 3d 1c 3b ac bd bc 8d 67 3e
       0.18517105 0.033796392 -0.08409712 0.22612661
000050 41 95 3c 3e 9d e2 f1 3d f4 58 70 bd aa d9 45 3e
       0.18416311 0.11810801 -0.058678582 0.19321314
000060 08 32 98 3c 94 36 0a 3e 88 7a ae 3d 70 fc dd 3d
       0.018578544 0.13497382 0.08519465 0.10839164
000070 ac 69 37 be 7c cc e7 bd 74 bb fa 3d 24 30 2e bd
       -0.17911404 -0.11318299 0.12242785 -0.04252638
000080 8c d8 35 be e2 15 3e 3e c0 a5 90 bb 98 9d 28 3e
       -0.17758387 0.18563035 -0.00441429 0.16466367
000090 41 60 23 be 44 ee 8f 3d 06 77 9d bd 98 eb af bd
       -0.15954687 0.070278674 -0.076887175 -0.08589858
0000a0 c1 12 91 bd ee 00 c3 bd 66 bd a7 3d a5 da 2f bd
       -0.07083655 -0.09521662 0.08190422 -0.042933125
0000b0 0f b3 fb 3d 21 48 f9 3b e1 26 16 be 70 0b b1 bd
       0.12290012 0.0076074754 -0.14663269 -0.0864476
0000c0 4d bd 21 be be b9 36 bd b0 27 32 be 60 91 1e bd
       -0.15794869 -0.04461073 -0.17397952 -0.03871286
0000d0 24 ee ec bb 20 5d 78 bc fb f4 f3 bd 4c a7 b3 3d
       -0.007230537 -0.0151589215 -0.11911961 0.08772144
0000e0 6c 6f eb 3d 7c fe 4d bd 2a 2c a5 bd 28 69 03 3e
       0.114958614 -0.050291523 -0.08065064 0.12833083
0000f0 ee da 35 3e c0 63 3f be 40 a5 34 bd b0 2e 9b bc
       0.17759296 -0.18690395 -0.044102907 -0.01894316
000100 b4 5b 97 bd e8 71 32 3e 30 00 f7 bc 50 38 31 3e
       -0.07390538 0.17426264 -0.030151457 0.17306638
000110 00 44 84 3a 50 62 b5 bc da d8 f3 bd c8 00 8b bd
       0.0010091066 -0.022141606 -0.119065955 -0.067872584
000120 aa f1 89 3d 97 53 ae 3d fa 81 8e bc 7e 04 26 3e
       0.06735547 0.08512037 -0.017395962 0.16212651
000130 24 df d0 bd 24 04 aa 3d f1 fc 13 bc a1 c4 14 bd
       -0.10198811 0.08301571 -0.009032474 -0.036320332
000140 04 4b 16 3e 3d 4d be bc f6 8f 2f be 01 13 1b be
       0.14677054 -0.02323019 -0.1714476 -0.15143968
000150 cb ec b2 3c b8 f7 02 be dc 6c a1 3b ef 9a cb 3d
       0.021841427 -0.1278981 0.004926307 0.099416606
000160 ff 14 d4 3d 8a 5f ed 3c cf d7 b8 3d 73 cb bb bd
       0.10355567 0.02897622 0.09025537 -0.09169664
000170 ba e6 0d be f5 1e ff bd 89 cc db bd 53 ce 6f 3d
       -0.13857546 -0.124570765 -0.10732371 0.058546375
000180 58 db 22 3d 02 a8 b1 bd c3 74 4c be 28 75 e2 3d
       0.039759964 -0.08674623 -0.19966416 0.11057502
000190 0d 34 ed bd 70 95 0b bd 1a 43 2f be 1f d8 eb bd
       -0.115821935 -0.03407806 -0.17115441 -0.11515831
0001a0 ef 89 f8 3d 61 b2 22 be 36 b2 9b bd 3a 1e 49 3e
       0.12135684 -0.15888359 -0.076023504 0.19640437
0001b0 5c 52 7f bd 61 b9 97 bc 55 67 45 3c b9 1c 00 3e
       -0.062334403 -0.018521013 0.012048562 0.12510957
0001c0 28 05 af bd 34 14 91 3c 9f e2 be 3d cf 9c bd 3c
       -0.08545905 0.017709829 0.09320568 0.023146061
0001d0 8b 04 85 3d 5d 7a 6b bd b5 2e 04 3e 64 17 62 3d
       0.06495007 -0.05748974 0.12908442 0.05519809
0001e0 2e bb b8 3c 2e c0 e8 bd 25 10 00 3e fd 58 31 3e
       0.022550192 -0.1136478 0.12506159 0.17319103
0001f0 0f 29 91 3d c4 04 34 3e 5d 7f 16 bd 61 f9 2f bc
       0.070879094 0.17579943 -0.036742557 -0.010740609
000200 cf ff 01 bb ca 0d 2d 3e ee 4f 47 3c 02 c3 e2 bd
       -0.0019836312 0.16899791 0.012165053 -0.11072351
000210 7d 88 c1 3c 51 93 7f 3d 04 0b 0e be 5a 2e 6f bd
       0.023624653 0.06239635 -0.1387139 -0.058393814
000220 92 7e ea 3d d1 e4 71 3d ef 89 bc bc a4 6b 83 3c
       0.114499226 0.059056107 -0.02301499 0.016042538
000230 16 c1 e9 bc ca 49 84 3c bc 95 27 bd ea d9 58 bd
       -0.028534453 0.016148467 -0.040914282 -0.052942194
000240 92 45 b1 3d 01 a3 66 3d f9 51 86 3d 5b 65 98 bc
       0.086558476 0.056307796 0.06558604 -0.018603018
000250 80 05 b2 3d 64 95 8d bd b7 dd d0 3d b4 19 71 3d
       0.08692455 -0.069132596 0.10198539 0.058862403
000260 37 f4 ab 3c 84 4e df bd bc 34 3b 3d d4 d4 81 3d
       0.020990474 -0.109036475 0.04570459 0.06339422
000270 01 77 bc bd 0f 64 1f bd 47 8a 77 3e bb f4 ca 3d
       -0.09202386 -0.038913783 0.24173842 0.0990996
000280 32 7e 03 3e 00 fd 19 3e 04 53 bc 3d a5 fd 03 3e
       0.12841108 0.15037918 0.091955215 0.12889726
000290 66 66 f2 3d 76 07 e2 bc 36 9c 15 3d d8 72 e3 3d
       0.11835937 -0.027591448 0.036525927 0.11105889
0002a0 dc 6e 1b 3d ea 85 ff bd d2 86 0d be a9 4d f9 3d
       0.03794752 -0.12476714 -0.13820961 0.121730156
0002b0 cd e7 30 3e 0a 6a 2d 3e e9 94 4b 3d 38 9f 08 3d
       0.17275925 0.16934982 0.04970256 0.033354968
0002c0 ab 42 0d be e3 21 da bd 6a 9a 02 be 44 7c 25 3e
       -0.13794963 -0.10650995 -0.12754217 0.16160685
0002d0 88 07 b7 3c fd 2a 9b bd 5b 89 6f bc 23 7e c7 bc
       0.022342458 -0.07576559 -0.01462015 -0.024352139
0002e0 e7 a5 c3 bd d8 a7 90 3d 5a 65 72 3d 23 13 a0 bd
       -0.09553128 0.07063264 0.059178688 -0.0781615
0002f0 e8 66 5b bd bd a0 04 3e 99 9a 45 3d 34 eb 82 bc
       -0.053564936 0.12951942 0.04824314 -0.015981294

fc1.bias f4 [24]
000000 50 5b 87 be b5 73 72 3c f1 b7 60 be eb 4b 47 be
       -0.26436853 0.0147980945 -0.21945168 -0.19462554
000010 40 f6 52 be c1 e7 b8 3d ca ea 80 be 00 c2 fc bb
       -0.2060175 0.090285785 -0.2517913 -0.0077135563
000020 40 af 73 3c 70 b5 91 3e 3e 28 ae be 97 a0 5c be
       0.014873326 0.28458738 -0.34015077 -0.21545635
000030 d0 38 52 be f0 62 7d 3e e2 34 fc bd 7f e3 af 3e
       -0.20529485 0.24744773 -0.12314774 0.34353253
000040 90 02 bb 3d 3e 08 be 3d dd e6 91 b9 d7 aa 6a bd
       0.09131348 0.09278916 -0.00027828562 -0.05729183
000050 5e b7 36 3d 4e 5d 0e be 81 67 a3 3d 3a af 31 3e
       0.044608466 -0.1390278 0.07978726 0.17352

fc2.weight f4 [48, 24]
000000 87 48 50 bc 2c 43 16 3e 69 7b ad 3d d6 7c b0 3d
       -0.012712604 0.14674062 0.08470804 0.086175606
000010 63 96 9b be 96 3e ab bc d6 40 fb 3d 2a 2a 2a 3e
       -0.30388173 -0.020903867 0.12268226 0.16617647
000020 95 d5 14 be c3 96 6b be 32 2e 43 3e 73 38 fe 3d
       -0.145346 -0.2300673 0.19060591 0.124131106
000030 1d 5d 69 3e f1 47 08 3e c3 4d 46 3e ef 75 24 be
       0.22789426 0.13308693 0.19365601 -0.16060613
000040 9c b3 c7 bd a0 8f 16 be e2 fc 5a 3d ea e5 8f 3e
       -0.09751055 -0.14703226 0.053463824 0.28105098
000050 be 1a 97 3c dc 67 a2 bd 63 12 7d be c6 18 6c be
       0.018445369 -0.07929966 -0.24714045 -0.23056325
000060 a7 ae 56 3e 5f 19 38 3d 5d 5c 17 bc 2c e3 22 3e
       0.20965062 0.04494607 -0.00923833 0.15906972
000070 65 c6 8b be fd c0 d7 bd 7b cd 14 3e 1a 74 96 3d
       -0.272998 -0.105348565 0.1453151 0.07346363
000080 e9 fa 02 be 3e 8d 21 3c ce 15 ac 3d bd e8 1d 3e
       -0.12791027 0.009860335 0.084025964 0.15420814
000090 93 f3 ad 3d d2 a3 4c 3e 2c 85 ab 3e bd 1b e9 bc
       0.08493724 0.19984367 0.3350004 -0.02845561
0000a0 67 f5 fe 3b 3a b6 9e be 74 f4 cb 3d a2 91 59 3e
       0.007780719 -0.30998403 0.09958735 0.21246961
0000b0 d4 fc 01 bd 84 88 20 3e 52 53 42 be ae b7 da bd
       -0.031735256 0.15677077 -0.18977097 -0.10679565
0000c0 3e e0 00 be 73 75 66 3d c5 07 ff bd 73 d3 d3 bb
       -0.12585542 0.056264352 -0.12452654 -0.0064644157
0000d0 ed e2 63 3d ee b1 13 3e 18 b6 8d 3c 9f 88 40 bd
       0.055636335 0.14423344 0.017298743 -0.047005292
0000e0 f8 fc 88 bd a6 2e ef 3d e2 d1 72 3c 5d fe dc 3d
       -0.06688875 0.11678819 0.014820548 0.107907034
0000f0 24 72 81 3d 14 4f cb 3d c5 9f f9 bd bb 5c 17 3e
       0.06320599 0.09927192 -0.12188677 0.14781468
000100 e2 e6 81 bd 8c d6 fc bc ff c8 6f 3c f0 b5 97 3a
       -0.063428655 -0.030864023 0.014635324 0.0011574607
000110 d8 fd 82 3c 7c e9 fd 3d ec f1 d9 bd 7d 7f a7 bc
       0.015990183 0.12398049 -0.10641846 -0.020446533
000120 a9 f1 2b be ed 7d d6 bb 1b d4 83 3d 5d f0 4b 3e
       -0.16791405 -0.0065457732 0.0643694 0.1991591
000130 e9 8b 88 3c 8c 8d 0b 3e 24 a2 85 bd e0 e4 16 3e
       0.016668277 0.13628215 -0.065250665 0.14735746
000140 84 89 34 be 58 25 3a 3e c8 b5 b0 3c eb 00 30 be
       -0.17630583 0.18178308 0.021571055 -0.1718785
000150 22 12 67 3e d6 41 0e bd f9 6a 56 bc d8 ba 34 3c
       0.22565511 -0.034730755 -0.013087028 0.011030875
000160 7a ba 06 3d 20 2c b2 3c 5f c9 c5 bd f8 b8 14 be
       0.03289268 0.021749556 -0.09657549 -0.14523685
000170 0a 1a d3 bd 23 24 93 bd 50 d2 e4 3d 93 3e 4d 3b
       -0.10307701 -0.07184627 0.111729264 0.0031317815
000180 52 ae ae be fa e8 48 be dd 9d 90 be 97 1b 6e 3e
       -0.3411737 -0.19620124 -0.2824544 0.23252712
000190 07 53 b3 be 0d c0 0a bd 8e 87 2a be 20 31 86 3e
       -0.35024282 -0.03387456 -0.16653273 0.26209354
0001a0 05 81 a9 be 3e 41 2e 3e ee db 98 be 26 3d 06 be
       -0.33106247 0.17017075 -0.29855293 -0.13109264
0001b0 3a b9 77 3e 5f 2c 85 be 31 57 75 3d 4f 6f a9 3e
       0.24191752 -0.26010415 0.059897605 0.33092734
0001c0 9a ca bc bd b2 cb ea bd 14 69 6d be ec a8 2e be
       -0.09218331 -0.11464633 -0.23184615 -0.17056626
0001d0 b7 0f 39 be 5d 15 96 be 35 97 98 3e 88 34 21 3e
       -0.18072401 -0.29313174 0.29802862 0.15742695
0001e0 8c ee 89 be 7f c1 01 be e0 7b c3 bd 6a bf ca 3e
       -0.2693981 -0.12671469 -0.09545112 0.39599162
0001f0 bd 06 77 be 62 2c b9 3c 13 62 94 be 5f e7 b4 3e
       -0.24123664 0.022604171 -0.28981075 0.35332772
000200 ec 8c be be fa ce 93 3d 13 f4 ae be 93 1b b9 be
       -0.3721689 0.07217212 -0.3417059 -0.3615385
000210 d9 1a a9 3e 05 1c 38 be 16 e5 5b 3d ec da 9b 3e
       0.33028296 -0.17979439 0.05368527 0.30440462
000220 e3 ca 9c 3d 40 76 78 bd c0 0f 5c be f7 16 06 bd
       0.07655885 -0.060659647 -0.21490383 -0.032736745
000230 80 4c ed bd 00 4a 2e be c3 44 26 3d f3 89 3b 3e
       -0.11586857 -0.17020416 0.04059292 0.18314342
000240 97 dc 54 bb 74 f1 e7 bd ca 0d da 3c e0 b3 98 bd
       -0.0032480115 -0.113253504 0.026617903 -0.074561834
000250 11 65 55 3d b1 aa 1c be e5 ee 78 bd 17 35 52 bd
       0.052098338 -0.15299489 -0.060774703 -0.05132016
000260 55 19 c9 3d 4d 24 e7 bd 45 e3 9a 3d fd cd 4b bd
       0.09819285 -0.11286221 0.075628795 -0.049756993
000270 55 49 f3 3d ad 49 0a 3d e0 f8 4e 39 1f 72 c7 3d
       0.11879221 0.03376167 0.00019738404 0.09738564
000280 ae 56 fc 3b 03 b6 f3 3c ee 42 f5 bd d7 87 dc bd
       0.0077007627 0.029749876 -0.119756564 -0.10768097
000290 b9 27 59 3c 60 ef 59 3c b9 3d 9e bd 9f 25 18 be
       0.0132540995 0.0133017 -0.077266164 -0.14858101
0002a0 6e 22 8b be 15 46 0b be 78 4e a0 bd 57 b4 d1 3d
       -0.27174705 -0.13600953 -0.07827467 0.10239475
0002b0 ce a7 2f be bd 98 fc bd be e9 b2 be ed 36 20 3e
       -0.17153856 -0.1233382 -0.34943956 0.15645953
0002c0 7e 77 8f be 93 99 92 3e c0 5f aa be a6 1a c8 bd
       -0.28020853 0.28632793 -0.33276176 -0.09770708
0002d0 0d 1a b9 3e 86 f5 5c be 70 ec 6d 3d 22 93 46 3e
       0.36152688 -0.21578035 0.058086812 0.19392064
0002e0 38 aa 91 bd a4 27 89 bd 20 6c 33 be f4 13 70 be
       -0.07112545 -0.06697014 -0.17521715 -0.23445112
0002f0 b5 7e aa be 45 f0 2d be 1d c0 49 3e fa 71 a2 3e
       -0.33299795 -0.16986187 0.19702192 0.31727582
000300 67 fe 95 bb 05 0c 05 3e 21 b9 ab bb 32 d5 99 3e
       -0.0045774463 0.12992866 -0.005240575 0.30045468
000310 23 50 6e be c0 5c 5c 3d 90 7f d8 3d 86 04 b2 3e
       -0.23272757 0.05379939 0.105712056 0.34769076
000320 6a 94 1f be 33 b3 ec bd 50 e1 2d 3e 03 71 8b bd
       -0.15583959 -0.11557617 0.16980481 -0.06808665
000330 45 f6 b3 3e 99 b8 53 3e 0d 63 92 3e 56 c2 00 be
       0.35148826 0.20675887 0.28591195 -0.12574133
000340 0a c2 2e be 67 1b 38 be 4d f4 07 3e 2c 72 62 3e
       -0.17066208 -0.17979203 0.13276787 0.22113866
000350 fd 67 05 3e 3e cb 2c 3e 96 39 54 be 40 f1 d3 bd
       0.1302795 0.16874406 -0.20725092 -0.10348749
000360 b8 62 08 be 5a 27 ca bd 1f 1f 81 be c4 eb 8e 3e
       -0.13318908 -0.09870787 -0.25219056 0.2791425
000370 7f 89 c5 be 39 d8 c7 bd 7d 5e 87 be 22 b6 d0 3e
       -0.38581464 -0.09758038 -0.26439276 0.40763956
000380 23 41 d7 be 2b 13 c6 bd 91 ab a5 be 42 77 7a be
       -0.42041883 -0.09671625 -0.32357457 -0.24459556
000390 eb cb 16 3e 61 f7 c1 bd bc 14 a5 bd 0f 5f 30 bc
       0.14726226 -0.09471012 -0.080605954 -0.010764851
0003a0 34 bf 34 be 23 9e e3 bd 7d 01 aa 3c b6 9d 03 3e
       -0.17651063 -0.111141466 0.020752663 0.1285313
0003b0 9b 3a 03 be 16 0f a9 be 22 b1 08 be ba ab 17 bd
       -0.12815325 -0.33019322 -0.13348821 -0.037029006
0003c0 70 8a d7 bc 24 de 88 3d 81 df 94 3d 5a 57 9c 3d
       -0.02631113 0.06682995 0.072691925 0.076338485
0003d0 53 dd 33 3d 69 30 f2 bd d3 48 af 3a f9 77 6f 3c
       0.043912243 -0.1182564 0.0013373144 0.014616006
0003e0 5f 22 85 bd b6 5c b6 bc b5 ee 29 bc 0d 82 15 be
       -0.065006964 -0.022261005 -0.010371854 -0.14600392
0003f0 80 e0 bc 3d 44 bf 35 bc 63 d8 af bd e3 65 b1 3d
       0.092225075 -0.011092965 -0.08586194 0.086620115

fc2.bias f4 [48]
000000 4b de 80 bc 19 db 91 3e 0e 3c c9 bd 41 c8 45 3e
       -0.015730998 0.2848747 -0.09825908 0.19314672
000010 97 00 2c 3d e6 7f 10 3e c9 f0 2a 3c 25 42 43 3e
       0.04199275 0.1411129 0.010433384 0.19068201
000020 46 88 2b 3e fd 8a 56 3e 0a 2a 0c bd d2 4d 9f 3d
       0.16751203 0.20951457 -0.03421978 0.07778515
000030 72 7c aa 3e 4f ab 80 3d 68 48 fb 3d 0d c5 02 3e
       0.3329807 0.062826745 0.1226967 0.12770481
000040 9e 27 9d 3e cd fe 92 3e 01 ae d3 3c e1 94 09 3e
       0.30694288 0.28710023 0.025839807 0.13435699
000050 d6 81 83 3d 2a ea 8a 3e c0 2f 29 bc f9 ee 8a 3e
       0.064212486 0.27131778 -0.010326326 0.27135447
000060 91 43 83 3e 3e 5d a0 3e 82 7c 4b 3e 5c d8 d2 bd
       0.25637487 0.31321138 0.19871715 -0.102951735
000070 4a 68 73 3e 39 a4 1f 3e 70 42 66 3e be 5a 5e bc
       0.23770252 0.1558999 0.22486281 -0.013571439
000080 88 ee 02 3d b9 33 fd bd fe 42 5e be a0 33 65 3e
       0.031965762 -0.12363381 -0.21705243 0.22382975
000090 06 90 98 3d 83 31 2e 3d 7c 4d 42 3e 30 ee 8c bd
       0.07449345 0.042527687 0.1897487 -0.06881368
0000a0 6b 12 41 3e 4d f3 bc 3c 59 d5 2d 3e 22 50 a4 3d
       0.18854682 0.023065234 0.16975917 0.080230966
0000b0 ea 38 30 3e 45 c3 ae 3e 64 23 53 3e 91 e7 0b 3e
       0.17209211 0.34133354 0.20618969 0.13662554

fc3.weight f4 [1, 48]
000000 c0 ef c0 3d 27 e8 0c 3e a8 56 fc bc 08 d9 fc 3c
       0.09420729 0.13760434 -0.03080304 0.030865207
000010 a0 6d 8d 3e 39 f6 86 3e ab 90 29 3c 32 d5 65 3e
       0.276227 0.26359728 0.010349433 0.22444609
000020 35 0e c3 3d 98 b7 f4 3d 9f e7 f5 ba f5 bf a8 3c
       0.09524194 0.1194908 -0.0018761045 0.020599345
000030 2e 7a ed 3d 64 48 60 3e be 36 95 3d c7 04 85 3e
       0.115955696 0.21902615 0.07285832 0.25980207
000040 b6 a9 f2 3d 51 de fb 3d f1 a7 75 3c 9c a3 68 3e
       0.11848776 0.12298263 0.014993654 0.22718662
000050 17 ff 80 3e 33 4c fa 3d 82 b2 00 bc 91 50 5f 3d
       0.25194618 0.12221565 -0.00785506 0.054520193
000060 6b 48 02 3e 99 b3 d7 3d 6f d5 1a 3c ac 20 14 bc
       0.12722938 0.105323024 0.009450301 -0.009040993
000070 9b 08 6d 3e 38 3c 47 3e 53 22 0e 3e bb 3d 09 bc
       0.23147814 0.19456565 0.13880281 -0.008376534
000080 d9 e0 a6 bc 15 81 1a ba d0 98 36 bc 7b bd 0a 3e
       -0.020370888 -0.00058938685 -0.011144832 0.13548844
000090 9d 74 e9 3b ad 76 07 3a a4 e5 65 3d cd 2d 1d 3c
       0.007124497 0.00051675254 0.056127205 0.009593439
0000a0 65 1c a7 3d ae ee 9a 3d ce b7 a5 3d 3a 6d 8f 3d
       0.08159713 0.07565056 0.080916986 0.07003255
0000b0 6e 50 87 3c 57 cc f1 3d 3a 7b 92 3c 15 1d a2 3d
       0.016517844 0.11806553 0.017881025 0.07915703

bn1.weight f4 [24]
000000 6e e2 99 3f f5 ce 98 3f cb 2e 98 3f 00 00 80 3f
       1.2022226 1.1938158 1.188928 1.0
000010 00 00 80 3f fa 53 89 3f a7 60 9b 3f 00 00 80 3f
       1.0 1.0728753 1.2138871 1.0
000020 00 00 80 3f b0 db 96 3f 19 be 9d 3f 74 68 9c 3f
       1.0 1.1785793 1.2323638 1.2219377
000030 00 00 80 3f 7a 6e 98 3f 4f 2b 88 3f 26 27 9e 3f
       1.0 1.1908715 1.0638217 1.2355697
000040 21 d4 8c 3f 72 c3 9d 3f 3d c8 96 3f b2 fd 98 3f
       1.1002237 1.232527 1.1779858 1.1952422
000050 f7 f6 9a 3f 8d dd 9b 3f 31 78 a0 3f 9e 90 a0 3f
       1.2106618 1.2176987 1.253668 1.2544134

bn1.bias f4 [24]
000000 ea 70 93 be c1 87 88 be d8 87 85 be de 66 64 3e
       -0.28797084 -0.26666072 -0.26080203 0.22304866
000010 79 b2 8e be 9d 7c 5d ba d7 01 96 be 21 da 93 3e
       -0.2787054 -0.000844905 -0.2929828 0.28877357
000020 bc 6c 8b be f8 6c 5c 3e 4a 98 90 be 1c b5 9f be
       -0.27231395 0.21525943 -0.28241187 -0.31192863
000030 01 0b 97 3e 1c 86 86 be a6 87 f6 3d c6 26 8a 3e
       0.29500583 -0.26274192 0.12037592 0.26982707
000040 fe 5a 41 bd 58 af 24 be af a3 6d be 94 19 1c 3d
       -0.047205918 -0.16082513 -0.23206972 0.03811033
000050 7d 8b 52 be c4 d9 94 be 36 df 8f 3d fe 86 89 3d
       -0.20561023 -0.29072392 0.07024996 0.06715201

bn1.running_mean f4 [24]
000000 d4 aa 4e 3d 9c 69 77 3e a5 9f 5e 3d 00 00 00 00
       0.050455883 0.2416138 0.054351468 0.0
000010 00 00 00 00 3a 20 88 04 99 0b b1 3c 00 00 00 00
       0.0 3.200304e-36 0.021611976 0.0
000020 00 00 00 00 60 92 81 3e db df c7 3c d5 35 5e 3c
       0.0 0.25306988 0.024398735 0.013562639
000030 00 00 00 00 65 1e b8 3e a9 64 44 3d 3c bb 98 3e
       0.0 0.3596069 0.04794756 0.29830348
000040 20 df 55 06 47 91 d0 3c 4e c7 16 3e 22 e7 84 3e
       4.0224774e-35 0.025459899 0.14724466 0.2595759
000050 19 81 2d 3e a6 45 04 3c 6d a6 5a 3d 94 42 57 3e
       0.16943778 0.008073246 0.053381372 0.21021491

bn1.running_var f4 [24]
000000 1b 1a 63 3e 8a b7 ab 3d 66 b0 84 3e 04 00 00 00
       0.22177927 0.08384617 0.2591583 6e-45
000010 04 00 00 00 fc c0 a3 01 96 54 38 3d 04 00 00 00
       6e-45 6.015366e-38 0.045002542 6e-45
000020 04 00 00 00 ca 66 a4 3a b3 bf 65 3d 30 db 97 3c
       6e-45 0.001254284 0.05609102 0.018537134
000030 04 00 00 00 d4 62 f1 3d cc ed a8 3c a5 e3 23 3a
       6e-45 0.11786428 0.020621203 0.0006251878
000040 4c 73 59 03 63 91 30 3a 7e 76 c2 3c d2 72 87 3d
       6.3902923e-37 0.00067355315 0.023738142 0.06613697
000050 8f ce b9 3d d5 7d c5 3b b5 e9 46 39 17 6c 1f 3a
       0.09072601 0.0060269632 0.00018969814 0.00060814753
