financial/finance/trained_models/DDPG__rate__CjMmCriterion/critic.pth (torch, 8318 bytes, 5 tensors)

fcs1.weight f4 [24, 8]
0	0xbe3f6598	-0.18691099
1	0xbd73e828	-0.059547573
2	0xbe418fe1	-0.18902542
3	0xbd1ae748	-0.037818223
4	0x3b5aa540	0.0033362657
5	0xbc578620	-0.0131545365
6	0xbdcd59f5	-0.100269236
7	0x3e11134a	0.14167514
8	0xbaea4478	-0.0017873188
9	0xbdb906ac	-0.09034476
10	0xbd7419d3	-0.05959494
11	0x3e039c45	0.12852581
12	0x3d9e1f82	0.077208534
13	0xbe8c313d	-0.27381316
14	0xbf1b16db	-0.6058175
15	0xbedc5578	-0.43033957
16	0xbd975bb4	-0.07390538
17	0x3e3271e8	0.17426264
18	0xbcf70030	-0.030151457
19	0x3e313850	0.17306638
20	0x3a844400	0.0010091066
21	0xbcb56250	-0.022141606
22	0xbdf3d8da	-0.119065955
23	0xbd8b00c8	-0.067872584
24	0x3d86b4f8	0.06577486
25	0x3db8eae4	0.09029177
26	0xbbedfc80	-0.0072627664
27	0x3e472a8c	0.19449824
28	0xbe10abfa	-0.14128104
29	0x3da048d8	0.07826394
30	0x3e3c4316	0.18384966
31	0xbd1161bc	-0.035493597
32	0x3e25e6f3	0.16201381
33	0x3b55e05f	0.0032634956
34	0xbe1cae46	-0.15300855
35	0xbde5c6ab	-0.112195335
36	0x3d9b1a73	0.07573404
37	0xbdb5988e	-0.08866988
38	0x3cfd690d	0.030933881
39	0x3e3b2465	0.18275602
40	0x3f8b6d51	1.0892736
41	0xbddb68c8	-0.10713345
42	0x3fc89b04	1.5672307
43	0x3e6c23a7	0.23060475
44	0x4026e68d	2.6078217
45	0xbf912936	-1.1340702
46	0xbfb8c853	-1.4436134
47	0x3e3980a8	0.18115485
48	0x3d22db58	0.039759964
49	0xbdb1a802	-0.08674623
50	0xbe4c74c3	-0.19966416
51	0x3de27528	0.11057502
52	0xbded340d	-0.115821935
53	0xbd0b9570	-0.03407806
54	0xbe2f431a	-0.17115441
55	0xbdebd81f	-0.11515831
56	0xbeab0ab8	-0.33406615
57	0xbec60a34	-0.3867966
58	0xbc994e76	-0.01871417
59	0xbea6c143	-0.32569322
60	0x3e1e17b4	0.1543873
61	0x4047fb71	3.1247218
62	0x3e700e8f	0.23443054
63	0x3e108bef	0.1411588
64	0x3ed93280	0.4242134
65	0xbed5224f	-0.41627738
66	0x3f1f8377	0.62309974
67	0xbf701080	-0.93775177
68	0x3f62053b	0.8828923
69	0x3fcb15c8	1.5866022
70	0x3ef7acb8	0.4837396
71	0x3ddc1f72	0.10748185
72	0x3d98d97d	0.074633576
73	0x3f32dd17	0.69868606
74	0xbe901a6d	-0.2814516
75	0xbf38fa81	-0.7225724
76	0xc026dd33	-2.607251
77	0xc0780b7e	-3.8757014
78	0xbe69b733	-0.22823791
79	0x3c30c546	0.010789221
80	0xbc682ad0	-0.014170364
81	0x3e5011d6	0.20319304
82	0x3a7c9f00	0.000963673
83	0xbe2667f8	-0.16250598
84	0xbc73e630	-0.014886424
85	0x3dcff998	0.10155028
86	0xbd8875ce	-0.066630945
87	0xbddaec88	-0.10689646
88	0x3e2c3050	0.16815305
89	0x3ddd26c0	0.107984066
90	0xbd0e0bd4	-0.03467925
91	0x3c2adc40	0.010428488
92	0xbcb0dad8	-0.021588728
93	0x3d421ca8	0.04739061
94	0x3bedb6e0	0.0072544664
95	0xbdfcf973	-0.12352266
96	0x3d1ae80c	0.037818953
97	0x3baef140	0.005338818
98	0x3c5839b0	0.0131973475
99	0xbd9f4ff8	-0.07778925
100	0x3d5639d0	0.052301228
101	0xbe290697	-0.1650642
102	0x3d79ed68	0.061017424
103	0x3de28958	0.110613525
104	0x3fbf15a1	1.4928476
105	0x3f621b14	0.8832257
106	0x409af768	4.842701
107	0x3faaa14f	1.3330477
108	0x411394a7	9.223792
109	0xc08e360a	-4.4440966
110	0x3f175457	0.5911307
111	0x3e94c4d3	0.29056415
112	0x3de6ed62	0.11275746
113	0x3e1062e9	0.14100231
114	0x3d9ffd93	0.07812037
115	0x3dea52db	0.11441585
116	0x3e0a0085	0.1347676
117	0xbd4501ca	-0.04809741
118	0xbd0c0852	-0.034187622
119	0x3e0ada8c	0.13559932
120	0xbfeecce8	-1.8656282
121	0x3f05e324	0.52299714
122	0xbf896cb3	-1.0736297
123	0x3f6bb692	0.92075455
124	0xc01a5548	-2.4114552
125	0x405b52a9	3.4269202
126	0xbf061550	-0.5237627
127	0x3f7a39ce	0.9774445
128	0x3de8a675	0.11359874
129	0xbf29e92a	-0.66371405
130	0x3f2463f1	0.64215
131	0xbf510ca6	-0.81659925
132	0x3fa07096	1.2534359
133	0xc0d0f6a6	-6.5301085
134	0xbec544f2	-0.38529164
135	0xbe815157	-0.2525737
136	0x3f32e4a7	0.69880146
137	0x3f26c96a	0.65151083
138	0xbe2fc7bb	-0.17166035
139	0x3e1551c3	0.14581971
140	0xbf8172ef	-1.01132
141	0xbf31ef39	-0.6950565
142	0x3f4c109c	0.79712844
143	0xbea6043a	-0.324251
144	0xbef15718	-0.4713676
145	0x3f2dd298	0.67899466
146	0x3d4c19a2	0.049829133
147	0xbee76baf	-0.45199344
148	0xc06683b3	-3.6017883
149	0x4003585b	2.0522678
150	0x3f074dd5	0.5285314
151	0x3c64b42f	0.013958975
152	0x3dca23b0	0.09870088
153	0xbe017360	-0.12641668
154	0x3e480572	0.19533327
155	0x3e14f02e	0.14544746
156	0x3d1c9b30	0.038233936
157	0x3db9fc54	0.09081331
158	0x3d918bb0	0.071067214
159	0xbdf6b01c	-0.12045309
160	0xbc49e847	-0.012323446
161	0x3d454ae4	0.048167124
162	0xbd5253e7	-0.051349547
163	0x3e4dfb85	0.20115478
164	0xbd6c47a6	-0.057685517
165	0xbe25ffdc	-0.16210884
166	0xbe0aaff5	-0.13543685
167	0xbe6dadfd	-0.23210903
168	0x3e2c3ec0	0.16820812
169	0xbdbbaa34	-0.09163323
170	0xbe131026	-0.14361629
171	0xbcb4c2d8	-0.022065565
172	0xbe0cd770	-0.13754058
173	0xbdda6053	-0.10662904
174	0x3dd51fcc	0.104064554
175	0xbe1cef04	-0.15325552
176	0x3eaba0cd	0.3352112
177	0xbe507a23	-0.20359091
178	0x3e097ed5	0.13427289
179	0xbdf6f8f3	-0.12059202
180	0xbecbe0dc	-0.39819992
181	0x3f918317	1.136813
182	0x3eeefb45	0.46676078
183	0xbca28025	-0.019836495
184	0x3dae045c	0.08496925
185	0xbe6630b7	-0.2247952
186	0x3c7782de	0.015106885
187	0x3d6a08a4	0.057137147
188	0xbe8590ae	-0.26086944
189	0x3cebed37	0.028799636
190	0xbf264248	-0.6494489
191	0xbeff335c	-0.49843872

fcs1.bias f4 [24]
0	0xbe7f5fcc	-0.24938887
1	0x3cc58d41	0.024115207
2	0xbe7f36a2	-0.24923185
3	0xbe474beb	-0.19462554
4	0xbe6574d8	-0.22407854
5	0x3f86afc3	1.0522388
6	0xbe57be5d	-0.21068712
7	0xbecfb704	-0.40569317
8	0xbf19404c	-0.59863734
9	0x3e434913	0.19070844
10	0xbe88d60e	-0.2672581
11	0xbe788b42	-0.24271873
12	0xbe5238d0	-0.20529485
13	0xbf659a21	-0.8968831
14	0xbe0cfca6	-0.13768253
15	0x3ef42376	0.47683305
16	0x3f2b3479	0.6687694
17	0xbef2762d	-0.47355786
18	0xbf0b4a05	-0.5440982
19	0xbd8f2300	-0.069890976
20	0xba9a7b3f	-0.0011785998
21	0xbda556d8	-0.08073205
22	0xbee60051	-0.44922116
23	0x3cd0a506	0.025469314

fc2.weight f4 [48, 25]
0	0xbdea8932	-0.11451949
1	0x3ebcab3c	0.3684939
2	0xbdd716c7	-0.10502391
3	0xbcfaea30	-0.030629247
4	0x3d60d9ef	0.054895338
5	0xbdcbbd61	-0.099482305
6	0x3d05afd0	0.03263837
7	0xbe9108a0	-0.28326893
8	0xbe13de4d	-0.1444027
9	0xbe239585	-0.15975006
10	0x3cdb61d8	0.026780054
11	0x3df8d710	0.12150395
12	0x3d5ea3e0	0.054355502
13	0x3db9ce97	0.09072607
14	0xbdeda64a	-0.11603983
15	0x3f1dc03f	0.6162147
16	0xbe4478c8	-0.191867
17	0xbeda9e58	-0.42698932
18	0xbde405af	-0.111338966
19	0xbcddbd78	-0.027067885
20	0x3d3f5129	0.04670826
21	0x3e03b4a2	0.12861875
22	0xbeb0d7ad	-0.34539548
23	0x3ea028ec	0.3128122
24	0xba5e724c	-0.00084856595
25	0x3cb9a838	0.02266322
26	0x3df3857c	0.118906945
27	0x3dc75204	0.0973244
28	0x3dfd24c4	0.12360528
29	0x3da0046a	0.07813342
30	0xbc43a760	-0.011941761
31	0x3d1a5cb0	0.03768605
32	0xbd7709d8	-0.060312122
33	0x3dfaea34	0.12251702
34	0x3d940290	0.07227051
35	0xbdd85ba6	-0.105643556
36	0x3dff9868	0.12480241
37	0xbb0c5e40	-0.0021418482
38	0xbbd23e60	-0.006416127
39	0xbd21cdf6	-0.03950306
40	0xbd1bfbf2	-0.03808207
41	0x3becb880	0.0072241426
42	0xbd904f7b	-0.0704641
43	0xbe097c73	-0.1342638
44	0xbd98445d	-0.07434914
45	0xbceb4c08	-0.028722778
46	0x3ddf3924	0.108995706
47	0x3dd97650	0.106182694
48	0xbdb11c86	-0.086480185
49	0xbbb59b20	-0.005542174
50	0xbd2aa1c8	-0.041658193
51	0xbd9e2373	-0.07721605
52	0xbccfeca0	-0.025381386
53	0xbd4d2264	-0.050081626
54	0x3da53a46	0.080677554
55	0xbd9299d7	-0.07158249
56	0x3cb5eae8	0.022206739
57	0xbda6d02e	-0.08145176
58	0xbd3884c2	-0.045048483
59	0x3de1d21c	0.11026403
60	0xbd911f53	-0.07086053
61	0xbc0e32d0	-0.008679107
62	0x3e0d2866	0.13784942
63	0x3d37e9c5	0.044900674
64	0xbd967636	-0.07346766
65	0xbdb9722c	-0.0905498
66	0xbd4f5226	-0.050615452
67	0xbd3922ca	-0.045199193
68	0x3d80b3aa	0.06284268
69	0xbd0370a0	-0.03208983
70	0x3df94f30	0.12173307
71	0xbda2312e	-0.079195365
72	0xbd38df5e	-0.045134895
73	0x3d573f28	0.052550465
74	0x3de7ba46	0.11314826
75	0x3e0d62d4	0.13807231
76	0x3cbd4130	0.023102373
77	0x3bc75c20	0.00608398
78	0xbd8470d7	-0.06466835
79	0x3da7057c	0.08155343
80	0xbdc7ca07	-0.097553305
81	0xbd1b656a	-0.037938513
82	0xbe0990a1	-0.13434078
83	0xbe1e2731	-0.15444638
84	0x3d4bfb3b	0.04980014
85	0x3c20a8e0	0.009805888
86	0x3deba5c4	0.11506227
87	0x3deb3880	0.11485386
88	0x3d1db92d	0.038506676
89	0x3d6c98f8	0.05776307
90	0xbd973788	-0.073836386
91	0x3d888046	0.06665091
92	0x3d681bc8	0.05666712
93	0x3d0ec63d	0.034857024
94	0xbb8887c0	-0.0041665733
95	0x3cb09de0	0.021559656
96	0x3a27e100	0.0006404072
97	0xbdf22509	-0.1182347
98	0x3d093dec	0.03350632
99	0xbe0cb19a	-0.13739625
100	0x3d8f6d58	0.070032775
101	0xbeb5525c	-0.35414398
102	0xbd411e32	-0.047147937
103	0xbd8c30da	-0.06845255
104	0x3de7937e	0.11307429
105	0xbf04cca2	-0.51874745
106	0x3d96f06a	0.07370074
107	0x3d834863	0.06410291
108	0x3db5370b	0.08848389
109	0xbdaa2dfb	-0.08309551
110	0x3da125d6	0.07868545
111	0x3de9aca8	0.11409885
112	0x3ce8e840	0.028431058
113	0xbc99b872	-0.018764708
114	0xbde7dc66	-0.113213345
115	0xbdaf9c6f	-0.08574759
116	0xbdaa0081	-0.08300877
117	0xbd8762b2	-0.066106215
118	0xbdfa75e5	-0.12229518
119	0xbe128579	-0.14308728
120	0xbd8d1eb7	-0.06890624
121	0x3d625690	0.055258334
122	0x3e302d8e	0.17204878
123	0xbebe32a8	-0.37148023
124	0x3e1a087e	0.15042302
125	0xbe0c3ec2	-0.13695815
126	0xbeb75192	-0.3580442
127	0xbdb91eb6	-0.09039061
128	0xbc9c2d50	-0.019064575
129	0x3d251ed4	0.040312603
130	0xbec52e26	-0.3851177
131	0x3de3bea0	0.11120343
132	0x3d9fd216	0.078037426
133	0x3dda9542	0.10673
134	0xbe371201	-0.17877962
135	0xbd85d2fd	-0.065343834
136	0xbd69e0d4	-0.05709918
137	0xbc9895a8	-0.01862605
138	0xbe74dc89	-0.23912252
139	0xbdcd821c	-0.10034582
140	0x3e969c96	0.2941634
141	0xbe879356	-0.26479596
142	0x3e1a7f78	0.15087688
143	0x3ea65ae0	0.32491207
144	0xbd710ae8	-0.05884829
145	0x3d50c768	0.05097142
146	0xbd6e931a	-0.058245756
147	0xbd2cc685	-0.04218151
148	0xbeb46aa1	-0.352376
149	0x3c6e786c	0.014555078
150	0x3da43a5c	0.08018944
151	0x3df60b74	0.12013903
152	0x3d97e8c4	0.074174434
153	0x3bb1b140	0.005422741
154	0x3dfebe28	0.12438613
155	0xbdada1cc	-0.08478126
156	0x3e0b678c	0.13613719
157	0x3de0ee64	0.109829694
158	0x3dda8237	0.10669368
159	0xbdc6e4d1	-0.09711612
160	0xbd9ca0bb	-0.076478444
161	0x3c159e60	0.009131998
162	0x3d3819b8	0.044946402
163	0x3d2cafcf	0.04215985
164	0x3d707208	0.0587025
165	0x3dbd8730	0.092543006
166	0xbd141efa	-0.036162354
167	0xbda1bf4b	-0.07897814
168	0x3c91f2da	0.017815996
169	0x3d24bffc	0.040222153
170	0xbdac6f00	-0.08419609
171	0x3c64bcb0	0.013961002
172	0xbe0fec27	-0.14054929
173	0xbd2d711a	-0.04234419
174	0xbdbb447e	-0.09143923
175	0x3e018f7c	0.12652391
176	0xbe050c13	-0.12992887
177	0xbdae8817	-0.08522051
178	0xbe10a4a5	-0.14125307
179	0x3d151b00	0.036402702
180	0xbde385ca	-0.111095026
181	0x3d3f4788	0.046699077
182	0xbdcd5450	-0.10025847
183	0xbdbd5b9c	-0.09245989
184	0xbd97043b	-0.07373854
185	0x3cb17190	0.021660596
186	0x3e07cfe6	0.132629
187	0x3e0a7298	0.13520277
188	0xbc32a980	-0.01090467
189	0xbe10c572	-0.1413782
190	0xbd4351e8	-0.047685534
191	0xbd6150bc	-0.055008635
192	0xbcfb7e88	-0.030699983
193	0x3d61e4b0	0.055149734
194	0x3d94c208	0.07263571
195	0x3d831024	0.06399563
196	0x3d28e394	0.04123266
197	0xbd6f5644	-0.05843188
198	0xbac8b100	-0.0015311539
199	0x3c967b98	0.018369481
200	0xbd96fdc8	-0.07372624
201	0xbc538c70	-0.012911901
202	0xbc939970	-0.0180175
203	0xbe0ba518	-0.13637197
204	0x3dc8656c	0.0978497
205	0xbc6f1700	-0.014592886
206	0xbdff8985	-0.12477402
207	0x3de9dfa0	0.11419606
208	0xbd9f0e75	-0.07766429
209	0x3d51502c	0.05110185
210	0x3e1293a8	0.14314139
211	0x3bdaf2a0	0.006681755
212	0x3d2a17a0	0.041526437
213	0x3d6ae744	0.05734946
214	0x3ddf6a14	0.10908905
215	0xbd35654a	-0.04428605
216	0xbda65774	-0.08122149
217	0xbc391060	-0.011295408
218	0x3de72d48	0.112879336
219	0x3c4b5510	0.012410417
220	0x3dcd6378	0.10028738
221	0xba8ca800	-0.001073122
222	0x3d3564e4	0.04428567
223	0x3ba47600	0.0050189495
224	0x3b806420	0.003918186
225	0xbe0ca6a5	-0.13735445
226	0xbe013699	-0.12618484
227	0x3c4496a0	0.011998802
228	0x3d924dd6	0.07143752
229	0x3dbf97fe	0.09355162
230	0xbcc94d32	-0.024572942
231	0x3d7934d8	0.06084141
232	0x3d3440db	0.044007163
233	0xbe136cfb	-0.14397041
234	0xbe3243b3	-0.17408638
235	0xbde531e3	-0.11191156
236	0x3b22a180	0.00248155
237	0xbdbaea34	-0.09126702
238	0xbd892ada	-0.066976264
239	0xbcb0e7dc	-0.021594934
240	0x3ba6f88c	0.005095547
241	0xbb1c229b	-0.0023824337
242	0x3de8156e	0.113322124
243	0x3de7564d	0.112957574
244	0xbdbc9507	-0.09208112
245	0xb9ee6600	-0.00045470893
246	0x3cc341e0	0.023835123
247	0x3dd837a3	0.10557487
248	0xbd373a36	-0.04473325
249	0xbddedd0b	-0.10882004
250	0xbdbb4074	-0.09143153
251	0x3ef04859	0.46930197
252	0xbd277e4e	-0.040891938
253	0xbd5d6bfa	-0.054058053
254	0x3dab4a7c	0.08363816
255	0x3e32f566	0.17476425

fc2.bias f4 [48]
0	0x3e91b853	0.2846094
1	0xbe4c9fa0	-0.19982767
2	0xbdf8d47f	-0.121499054
3	0xbbadbe40	-0.0053022206
4	0xbd4847c0	-0.04889655
5	0x3ddd23ac	0.107978195
6	0xbdf1a63e	-0.11799286
7	0xbdbf4e2d	-0.09341083
8	0xbe4ae878	-0.19815242
9	0xbd0acf60	-0.033889174
10	0x3c7c218a	0.015388856
11	0x3e968958	0.2940166
12	0xbdc29d4d	-0.09502659
13	0xbd0b325f	-0.033983584
14	0xbe253a5a	-0.1613554
15	0xbd81c4fe	-0.063364014
16	0xbde0ff71	-0.109862216
17	0xbdbad0f1	-0.09121884
18	0xbddee1bd	-0.108829
19	0xbe0e117d	-0.13873859
20	0xbdbdb36b	-0.09262737
21	0xbe4b4f74	-0.19854528
22	0xbe5e825c	-0.21729416
23	0xbcb0f0d5	-0.021599213
24	0xbdebf5b3	-0.11521473
25	0xbdca9ecc	-0.09893569
26	0xbd5b2de0	-0.053510547
27	0xbe33eb07	-0.17570125
28	0xbd1d8f0e	-0.038466506
29	0x3debfcc3	0.1152282
30	0xbdd9bcce	-0.10631715
31	0xbd706517	-0.058690157
32	0xbd630646	-0.055425905
33	0xbe4be120	-0.19910097
34	0xbe09a9f1	-0.13443734
35	0x3e9494e1	0.29019836
36	0x3d28d5a4	0.04121937
37	0xbce54ac0	-0.027989745
38	0x3e7bbc46	0.2458354
39	0xbe3fe1b8	-0.18738449
40	0xbd4aa8c0	-0.04947734
41	0xbd269cc8	-0.040676862
42	0xbdbdd553	-0.09269204
43	0xbd25d23e	-0.040483706
44	0xbdbaa330	-0.09113157
45	0xbcbde598	-0.023180768
46	0xbd6c8bf8	-0.057750672
47	0xbe111bed	-0.14170809

fc3.weight f4 [1, 48]
0	0x3f273c0b	0.65325993
1	0x3a226ce4	0.00061960355
2	0xbaf9c135	-0.0019054773
3	0xbc1ee24d	-0.009697509
4	0xbbd1820b	-0.006393676
5	0xbeae6cf8	-0.34067512
6	0xbba9d7b3	-0.005183184
7	0x3af04390	0.0018330682
8	0xbb35649c	-0.0027678376
9	0xbc1745a1	-0.009232909
10	0x3e884716	0.26616734
11	0x3f3fd49f	0.7493381
12	0x3b31a328	0.0027105305
13	0x3f072cf5	0.52802974
14	0xba1a6dc8	-0.00058909925
15	0x3e85b165	0.26111904
16	0xbc5ae928	-0.013361253
17	0x3ce68011	0.028137239
18	0xbaad77e2	-0.001323458
19	0xbaca4fc9	-0.0015435155
20	0xbcfd7b8d	-0.030942703
21	0xbc334f95	-0.010944267
22	0xbc168077	-0.009185902
23	0x4013d720	2.3100052
24	0xbb6dceba	-0.0036286549
25	0x3e9938a6	0.29926032
26	0xbb26d733	-0.0025457859
27	0x3b146dc2	0.0022648429
28	0x3bae78b4	0.0053244475
29	0x3f7adcbe	0.97993076
30	0x3d87f88e	0.06639205
31	0x3c1c3817	0.009534857
32	0x3e956183	0.29175958
33	0x3aecd868	0.0018069865
34	0x3dde12cf	0.10843431
35	0xbf54b506	-0.8308872
36	0x3c7ca93d	0.015421209
37	0xbff53fe0	-1.9160118
38	0xbf5799ee	-0.84219253
39	0xba43d404	-0.00074702525
40	0xbab9908b	-0.0014157457
41	0x3b2166da	0.0024627955
42	0xbbfc6f48	-0.0077036954
43	0xc0258abd	-2.586593
44	0x398c7480	0.0002678968
45	0xba2af374	-0.00065212627
46	0xb9868190	-0.00025655003
47	0xbf239f34	-0.639148
