financial/finance/trained_models/TD3__spread__CjOeCriterion/actor.pth (torch, 9687 bytes, 9 tensors)

fc1.weight f4 [24, 8]
000000 da a5 2f be 5b d5 f2 3d 93 85 e0 3d 94 3a 43 3e
       -0.17153111 0.118571006 0.10962977 0.19065315
000010 50 d2 8a bd d5 94 0d 3c f6 70 0e 3d 8d ba 4b 3e
       -0.06778395 0.008641441 0.034775697 0.19895382
000020 84 e0 43 3e 51 88 d3 bd 32 46 2d be f0 2c 37 be
       0.19128615 -0.10328735 -0.16921309 -0.17888236
000030 10 a4 c1 bd 31 99 33 3e 88 34 7c 3d 18 a9 50 3e
       -0.094551206 0.17538907 0.061573535 0.20377004
000040 cb bc 21 3e 31 d5 04 3c 46 89 f4 bd 69 d4 53 3e
       0.15794675 0.008107469 -0.11940245 0.20686497
000050 22 56 2f 3e ea b9 c6 3d 19 ab dc bd 62 b1 2c 3e
       0.17122701 0.09703429 -0.10774822 0.16864541
000060 08 32 98 3c 94 36 0a 3e 88 7a ae 3d 70 fc dd 3d
       0.018578544 0.13497382 0.08519465 0.10839164
000070 ac 69 37 be 7c cc e7 bd 74 bb fa 3d 24 30 2e bd
       -0.17911404 -0.11318299 0.12242785 -0.04252638
000080 8c d8 35 be e2 15 3e 3e c0 a5 90 bb 98 9d 28 3e
       -0.17758387 0.18563035 -0.00441429 0.16466367
000090 41 60 23 be 44 ee 8f 3d 06 77 9d bd 98 eb af bd
       -0.15954687 0.070278674 -0.076887175 -0.08589858
0000a0 39 10 f2 3c 08 25 06 bd 71 fe 1e 3e 05 bc dd 3b
       0.029548751 -0.03275016 0.15526749 0.0067667984
0000b0 6b c0 36 3e 14 b0 60 3d dd 51 68 bc bd 18 eb bd
       0.17846839 0.05485542 -0.014179674 -0.11479328
0000c0 5e 69 39 be 1a 25 62 bd 23 5f 3c be 92 c5 04 bd
       -0.181066 -0.055211164 -0.18395667 -0.03241498
0000d0 5a c9 11 3c 4f be f7 bb 1e 44 c4 bd 48 98 18 3e
       0.008898104 -0.0075605283 -0.09583305 0.1490184
0000e0 6c 6f eb 3d 7c fe 4d bd 2a 2c a5 bd 28 69 03 3e
       0.114958614 -0.050291523 -0.08065064 0.12833083
0000f0 ee da 35 3e c0 63 3f be 40 a5 34 bd b0 2e 9b bc
       0.17759296 -0.18690395 -0.044102907 -0.01894316
000100 ed 62 a3 bd ba 49 3e 3e 33 9c af bc 8e 56 19 3e
       -0.07977853 0.18582812 -0.021436786 0.14974424
000110 a8 9b e9 bb 34 26 90 bc 93 53 ea bc f0 89 4e bd
       -0.0071291514 -0.017596342 -0.028604304 -0.050424516
000120 d2 42 ed 3a 51 3e 16 3e 9f 54 80 bc a2 6e 32 3e
       0.0018101579 0.1467221 -0.01566535 0.17425016
000130 e0 8e e3 bd ff b4 07 3e be b5 ff 3d 61 90 2a 3b
       -0.111112356 0.13252638 0.124858364 0.0026025998
000140 d4 4f 29 3e 1b a7 8e 3b 9a 14 1a be b0 34 e1 bd
       0.16534358 0.0043534166 -0.15046921 -0.109963775
000150 d1 9f a0 3d 99 88 b1 bd 45 56 29 3d cd c6 48 3e
       0.078429826 -0.08668632 0.04134204 0.19607086
000160 30 6f a2 3d 73 42 11 bc af aa 7f 3d ff 77 d6 bd
       0.079313636 -0.00886594 0.062418636 -0.10472106
000170 ff 6c 22 be ef fa 0f be 20 66 26 be 33 4e 58 3d
       -0.15861891 -0.14060567 -0.16249895 0.05280895
000180 58 db 22 3d 02 a8 b1 bd c3 74 4c be 28 75 e2 3d
       0.039759964 -0.08674623 -0.19966416 0.11057502
000190 0d 34 ed bd 70 95 0b bd 1a 43 2f be 1f d8 eb bd
       -0.115821935 -0.03407806 -0.17115441 -0.11515831
0001a0 34 f6 be 3d e1 91 39 be 2d 17 db bd 65 c4 27 3e
       0.09324303 -0.18122055 -0.1069778 0.16383512
0001b0 08 28 c3 bd 32 4b 95 bd d4 3c 88 bd 1f 6f a2 3d
       -0.0952912 -0.07289733 -0.06652227 0.07931351
0001c0 f9 53 00 be f9 eb e7 3c d5 1c bc 3d cf 8e aa bb
       -0.12532033 0.028310763 0.09185187 -0.0052050124
0001d0 d3 bc 3a 3d a8 f2 15 be 95 df b3 3d 54 a5 b4 3d
       0.045590233 -0.14643347 0.08782879 0.08820596
0001e0 98 83 5a bd 16 62 d6 bd 21 2e d2 3d 3a 2f 1a 3e
       -0.053348154 -0.10467927 0.10262705 0.15057078
0001f0 7c 57 f2 3c b2 b7 3d 3e 97 97 12 3e bb ea 1e 3b
       0.029582731 0.18527105 0.1431564 0.0024248797
000200 a3 80 e1 3c 41 f9 71 3e 85 19 e8 3c 92 9c fd bd
       0.02752716 0.23630239 0.028332481 -0.12383379
000210 0a 87 99 3c c3 c9 05 3e 8e 9c 3b bd f0 c8 c2 bd
       0.01874115 0.13065247 -0.0458036 -0.09510982
000220 9b 76 4b 3e be fd 0d 3e 11 18 03 bb e1 e4 22 3d
       0.19869463 0.13866326 -0.0020003358 0.039769057
000230 ce 96 28 bc f2 35 4b 3d bc 3f 21 3c d2 06 bd bd
       -0.010289861 0.049611993 0.009841856 -0.092298165
000240 0b ec 36 3d a2 d5 12 3c b6 b7 9b 3c cd 1f 90 bd
       0.044658702 0.008962067 0.019008499 -0.070373155
000250 1e 34 6c 3d 1e f8 22 be 5c 79 47 3d 2d 40 fb 3d
       0.05766689 -0.15914962 0.04869972 0.122681
000260 e5 64 89 bc 57 e7 1e be e1 07 98 3b 97 c1 d8 3b
       -0.016771743 -0.15517937 0.004639611 0.0066148746
000270 c7 b6 2f be 96 c8 0f be 1a b0 37 3e 66 56 27 3e
       -0.17159568 -0.14041361 0.17938271 0.16341552
000280 c0 e5 f0 3d e2 84 13 3e c8 08 aa 3d 45 64 f2 3d
       0.11762571 0.1440616 0.08302456 0.11835531
000290 c0 d9 0e 3e 78 ba 31 bd 32 24 12 bd 8a 21 09 3e
       0.13950253 -0.04339072 -0.03567905 0.133917
0002a0 34 6b 31 ba 97 5d 09 be 8a 74 22 be d4 6a e6 3d
       -0.00067679887 -0.13414608 -0.15864769 0.112508446
0002b0 b9 a0 2c 3e a4 a7 1f 3e 40 af dd 3c e7 af 08 3e
       0.16858186 0.15591294 0.027061105 0.13348351
0002c0 f7 ff 2f be f6 44 98 bd 67 fa 1c be 81 79 1d 3e
       -0.17187487 -0.07435028 -0.15329896 0.15378381
0002d0 3b 24 7e bc 1f ad 9f bd 0b 0a 2c 3d 10 3e 95 bd
       -0.015511568 -0.07796692 0.042001765 -0.07287228
0002e0 b1 fe f8 bd cd be b8 3d 92 fa 44 3d b3 73 07 be
       -0.121579535 0.09020767 0.048090525 -0.1322773
0002f0 9e 99 f8 bd c8 8d e2 3d 9e bd 1f 3e 1c 4d 72 3c
       -0.12138675 0.11062199 0.15599677 0.014788892

fc1.bias f4 [24]
000000 36 25 82 be e7 2c 81 3c 37 1d 76 be eb 4b 47 be
       -0.25419015 0.015768481 -0.24034582 -0.19462554
000010 40 f6 52 be 84 49 f1 3d 37 af 4f be 00 c2 fc bb
       -0.2060175 0.117816 -0.20281683 -0.0077135563
000020 c3 bc 80 3d 6b 98 52 3e 81 97 8b be d1 f5 6c be
       0.062860034 0.20565955 -0.27264026 -0.23140647
000030 d0 38 52 be 2a 67 7d 3e f1 8a f7 bd 71 36 a6 3e
       -0.20529485 0.24746385 -0.12087048 0.3246341
000040 00 23 05 3e b6 c8 88 3d 93 0a 0d bb b0 38 92 bd
       0.13001633 0.066789076 -0.0021521195 -0.071397185
000050 d0 b1 35 3d cc 6e b4 bd 85 d4 61 3c cf c6 38 3d
       0.04435903 -0.08810195 0.013783579 0.045111474

fc2.weight f4 [48, 24]
000000 7f cb 05 be ba 57 84 3d fd 7f 0d 3e f4 98 d4 be
       -0.13065909 0.06462045 0.13818355 -0.41522944
000010 9f 8f ba be b0 dd 2c be 68 1b 22 3e d2 07 b0 be
       -0.364377 -0.16881442 0.15830767 -0.34380966
000020 fd 60 00 be df e1 2e be db c6 1e 3e 94 15 14 3e
       -0.12536998 -0.1707835 0.15505545 0.14461356
000030 81 ec 9a 3e a9 8e 66 3e df ae 19 3e 25 12 5b be
       0.30258563 0.22515358 0.15008114 -0.2139364
000040 dc e5 41 be 97 17 27 be 48 75 b3 3d b7 72 46 3e
       -0.1893534 -0.16317593 0.08762604 0.19379698
000050 c4 36 73 3c 4d b6 4b be 93 d3 7b be 92 50 35 be
       0.0148446 -0.19893761 -0.24592428 -0.17706516
000060 f6 28 7c 3d 47 8f b1 bd d1 0b 7f bb e2 71 9c be
       0.0615625 -0.08669906 -0.0038916955 -0.30555636
000070 bc 24 b6 be 40 6c 8b be a4 83 f7 3d f8 a2 c9 be
       -0.355749 -0.27231026 0.12085655 -0.39382148
000080 52 d9 0b be 66 04 16 3d a5 a0 73 bb 26 83 a6 3d
       -0.1365712 0.03662529 -0.003717461 0.08130483
000090 a7 7a 39 3e d8 74 86 3e 43 12 61 3e 65 37 b4 bd
       0.18113194 0.2626102 0.21979623 -0.08799628
0000a0 c5 61 5f bd 46 38 ae be 88 5e b0 3d e6 7c 75 3d
       -0.0545366 -0.34027308 0.086117804 0.059933566
0000b0 05 2b a0 bd d4 b9 0c 3c 6a c3 7f be a3 e6 c9 bd
       -0.07820705 0.008589227 -0.24976888 -0.098584436
0000c0 39 16 91 bd fb 56 c3 3d 32 9a 9f 3d be 1e f5 be
       -0.07084317 0.095380746 0.07793082 -0.47875017
0000d0 4d 7f b9 be 8d 10 6e be 62 ba e3 3d 8c 57 fe be
       -0.36229935 -0.23248501 0.11119534 -0.49676168
0000e0 82 92 d0 be a6 6e b3 3d f9 c8 80 3d c8 29 42 3e
       -0.40736777 0.08761339 0.062883325 0.18961251
0000f0 72 16 f7 3e b3 9e be 3e 3a 3f 2b 3b 63 99 24 bc
       0.48259312 0.37230453 0.0026130215 -0.010046336
000100 d3 98 ca be a6 2c c1 be 84 32 2b 3e 40 27 f6 3c
       -0.3956972 -0.37729377 0.16718489 0.030048013
000110 dd 82 c8 3d 89 b9 40 3e 4d d9 da be 22 12 a9 3d
       0.09790585 0.18820776 -0.42743912 0.08255412
000120 66 a8 98 be a1 cc 2f be b6 14 2b bd 89 de 37 be
       -0.29815978 -0.17167903 -0.0417678 -0.17955984
000130 51 82 07 be f9 e1 d3 3c b8 f0 81 be 36 15 6d be
       -0.13233306 0.025864588 -0.25378966 -0.23152623
000140 a8 9c 0e be 5f a2 56 3e 5b e0 0c be e9 c0 ad be
       -0.13926947 0.20960377 -0.1375746 -0.3393624
000150 3b 14 c4 3e f2 10 09 be da e7 56 be d5 01 81 3c
       0.38296685 -0.1338537 -0.20986882 0.015747944
000160 8d 91 9a bd 50 82 3a bd 5d cb 80 be 0e 5f a5 be
       -0.07547293 -0.045534432 -0.25155154 -0.32299083
000170 8c 80 a8 be 87 ca 52 be 5b 19 b7 3d 77 b6 9a bd
       -0.32910573 -0.2058507 0.08940383 -0.07554334
000180 12 27 b5 bd 9e 6a ff bb 67 6a 31 bd 57 99 92 bd
       -0.08845343 -0.007794692 -0.043314364 -0.071581535
000190 23 4c a9 bc c7 1e 4f bd 17 84 a1 3d c7 83 87 bd
       -0.020666188 -0.05056646 0.07886522 -0.066169314
0001a0 14 66 c1 3c 91 76 a1 bd 53 a1 40 bd f7 89 e7 3d
       0.023608245 -0.07883943 -0.04702885 0.113056116
0001b0 94 5e 9a bd c0 9d 2d bc 18 3f 0b 3e 98 da 52 3d
       -0.075375706 -0.010596693 0.13598287 0.051478
0001c0 84 cd a2 bd 8c c9 b1 bd 56 e9 56 bd a9 3c 41 bd
       -0.07949355 -0.0868102 -0.05246862 -0.04717699
0001d0 e5 ec 78 3d e7 8d 08 bd c4 09 fb 3d e2 99 a4 bd
       0.060772795 -0.033338454 0.12257722 -0.08037163
0001e0 10 fe 2d be fe bb a6 bd b5 18 44 3c e9 9c 37 be
       -0.16991448 -0.081413254 0.011968781 -0.1793095
0001f0 29 d1 8f be 08 87 a1 3c 87 9b 81 be 23 b0 71 be
       -0.28089264 0.019717708 -0.2531397 -0.23602347
000200 fe b3 b8 bd 62 96 7a 3b d6 15 8c be a5 66 a7 be
       -0.09018706 0.0038236608 -0.2736041 -0.326955
000210 f1 e8 c7 3e 0d 85 4e bd e3 d6 17 bd 3c 7c 22 3e
       0.39044908 -0.050419856 -0.037070166 0.15867704
000220 87 6d cb 3d 52 fc 93 3d 27 1b 29 be 59 b3 55 bd
       0.09933 0.07225861 -0.16514264 -0.052172992
000230 ca 67 06 be f8 40 a0 bd 67 d8 3a ba 0e ab fd bd
       -0.1312553 -0.07824892 -0.00071275834 -0.12386142
000240 a9 47 6e 3d 58 6c 4a bd 2a 93 46 3e 2c 25 f8 be
       0.05817381 -0.04941973 0.19392076 -0.4846586
000250 68 1e 96 be 3d a7 c2 be 09 cc 35 3d a3 4c e8 be
       -0.29320073 -0.38018218 0.044384036 -0.4537097
000260 e1 a5 45 be 10 3d 33 be bb 1a 07 3e 8b 3d 15 3e
       -0.19301559 -0.17503762 0.1319379 0.14574258
000270 56 d2 ef 3e 32 ff 7a 3e 62 3e 4d 3e 5f c4 91 bd
       0.4684016 0.24511412 0.20043328 -0.07117533
000280 e8 8c 81 be f8 61 7b be ff 1a 17 3d 80 64 36 3d
       -0.25302815 -0.24549091 0.03689098 0.044529438
000290 64 91 c6 3d 7a 1d b5 3d c9 ff ad be cf 3b d5 bd
       0.096957 0.08843513 -0.3398421 -0.10411798
0002a0 bd 3f 8c bd 84 ba 58 3d 49 01 6f 3e 31 78 e0 be
       -0.068480946 0.05291225 0.23340334 -0.438417
0002b0 d4 81 59 be e7 d4 b4 be 9e 64 a9 bd df 94 cc be
       -0.21240932 -0.35318682 -0.08271144 -0.3995733
0002c0 7b 2f 81 be 4d b0 2b bd e4 7e cf bd c2 95 18 3e
       -0.25231537 -0.04191618 -0.10131624 0.14900878
0002d0 fb e1 d4 3e c5 79 31 3e 7b eb 51 3e 97 61 55 be
       0.4157866 0.17331608 0.20499985 -0.20838009
0002e0 ab 0f 87 be 12 b8 70 be 9f 5d 07 3e 8f b9 56 bd
       -0.2637914 -0.23507717 0.13219307 -0.052423056
0002f0 4e c1 75 bd be 5f da 3c be c2 2d be 05 a8 00 3e
       -0.059998803 0.026656982 -0.1696882 0.12564094
000300 b3 2b cf bd ff 36 6f 3d 53 53 80 3d e1 c6 04 be
       -0.10115757 0.058402058 0.06265893 -0.12966491
000310 6b 41 3c be ea 1b e4 3c dd 0c 26 3e 37 66 b1 bd
       -0.1838433 0.027845342 0.16215844 -0.08662074
000320 d8 af de bc c7 7f 99 bd ab f9 1d 3e dd f2 fe bc
       -0.027183458 -0.07495075 0.15427272 -0.031121666
000330 54 fd a2 3e 29 f9 9b 3e a0 97 7d 3e 5c bc 07 be
       0.318339 0.30463532 0.24764872 -0.13255447
000340 b8 4c 0c be 0f c9 94 bd 0f e6 31 3e c0 f0 0b 3e
       -0.13701141 -0.072649114 0.17372917 0.13666058
000350 2d 9d 11 3e 76 6a 8e 3d d1 ab c2 bd 63 e1 9f bd
       0.14220114 0.069538996 -0.09505428 -0.07806661
000360 a4 d0 89 3d 55 c4 9b 3d 3d 9c 8e 3d 5e 26 a1 be
       0.06729248 0.07605807 0.06963394 -0.31474584
000370 ba c5 d6 be 3a 40 97 be fd ef 24 3d 58 4b 55 be
       -0.41947728 -0.29541188 0.040267933 -0.20829523
000380 1c 3f ca be 40 f2 24 be 8b b4 bd bd 3a 7b da 3d
       -0.39501274 -0.16108036 -0.092629515 0.10668035
000390 99 94 4e 3e 91 08 80 3e 53 67 d6 3c 9e 21 81 be
       0.20173873 0.25006536 0.026172316 -0.2522096
0003a0 28 af a2 be 03 bc 6b be c6 18 92 3e d2 98 58 3e
       -0.3177426 -0.2302094 0.28534526 0.21152046
0003b0 c0 f4 a9 3d c3 de f2 bd 96 9c 92 be da b7 0d bd
       0.082986355 -0.11858895 -0.2863509 -0.034599163
0003c0 e4 4f a5 bd 4d 1e 83 bb ac b5 05 3e 40 73 aa be
       -0.080718786 -0.004001415 0.13057584 -0.33291054
0003d0 5c f2 a5 be 7d d3 aa be 47 80 07 bd 7b df bc be
       -0.32411468 -0.33364478 -0.03308132 -0.36889252
0003e0 d8 31 b5 be fc 9b 0b bd 65 9c a4 bd f9 1b 38 be
       -0.3538959 -0.034084305 -0.080376424 -0.1797942
0003f0 d6 a3 ef 3e 5f 4c bf 3d c9 e6 f9 bd e8 35 44 3d
       0.46804684 0.093407385 -0.12202222 0.04790297

fc2.bias f4 [48]
000000 92 f8 04 bb da e2 9e 3e 6e 7d 44 3e 9e 5a a9 3e
       -0.002028976 0.3103245 0.19188473 0.33076948
000010 6f 5b 48 be f8 43 67 3e 11 e0 82 3e 4b 25 52 3e
       -0.19566129 0.22584522 0.25561574 0.20522039
000020 83 98 d5 3d 08 aa 85 3e 54 f1 72 3e 25 41 82 3e
       0.1042948 0.26106286 0.23724872 0.25440326
000030 5b fa c3 3e b8 44 d7 3d 95 9f 15 3e 85 61 02 3e
       0.38276944 0.10511154 0.14611657 0.12732513
000040 29 a2 a1 3e f2 fc c1 3e 66 b3 37 3e 65 5a 9d 3d
       0.3156903 0.37888294 0.17939529 0.07683257
000050 29 5c 0f 3e bc 13 9a 3e 5d 45 47 3e 49 3c cd 3e
       0.14 0.3009318 0.19460054 0.40085056
000060 c5 3e 88 3e 4a d0 a8 3e b2 6b af 3e f5 78 cc 3d
       0.2661039 0.32971412 0.34261853 0.09984008
000070 35 4e 8d 3e 37 8b 12 3e 28 96 aa 3e 14 08 56 3e
       0.2759873 0.14310919 0.33317685 0.20901519
000080 5e f3 7b 3e fc d2 ce 3d eb 61 04 bd 32 e8 69 3e
       0.24604556 0.10098836 -0.032319944 0.22842482
000090 be 6e 5f 3e 6f f4 52 3e 5b 8b b0 3e d6 cd 74 3d
       0.21819589 0.20601057 0.3448132 0.059766613
0000a0 b0 95 7c 3e 7a 78 81 3c 29 4b 4a 3e 76 22 d5 3d
       0.24666476 0.015804518 0.19755234 0.104069635
0000b0 5d b1 af 3e 71 93 ab 3e ea 99 cd 3e 3b 00 26 3e
       0.34315005 0.33510926 0.4015649 0.16211025

fc3.weight f4 [1, 48]
000000 fc 29 d6 bd ad 96 36 be d7 ec 0b bf de c4 5d be
       -0.10457227 -0.17830916 -0.54658264 -0.2165713
000010 8e 7a 3c bb dd 8a 8c be a0 0e bf be 08 db 62 be
       -0.0028759572 -0.27449694 -0.37315845 -0.22153866
000020 73 6e 88 3d 2b 15 88 be fa 15 c0 be 22 88 87 be
       0.066616915 -0.2657865 -0.37516767 -0.2647105
000030 7b b1 6b be c9 71 7f be 91 e0 09 be c3 83 8e be
       -0.23016922 -0.2494575 -0.13464572 -0.278349
000040 b5 78 27 be 46 60 89 be 90 7a 45 be aa ca 1f be
       -0.1635464 -0.26831263 -0.19285035 -0.15604654
000050 e2 c0 93 be e7 97 38 be c3 a7 82 be 34 e5 8f be
       -0.28858095 -0.18026696 -0.25518617 -0.28104556
000060 66 c3 1c be db 94 36 be 25 34 3d be 3d db 6c be
       -0.15308914 -0.17830221 -0.18476923 -0.23130508
000070 23 0d 9e be be ea 80 be 90 5f a9 be f7 a4 a5 be
       -0.30869398 -0.25179094 -0.3308072 -0.3235242
000080 64 d9 61 be ec 56 81 be d6 77 e2 bd 4d f4 40 be
       -0.22055584 -0.2526163 -0.11058013 -0.18843193
000090 50 35 36 be c2 00 77 be e5 53 4a be 57 96 31 be
       -0.17793775 -0.24121383 -0.19758566 -0.17342506
0000a0 2e c5 61 be 1c ac b2 bd ea 8f 0c be d2 2a 07 be
       -0.22047874 -0.087242335 -0.13726774 -0.13199928
0000b0 3c cf 5b be a5 7c 30 be 80 ba 8d be 2f 85 1a be
       -0.21465772 -0.17235048 -0.2768135 -0.15089868

bn1.weight f4 [24]
000000 8f 1a 9d 3f 44 88 9c 3f 5b 75 93 3f 00 00 80 3f
       1.227373 1.2229085 1.1520189 1.0
000010 00 00 80 3f 40 f9 89 3f 32 1f 92 3f 00 00 80 3f
       1.0 1.077919 1.141577 1.0
000020 ee b1 92 3f c2 ec 83 3f ab 74 8e 3f b9 49 8b 3f
       1.146055 1.0306628 1.1129354 1.0881873
000030 00 00 80 3f 4b 84 9a 3f 4c 61 99 3f 24 f6 8c 3f
       1.0 1.2071623 1.1982818 1.1012616
000040 d0 b6 88 3f dc ac 8b 3f ef 23 94 3f 67 35 a2 3f
       1.068079 1.0912127 1.1573466 1.2672547
000050 63 07 92 3f ae 9d 9f 3f 18 76 8b 3f 38 51 95 3f
       1.1408504 1.2469995 1.0895414 1.1665411

bn1.bias f4 [24]
000000 96 30 65 be ef f2 4b be 80 dd 1e bd cb 13 b1 be
       -0.22381815 -0.1991689 -0.038785458 -0.34585413
000010 07 a4 a9 be 29 b3 8d be 8b f9 51 be 24 9a a9 be
       -0.33132955 -0.2767575 -0.2050535 -0.33125412
000020 c6 e7 97 be fb c1 4c be a6 70 59 be 9c 94 49 be
       -0.29669017 -0.19995873 -0.21234378 -0.19685596
000030 88 d2 b3 3e ac 15 c2 3d d5 26 10 be 13 dc 68 be
       0.3512156 0.0947679 -0.14077313 -0.22740202
000040 81 a3 98 be 28 33 93 be eb 21 a1 bd 76 30 0c be
       -0.29812244 -0.28749967 -0.078677975 -0.13690361
000050 0d 40 61 be 09 72 73 be 46 9a 9a be 1b 10 5b be
       -0.2199709 -0.2377397 -0.30195826 -0.21392862

bn1.running_mean f4 [24]
000000 97 96 63 59 ff 18 69 59 f0 ea 40 59 00 00 00 00
       4.0037747e+15 4.100697e+15 3.3938445e+15 0.0
000010 00 00 00 00 04 00 00 00 46 77 2a 59 00 00 00 00
       0.0 6e-45 2.998868e+15 0.0
000020 04 00 00 00 1a 8a 3e 56 54 4a 60 59 4e a3 71 58
       6e-45 5.2375088e+13 3.9457575e+15 1.06273476e+15
000030 00 00 00 00 1a 75 b5 58 53 cd c9 58 43 87 31 56
       0.0 1.5961164e+15 1.7750696e+15 4.8798626e+13
000040 04 00 00 00 04 00 00 00 7e 56 0c 59 63 ef 3a 59
       6e-45 6e-45 2.4688497e+15 3.2885971e+15
000050 e6 30 19 59 f4 b1 18 59 04 00 00 00 ce 56 87 57
       2.6949647e+15 2.686241e+15 6e-45 2.976138e+14

bn1.running_var f4 [24]
000000 81 4c 5c 75 03 18 67 75 8a 4a 1e 75 04 00 00 00
       2.7926196e+32 2.9294619e+32 2.006579e+32 6e-45
000010 04 00 00 00 04 00 00 00 ae 2e f7 74 04 00 00 00
       6e-45 6e-45 1.5667042e+32 6e-45
000020 04 00 00 00 98 69 1a 6f ea f5 55 75 78 56 78 73
       6e-45 4.7788347e+28 2.7122729e+32 1.9675345e+31
000030 04 00 00 00 0e 0b 0c 74 cd 34 2d 74 51 0b 06 6f
       6e-45 4.4381456e+31 5.4891253e+31 4.148467e+28
000040 04 00 00 00 04 00 00 00 a6 87 a7 74 36 a0 14 75
       6e-45 6e-45 1.0618467e+32 1.8840561e+32
000050 50 9f c7 74 02 55 c6 74 04 00 00 00 c4 ce 9b 71
       1.2652567e+32 1.2570788e+32 6e-45 1.5430445e+30
