financial/finance/trained_models/DDPG__time__PnL/critic.pth (torch, 8318 bytes, 5 tensors)

fcs1.weight f4 [24, 8]
0	0xbe3f6598	-0.18691099
1	0xbd73e828	-0.059547573
2	0xbe418fe1	-0.18902542
3	0xbd1ae748	-0.037818223
4	0x3b5aa540	0.0033362657
5	0xbc578620	-0.0131545365
6	0xbdcd59f5	-0.100269236
7	0x3e11134a	0.14167514
8	0x3deb6f6c	0.114958614
9	0xbd4dfe7c	-0.050291523
10	0xbda52c2a	-0.08065064
11	0x3e036928	0.12833083
12	0x3e35daee	0.17759296
13	0xbe3f63c0	-0.18690395
14	0xbd34a540	-0.044102907
15	0xbc9b2eb0	-0.01894316
16	0xbd975bb4	-0.07390538
17	0x3e3271e8	0.17426264
18	0xbcf70030	-0.030151457
19	0x3e313850	0.17306638
20	0x3a844400	0.0010091066
21	0xbcb56250	-0.022141606
22	0xbdf3d8da	-0.119065955
23	0xbd8b00c8	-0.067872584
24	0x3d86b4f8	0.06577486
25	0x3db8eae4	0.09029177
26	0xbbedfc80	-0.0072627664
27	0x3e472a8c	0.19449824
28	0xbe10abfa	-0.14128104
29	0x3da048d8	0.07826394
30	0x3e3c4316	0.18384966
31	0xbd1161bc	-0.035493597
32	0x3e25f204	0.16205603
33	0x3b5c8500	0.003364861
34	0xbe1c86a1	-0.15285732
35	0xbde558d8	-0.11198586
36	0x3d9b9a74	0.07597819
37	0xbdb4e8b9	-0.08833451
38	0x3cdeeb0e	0.027211692
39	0x3e375316	0.17902789
40	0x3d8e008c	0.06933698
41	0xbc9c7fd8	-0.01910393
42	0x3d50fc48	0.051021844
43	0xbdf0dad0	-0.11760485
44	0xbe2fa1e1	-0.17151596
45	0xbe1d1f62	-0.15344003
46	0xbe2f644f	-0.17128108
47	0x3d2b9520	0.041890264
48	0x3d22db58	0.039759964
49	0xbdb1a802	-0.08674623
50	0xbe4c74c3	-0.19966416
51	0x3de27528	0.11057502
52	0xbded340d	-0.115821935
53	0xbd0b9570	-0.03407806
54	0xbe2f431a	-0.17115441
55	0xbdebd81f	-0.11515831
56	0x3dae6464	0.08515242
57	0xbe42c0a3	-0.19018798
58	0xbdee62f6	-0.11639969
59	0x3e1cb602	0.15303805
60	0xbdd664fe	-0.104684815
61	0xbdadf8f1	-0.084947474
62	0xbd97de84	-0.07415488
63	0x3d903475	0.070412554
64	0x3ec9fb71	0.39449647
65	0xbe3724e2	-0.17885163
66	0xbe2c8e31	-0.16851117
67	0xbe259a64	-0.16172177
68	0xbd4eb9f2	-0.0504703
69	0xbe2e8be2	-0.17045549
70	0x3e170f21	0.14751865
71	0x3e0d7e98	0.13817823
72	0xbf20eac6	-0.62858236
73	0xbe5df3a2	-0.2167497
74	0x3963088c	0.00021651591
75	0x3faca07c	1.3486476
76	0xbeadff2c	-0.33983743
77	0x3e2dc084	0.1696797
78	0x3d3762bd	0.0447719
79	0x3d98da58	0.07463521
80	0xbc682ad0	-0.014170364
81	0x3e5011d6	0.20319304
82	0x3a7c9f00	0.000963673
83	0xbe2667f8	-0.16250598
84	0xbc73e630	-0.014886424
85	0x3dcff998	0.10155028
86	0xbd8875ce	-0.066630945
87	0xbddaec88	-0.10689646
88	0x3e2c3050	0.16815305
89	0x3ddd26c0	0.107984066
90	0xbd0e0bd4	-0.03467925
91	0x3c2adc40	0.010428488
92	0xbcb0dad8	-0.021588728
93	0x3d421ca8	0.04739061
94	0x3bedb6e0	0.0072544664
95	0xbdfcf973	-0.12352266
96	0x3d1ae80c	0.037818953
97	0x3baef140	0.005338818
98	0x3c5839b0	0.0131973475
99	0xbd9f4ff8	-0.07778925
100	0x3d5639d0	0.052301228
101	0xbe290697	-0.1650642
102	0x3d79ed68	0.061017424
103	0x3de28958	0.110613525
104	0x3ec31984	0.38105404
105	0xbeb60fa4	-0.35558808
106	0xbe53d00c	-0.20684832
107	0xbdb93571	-0.09043396
108	0xbe49e9cd	-0.19718094
109	0xbe218672	-0.15773943
110	0x3e7ac99f	0.24490975
111	0x3e3c6449	0.18397631
112	0x3de7aeb8	0.11312622
113	0x3e10cd76	0.14140877
114	0x3da0eeac	0.07858023
115	0x3deb4590	0.11487877
116	0x3e0a70c8	0.13519585
117	0xbd435150	-0.047684968
118	0xbcd49250	-0.025948673
119	0x3e150b10	0.14555001
120	0xbf14f51a	-0.58186495
121	0x3ddd19f1	0.107959636
122	0x3c568151	0.013092355
123	0x3eccd278	0.40004325
124	0x3e4cdbdc	0.20005745
125	0x3e488ab9	0.19584168
126	0xbd73203a	-0.059356906
127	0x3db1df47	0.08685165
128	0xbdb6932c	-0.089147896
129	0xbee76b65	-0.45199123
130	0xbe754480	-0.23951912
131	0x3e24cc3e	0.16093537
132	0x3e8f7f93	0.2802702
133	0xbda8a6f7	-0.08234971
134	0x3dd4eff0	0.10397327
135	0xbe5626dc	-0.20913261
136	0x3e832223	0.25611982
137	0xbdbe6df5	-0.092983164
138	0xbda59dc7	-0.08086734
139	0xbe984603	-0.29740915
140	0xbce5a3b2	-0.028032158
141	0x3d4e95c7	0.050435808
142	0x3e5100fa	0.20410529
143	0xbd9615da	-0.073283866
144	0xbd7cd63e	-0.061727755
145	0x3dab1867	0.08354264
146	0xbdead4d9	-0.11466379
147	0xbe4669ca	-0.19376293
148	0x3e72c72d	0.23708792
149	0xbdf26ef0	-0.11837566
150	0x3e117fce	0.1420891
151	0xbd7b8d8d	-0.06141429
152	0x3f20f7dd	0.6287821
153	0xbebc36c0	-0.3676052
154	0x3b24ede4	0.0025166208
155	0xbd61c683	-0.055120956
156	0x3c925346	0.017861973
157	0x3da268fa	0.07930179
158	0x3e0eaf8b	0.13934152
159	0xbd5828d9	-0.05277333
160	0xbae94d00	-0.0017799437
161	0x3d5ef3e8	0.054431826
162	0xbd3cb7cc	-0.04607372
163	0x3e487118	0.19574392
164	0xbda136c0	-0.07871771
165	0xbe3aac16	-0.18229708
166	0xbdc70598	-0.09717864
167	0xbe41fdbf	-0.18944453
168	0x3f2ef82e	0.6834744
169	0xbe9e0d26	-0.30869406
170	0xbe9f1e6d	-0.310779
171	0xbe531aea	-0.20615736
172	0xbe10b929	-0.14133133
173	0xbdf6ab22	-0.1204436
174	0x3e2a8aeb	0.16654555
175	0xbd80b894	-0.062852055
176	0x3f1c0820	0.609499
177	0xbd38c4b9	-0.045109484
178	0xbe57787f	-0.2104206
179	0xbdbdb665	-0.092633046
180	0xbe15a303	-0.14612965
181	0x3e05eb42	0.13078025
182	0x3e7d4a3c	0.2473535
183	0x3d021d37	0.031766143
184	0x3e3e7a4c	0.1860134
185	0xbe4f983a	-0.20272914
186	0xbcb79b78	-0.022413
187	0x3d262034	0.040558055
188	0xbe35ae1f	-0.17742203
189	0x3dcb6f40	0.09933329
190	0xbd9f52d0	-0.07779467
191	0xbd973336	-0.073828146

fcs1.bias f4 [24]
0	0xbe7f5fcc	-0.24938887
1	0x3c812cd0	0.015768439
2	0xbe7f36a2	-0.24923185
3	0xbe474beb	-0.19462554
4	0xbe695e97	-0.2278999
5	0x3df77328	0.12082511
6	0xbe57be5d	-0.21068712
7	0xbcc9290b	-0.024555704
8	0xbce0b17e	-0.027428385
9	0x3e06ecff	0.13176344
10	0xbe88d60e	-0.2672581
11	0xbe788b42	-0.24271873
12	0xbe5238d0	-0.20529485
13	0x3e518258	0.20459878
14	0xbe0223e6	-0.12709007
15	0x3e8f5884	0.2799722
16	0x3d8bb504	0.06821635
17	0x3ca6f8a1	0.020382227
18	0xbd59d4ab	-0.05318133
19	0xbdaff786	-0.08592133
20	0x3d35b1d8	0.04435906
21	0xbdd63d6d	-0.10460935
22	0xbd3b9cd3	-0.045803856
23	0x3d38c640	0.04511094

fc2.weight f4 [48, 25]
0	0xbdea8932	-0.11451949
1	0x3d71b220	0.059007764
2	0xbdd716c7	-0.10502391
3	0xbcfaea30	-0.030629247
4	0x3d3b1d03	0.045681965
5	0x3ddeb110	0.10873616
6	0x3d05afd0	0.03263837
7	0xbd8aacbb	-0.06771227
8	0xbd1892b7	-0.037249293
9	0x3d99d62a	0.07511552
10	0x3cdb61d8	0.026780054
11	0x3df8d710	0.12150395
12	0x3d5ea3e0	0.054355502
13	0x3dfdfc05	0.124015845
14	0xbdee3321	-0.11630846
15	0x3dcaef72	0.09908952
16	0xbd2dfc84	-0.042477146
17	0xbbcd06ca	-0.006256913
18	0x3d6609eb	0.056161802
19	0x3e48cae4	0.19608647
20	0x3ce9e360	0.028550804
21	0x3eba5c0b	0.36398348
22	0xbd31f30c	-0.04344468
23	0x3d36acdc	0.044598445
24	0xbe51ca35	-0.20487292
25	0x3cb9a838	0.02266322
26	0x3df3857c	0.118906945
27	0x3dc75204	0.0973244
28	0x3dfd24c4	0.12360528
29	0x3da0046a	0.07813342
30	0xbc43a760	-0.011941761
31	0x3d1a5cb0	0.03768605
32	0xbd7709d8	-0.060312122
33	0x3dfaea34	0.12251702
34	0x3d940290	0.07227051
35	0xbdd85ba6	-0.105643556
36	0x3dff9868	0.12480241
37	0xbb0c5e40	-0.0021418482
38	0xbbd23e60	-0.006416127
39	0xbd21cdf6	-0.03950306
40	0xbd1bfbf2	-0.03808207
41	0x3becb880	0.0072241426
42	0xbd904f7b	-0.0704641
43	0xbe097c73	-0.1342638
44	0xbd98445d	-0.07434914
45	0xbceb4c08	-0.028722778
46	0x3ddf3924	0.108995706
47	0x3dd97650	0.106182694
48	0xbdb11c86	-0.086480185
49	0xbbb59b20	-0.005542174
50	0xbd2aa1c8	-0.041658193
51	0xbd9e2373	-0.07721605
52	0xbccfeca0	-0.025381386
53	0xbd4d2264	-0.050081626
54	0x3da53a46	0.080677554
55	0xbd9299d7	-0.07158249
56	0x3cb5eae8	0.022206739
57	0xbda6d02e	-0.08145176
58	0xbd6609ff	-0.056161877
59	0x3dccc47a	0.099984124
60	0xbd911f53	-0.07086053
61	0xbc0e32d0	-0.008679107
62	0x3e0d2866	0.13784942
63	0x3d1c71f3	0.038194608
64	0xbd967636	-0.07346766
65	0xbdcdd5f1	-0.10050572
66	0xbd886c3c	-0.06661269
67	0xbd735830	-0.059410274
68	0x3d4df0a2	0.050278313
69	0xbd34a040	-0.04409814
70	0x3df94f30	0.12173307
71	0xbdb41c3b	-0.08794447
72	0xbd6b2577	-0.057408776
73	0x3d573f28	0.052550465
74	0x3dd29893	0.102830075
75	0x3e0d62d4	0.13807231
76	0x3cbd4130	0.023102373
77	0x3bc75c20	0.00608398
78	0xbd8470d7	-0.06466835
79	0x3da7057c	0.08155343
80	0xbdab58a1	-0.08366514
81	0xbd1b656a	-0.037938513
82	0xbdf71076	-0.120636865
83	0xbe13d19c	-0.14435428
84	0x3d986b20	0.074423075
85	0x3c20a8e0	0.009805888
86	0x3deba5c4	0.11506227
87	0x3deb3880	0.11485386
88	0x3d8e049e	0.069344744
89	0x3d6c98f8	0.05776307
90	0xbd338dc8	-0.043836385
91	0x3d90c934	0.070696265
92	0x3d81c51e	0.06336425
93	0x3d35f371	0.044421617
94	0xbb8887c0	-0.0041665733
95	0x3cb09de0	0.021559656
96	0xbaa680f4	-0.0012703226
97	0xbde2ebe5	-0.110801496
98	0x3d093dec	0.03350632
99	0xbde6951a	-0.112589076
100	0x3d8f6d58	0.070032775
101	0xbdb01f90	-0.0859977
102	0xbd411e32	-0.047147937
103	0xbd8c30da	-0.06845255
104	0x3dc37cfa	0.09545322
105	0xbdd02b5c	-0.1016452
106	0x3d96f06a	0.07370074
107	0x3d7053d4	0.058673695
108	0x3de4cd8b	0.11172017
109	0x3c575bfb	0.013144488
110	0x3da125d6	0.07868545
111	0x3de9aca8	0.11409885
112	0x3ce8e840	0.028431058
113	0x3d1463ca	0.03622798
114	0xbde7246e	-0.11286245
115	0xbdaec026	-0.08532743
116	0x3bc59bb1	0.0060305228
117	0x3cf68659	0.030093359
118	0x3b97d368	0.004633356
119	0x3dc63723	0.09678485
120	0xbd19bfd8	-0.037536472
121	0x3e9b49fe	0.3032989
122	0x3e1c8840	0.1528635
123	0xbe05781f	-0.13034104
124	0xbced9283	-0.029000526
125	0xbe0c3ec2	-0.13695815
126	0xbe0d57cf	-0.13803028
127	0xbdb91eb6	-0.09039061
128	0xbc9c2d50	-0.019064575
129	0x3d251ed4	0.040312603
130	0xbde0cf44	-0.10977033
131	0x3de3bea0	0.11120343
132	0x3e05a85c	0.13052505
133	0x3c117fc0	0.008880556
134	0x3df09dc8	0.117488444
135	0xbd85d2fd	-0.065343834
136	0xbd69e0d4	-0.05709918
137	0xbc9895a8	-0.01862605
138	0x3c813260	0.015771091
139	0xbdce3576	-0.100687906
140	0xbdecb35f	-0.1155765
141	0x3d698bdc	0.057018146
142	0x3d2a75f0	0.04161638
143	0x3e1096fc	0.14120096
144	0xbd710ae8	-0.05884829
145	0x3d50c768	0.05097142
146	0xbd6e931a	-0.058245756
147	0x3d91eca8	0.07125217
148	0xbc02fff0	-0.007995591
149	0x3ddb2214	0.10699859
150	0x3da43a5c	0.08018944
151	0x3df60b74	0.12013903
152	0x3d97e8c4	0.074174434
153	0x3bb1b140	0.005422741
154	0x3dfebe28	0.12438613
155	0xbdada1cc	-0.08478126
156	0x3e0b678c	0.13613719
157	0x3e106e0c	0.1410448
158	0x3e0d30b0	0.13788104
159	0xbd8a151e	-0.06742309
160	0xbd9ca0bb	-0.076478444
161	0x3c159e60	0.009131998
162	0x3d3819b8	0.044946402
163	0x3d94485c	0.07240364
164	0x3d707208	0.0587025
165	0x3dfbb400	0.12290192
166	0xbd141efa	-0.036162354
167	0xbd41f590	-0.047353327
168	0x3d462c30	0.048381984
169	0x3d24bffc	0.040222153
170	0xbdac6f00	-0.08419609
171	0x3c64bcb0	0.013961002
172	0xbde06fd0	-0.109588265
173	0xbd2d711a	-0.04234419
174	0xbd680860	-0.056648612
175	0x3e018f7c	0.12652391
176	0xbe050c13	-0.12992887
177	0xbdae8817	-0.08522051
178	0xbe10a4a5	-0.14125307
179	0x3d151b00	0.036402702
180	0xbde385ca	-0.111095026
181	0x3d3f4788	0.046699077
182	0xbdcd5450	-0.10025847
183	0xbdbd5b9c	-0.09245989
184	0xbd97043b	-0.07373854
185	0x3cb17190	0.021660596
186	0x3e07cfe6	0.132629
187	0x3e0a7298	0.13520277
188	0xbc32a980	-0.01090467
189	0xbe10c572	-0.1413782
190	0xbd4351e8	-0.047685534
191	0xbd6150bc	-0.055008635
192	0xbcfb7e88	-0.030699983
193	0x3d61e4b0	0.055149734
194	0x3d94c208	0.07263571
195	0x3d831024	0.06399563
196	0x3d28e394	0.04123266
197	0xbd6f5644	-0.05843188
198	0xbac8b100	-0.0015311539
199	0x3c967b98	0.018369481
200	0xbd96fdc8	-0.07372624
201	0xbc538c70	-0.012911901
202	0xbc939970	-0.0180175
203	0xbe0ba518	-0.13637197
204	0x3dc8656c	0.0978497
205	0xbc6f1700	-0.014592886
206	0xbdff8985	-0.12477402
207	0x3de9dfa0	0.11419606
208	0xbd9f0e75	-0.07766429
209	0x3d51502c	0.05110185
210	0x3e1293a8	0.14314139
211	0x3bdaf2a0	0.006681755
212	0x3d2a17a0	0.041526437
213	0x3d6ae744	0.05734946
214	0x3ddf6a14	0.10908905
215	0xbd35654a	-0.04428605
216	0xbda65774	-0.08122149
217	0xbc391060	-0.011295408
218	0x3de72d48	0.112879336
219	0x3c4b5510	0.012410417
220	0x3dcd6378	0.10028738
221	0xba8ca800	-0.001073122
222	0x3d3564e4	0.04428567
223	0x3ba47600	0.0050189495
224	0x3b806420	0.003918186
225	0xbe0ca6a5	-0.13735445
226	0xbe013699	-0.12618484
227	0x3c4496a0	0.011998802
228	0x3d924dd6	0.07143752
229	0x3dc0d249	0.09415109
230	0x3bcd3740	0.00626269
231	0x3d7934d8	0.06084141
232	0x3d6cbe41	0.057798628
233	0xbe03c300	-0.12867355
234	0xbe06b4bf	-0.13154887
235	0xbde531e3	-0.11191156
236	0x3b22a180	0.00248155
237	0xbdbaea34	-0.09126702
238	0xbd4efa25	-0.050531525
239	0xbcb0e7dc	-0.021594934
240	0x3d54ea53	0.05198128
241	0x3cec254d	0.02882638
242	0x3e04a7c1	0.12954618
243	0x3e00c94f	0.12576793
244	0xbdbc9507	-0.09208112
245	0xb9ee6600	-0.00045470893
246	0x3cc08329	0.023500042
247	0x3df947b4	0.121718794
248	0xbd373a36	-0.04473325
249	0xbd7d6565	-0.061864275
250	0xbdbb4074	-0.09143153
251	0x3dd9d190	0.10635674
252	0xbd277e4e	-0.040891938
253	0xbd5d6bfa	-0.054058053
254	0x3da8e996	0.08247678
255	0x3e080070	0.13281417

fc2.bias f4 [48]
0	0x3dd7e377	0.10541432
1	0xbe4c9fa0	-0.19982767
2	0xbe05013d	-0.12988754
3	0x3cf06dda	0.029349256
4	0xbd21fc27	-0.03954711
5	0xbe20c86e	-0.15701458
6	0xbdb54b30	-0.088522315
7	0xbdbf4e2d	-0.09341083
8	0xbe4ae878	-0.19815242
9	0x3c6d65f3	0.014489639
10	0x3e04884f	0.12942623
11	0x3d91e65e	0.07124017
12	0xbdc29d4d	-0.09502659
13	0xbe3c0f8b	-0.18365304
14	0xbe253a5a	-0.1613554
15	0x3cfd49b3	0.030918932
16	0x3ddf6de3	0.10909631
17	0xbda5e073	-0.08099451
18	0xbddee1bd	-0.108829
19	0xbdda80f7	-0.10669129
20	0xbc8dd590	-0.017313749
21	0xbe427d42	-0.18993095
22	0xbe34b982	-0.1764889
23	0x3e835a26	0.25654715
24	0xbdc35847	-0.09538322
25	0xbd8a4a4c	-0.06752452
26	0xbd7c2bac	-0.061565086
27	0xbe33eb07	-0.17570125
28	0xbd106b58	-0.03525862
29	0x3d917c35	0.07103769
30	0xbda6523a	-0.08121152
31	0xbc34cfe0	-0.011035889
32	0xba7acb00	-0.00095669925
33	0xbe4be120	-0.19910097
34	0x3e02b51c	0.127644
35	0x3e20b1ec	0.15692872
36	0x3e0f3b75	0.13987525
37	0xbde357fe	-0.111007676
38	0x3de2732b	0.11057123
39	0xbe3fe1b8	-0.18738449
40	0xbd8da18b	-0.069155775
41	0xbd269cc8	-0.040676862
42	0xbd9c075b	-0.076185904
43	0x3de67537	0.11252826
44	0xbdbaa330	-0.09113157
45	0xbcbde598	-0.023180768
46	0xbd6c8bf8	-0.057750672
47	0xbe4052ff	-0.1878166

fc3.weight f4 [1, 48]
0	0xbe04e3fe	-0.12977597
1	0x3a226ce4	0.00061960355
2	0x3bfcc2ab	0.007713636
3	0xbbcd50ef	-0.0062657516
4	0xbc15475b	-0.009111251
5	0x3946e2f0	0.00018967292
6	0xbb1baa85	-0.002375276
7	0x3af04390	0.0018330682
8	0xbb35649c	-0.0027678376
9	0xbc154795	-0.009111305
10	0xbe1c8e8c	-0.15288752
11	0x3d3f215f	0.046662685
12	0x3b31a328	0.0027105305
13	0xbb1227be	-0.002230152
14	0xba1a6dc8	-0.00058909925
15	0x3e9cc658	0.30620074
16	0xbdfa3a96	-0.12218206
17	0x3b2f36d0	0.0026735552
18	0xbaad77e2	-0.001323458
19	0xb9d294f0	-0.00040165288
20	0xbb00850e	-0.0019610557
21	0xbab66ca7	-0.0013917879
22	0x3b3fdbf0	0.002927538
23	0x3f026f53	0.5095112
24	0x39679f30	0.00022089179
25	0xbddd1760	-0.10795474
26	0xbbf25b83	-0.007396163
27	0x3b146dc2	0.0022648429
28	0xb9ebd128	-0.00044978526
29	0x3e26ea4c	0.16300315
30	0xbb1c770f	-0.0023874675
31	0xbe573d29	-0.21019424
32	0x3aba7548	0.0014225626
33	0x3aecd868	0.0018069865
34	0xbbb3487d	-0.0054712878
35	0x3c916b4f	0.017751364
36	0x3d035805	0.032066364
37	0xbe345a38	-0.1761254
38	0x3d583e53	0.052793812
39	0xba43d404	-0.00074702525
40	0x3bcd84e9	0.0062719476
41	0x3b2166da	0.0024627955
42	0xba2ec4d3	-0.00066669023
43	0x3e328054	0.17431766
44	0x398c7480	0.0002678968
45	0xba2af374	-0.00065212627
46	0xb9868190	-0.00025655003
47	0x3adc7fe0	0.0016822778
