financial/finance/trained_models/DDPG__volatility__CjOeCriterion/actor.pth (torch, 8116 bytes, 5 tensors)

fc1.weight f4 [24, 8]
000000 63 24 31 be b8 c3 f3 3d 24 6e df 3d aa cf 43 3e
       -0.17299037 0.11902565 0.109096795 0.19122186
000010 90 61 8c bd 90 11 2a 3c 60 c8 23 3d 98 a6 50 3e
       -0.06854546 0.010380164 0.039986014 0.2037605
000020 6f 51 e2 3f df ac 25 3e 73 a2 71 be 24 2e c0 be
       1.7681102 0.16179226 -0.23597126 -0.37535203
000030 b3 7b 86 be 43 dc 35 be b0 60 c9 3e f0 46 ad 3e
       -0.2626625 -0.17759804 0.3933158 0.33843184
000040 ac ee 1a 3e 00 f1 41 3b 22 8c 01 be 78 1c 4c 3e
       0.15130109 0.002959311 -0.12651113 0.19932735
000050 1e ac 27 3e 7c fd b4 3d 08 5d e4 bd 02 aa 24 3e
       0.16374251 0.08837411 -0.11150557 0.16080478
000060 08 32 98 3c 94 36 0a 3e 88 7a ae 3d 70 fc dd 3d
       0.018578544 0.13497382 0.08519465 0.10839164
000070 ac 69 37 be 7c cc e7 bd 74 bb fa 3d 24 30 2e bd
       -0.17911404 -0.11318299 0.12242785 -0.04252638
000080 8c d8 35 be e2 15 3e 3e c0 a5 90 bb 98 9d 28 3e
       -0.17758387 0.18563035 -0.00441429 0.16466367
000090 41 60 23 be 44 ee 8f 3d 06 77 9d bd 98 eb af bd
       -0.15954687 0.070278674 -0.076887175 -0.08589858
0000a0 50 78 fd bf 69 12 64 bf 98 63 ac 3d f2 5b 02 be
       -1.9802341 -0.8909059 0.084174335 -0.12730387
0000b0 ad ca a2 3e 15 a0 0b 3f c9 35 b3 be 2d 50 88 bd
       0.31795254 0.5454114 -0.35001972 -0.06655917
0000c0 98 65 3f be 28 e8 73 bd e1 8f 41 be 48 e7 1a bd
       -0.18691099 -0.059547573 -0.18902542 -0.037818223
0000d0 40 a5 5a 3b 20 86 57 bc f5 59 cd bd 4a 13 11 3e
       0.0033362657 -0.0131545365 -0.100269236 0.14167514
0000e0 6c 6f eb 3d 7c fe 4d bd 2a 2c a5 bd 28 69 03 3e
       0.114958614 -0.050291523 -0.08065064 0.12833083
0000f0 ee da 35 3e c0 63 3f be 40 a5 34 bd b0 2e 9b bc
       0.17759296 -0.18690395 -0.044102907 -0.01894316
000100 19 06 b4 bd 17 c0 db bd f7 91 35 be 73 e6 87 3d
       -0.087902255 -0.107299976 -0.17731462 0.066357516
000110 12 84 19 3d ec 19 10 3e 76 cd ac be 08 0b fe bc
       0.037479468 0.14072388 -0.33750504 -0.03101112
000120 99 d4 6f bf c1 9c 07 bf 54 15 92 be 67 e3 d1 3d
       -0.93683773 -0.5297356 -0.28531897 0.10248452
000130 af 34 13 bc 8c b8 fb 3e e0 87 29 3e 90 5c 61 3e
       -0.008984729 0.49164236 0.16555738 0.22007966
000140 04 f2 25 3e 00 85 5c 3b a1 86 1c be d8 58 e5 bd
       0.16205603 0.003364861 -0.15285732 -0.11198586
000150 74 9a 9b 3d b9 e8 b4 bd e8 16 49 3d 6c bb 4d 3e
       0.07597819 -0.08833451 0.04909411 0.20091027
000160 8c 00 8e 3d d8 7f 9c bc 48 fc 50 3d d0 da f0 bd
       0.06933698 -0.01910393 0.051021844 -0.11760485
000170 e1 a1 2f be 62 1f 1d be 4f 64 2f be 20 95 2b 3d
       -0.17151596 -0.15344003 -0.17128108 0.041890264
000180 58 db 22 3d 02 a8 b1 bd c3 74 4c be 28 75 e2 3d
       0.039759964 -0.08674623 -0.19966416 0.11057502
000190 0d 34 ed bd 70 95 0b bd 1a 43 2f be 1f d8 eb bd
       -0.115821935 -0.03407806 -0.17115441 -0.11515831
0001a0 b1 1c 63 bf 45 eb 57 bf 62 7d dc be a7 39 1d 3d
       -0.88715655 -0.8434337 -0.4306441 0.03838506
0001b0 bb 19 95 3c b4 81 a2 3e 3e a0 8b 3b 4a 47 eb 3e
       0.018200746 0.3173958 0.0042610457 0.45952827
0001c0 78 85 4f 3f 93 1f 97 3e fa 83 1e 3e c9 a5 67 3d
       0.8106303 0.29516277 0.15480033 0.05655459
0001d0 6c 97 58 bd 08 ce d2 be de 53 1e 3f 43 d3 9c 3e
       -0.052878782 -0.41172814 0.6184672 0.3062993
0001e0 66 11 90 bf 3b 16 57 bf 51 06 70 be 91 6e 05 3d
       -1.125531 -0.84018296 -0.2343991 0.032576147
0001f0 8b 60 94 3d 14 8d 01 3f 5b 42 94 bd 42 68 da 3c
       0.072449766 0.50605893 -0.07239219 0.026661042
000200 68 00 fd bf 8c 35 32 bf 20 36 5f bd 70 c3 6f be
       -1.9765749 -0.69612956 -0.054494977 -0.23414397
000210 51 10 42 3e db ba 23 3f aa 35 bc be 4a fc 6c bc
       0.18951537 0.63956994 -0.36759692 -0.014464447
000220 53 d0 50 bf 61 50 1a bf ec d5 9a be ce a4 f1 bd
       -0.8156788 -0.602789 -0.30241334 -0.11799012
000230 cd b1 d1 3d 9d a5 d8 3e 05 e8 eb bd 9d bb 48 3d
       0.10238991 0.42313853 -0.115188636 0.049007047
000240 25 02 c2 3f 5b d7 77 3e 1d db 13 bd ee 19 76 be
       1.5156904 0.24203245 -0.036097635 -0.24033329
000250 7e 82 c6 bd 4d 3e fa be 5e db d3 3e 37 3d 78 3e
       -0.09692858 -0.48875657 0.413783 0.24242102
000260 0a e3 82 3f f8 28 b4 3e 80 76 6f 3e 61 be 97 3d
       1.0225537 0.35187507 0.23385048 0.07409359
000270 76 18 85 be 53 66 f1 be 73 2e 00 3f d8 25 4f 3e
       -0.25995225 -0.4714838 0.50070876 0.2022928
000280 c5 dd 86 bf 38 82 e7 be 2b 7c 17 be 89 ed 8d 3d
       -1.0536429 -0.45216537 -0.1479346 0.06930072
000290 82 cc 91 3e 78 05 b5 3e 0f e8 85 bb e6 a0 e0 3e
       0.2847634 0.35355735 -0.0040865014 0.43872756
0002a0 1f e1 92 bf e3 57 8f be eb dc b9 be af a7 53 be
       -1.1474952 -0.2799674 -0.3630136 -0.20669435
0002b0 2a b7 56 be 4a 91 32 be 6d ac ad be 57 12 11 3d
       -0.20968309 -0.17438236 -0.33920613 0.03541788
0002c0 36 4a b8 3f e7 b9 c3 3e f9 3f 44 3d 6f 53 09 3e
       1.4397647 0.3822777 0.04791257 0.13410734
0002d0 cd 24 f9 bd 0e 03 ed be 55 34 0c 3f ef 86 15 3e
       -0.12165222 -0.46291393 0.5476735 0.14602254
0002e0 bb 5f b4 3f 56 e0 92 3e 7c b3 9f bd 65 e1 b7 be
       1.4091715 0.2868678 -0.07797906 -0.3591415
0002f0 ed 2e a0 be 07 76 70 be d9 24 da 3e 7d b3 e9 3d
       -0.31285802 -0.23482524 0.42606238 0.11411188

fc1.bias f4 [24]
000000 cc 5f 7f be b3 5e 10 3e a2 36 7f be eb 4b 47 be
       -0.24938887 0.14098625 -0.24923185 -0.19462554
000010 40 f6 52 be c6 c6 b0 3e 5d be 57 be 00 c2 fc bb
       -0.2060175 0.34526652 -0.21068712 -0.0077135563
000020 a4 9e 93 3e 60 f4 0d 3f 0e d6 88 be 42 8b 78 be
       0.2883197 0.5545101 -0.2672581 -0.24271873
000030 d0 38 52 be 68 53 12 3f e8 cd c1 3e e4 72 09 3f
       -0.20529485 0.5715852 0.37852407 0.53690934
000040 ff 1c a2 3e 8f cb 94 3e 91 9e 72 3e d4 c1 ab 3d
       0.31662747 0.29061553 0.23693301 0.08386579
000050 15 f1 b7 3e 0d 1a a3 3e fc e2 19 be 5a 9c 50 3e
       0.35926118 0.31855813 -0.15027994 0.20372143

fc2.weight f4 [48, 24]
000000 25 7a 94 bd 42 bd 8e 3d 28 38 ce 3c b6 65 01 be
       -0.0724986 0.06969692 0.025173262 -0.12636456
000010 72 90 bf bd c4 66 01 3d 6a e9 b6 3d ec ee 3d bd
       -0.09353723 0.031592146 0.08931239 -0.04637043
000020 22 ef 8e 3d 28 12 b7 bd b6 6f 0d 3e 62 a1 d2 3d
       0.06979205 -0.0893901 0.13812146 0.102846876
000030 80 79 dd 3c 00 83 83 3d 28 d5 4d 3d 48 6f ae bd
       0.027035475 0.06421471 0.05025211 -0.08517319
000040 00 f8 a4 ba c4 a6 1d 3d 9a 71 05 bd d6 bb 0d 3e
       -0.0012586117 0.03848912 -0.032579042 0.13841185
000050 a8 fd 63 bd 47 ff 03 be cd ba 8c bd 28 2c 09 be
       -0.055661827 -0.1289035 -0.06871567 -0.1339575
000060 64 97 f3 3d 80 7f a3 bd 85 fa cf bd 80 a2 7f bc
       0.1189411 -0.07983303 -0.10155205 -0.015602708
000070 16 2e c7 bd c4 a6 63 be 9a b3 96 3d 0c f0 dd bd
       -0.09725587 -0.22231585 0.07358475 -0.10836801
000080 dc 57 b0 be 3f 73 6e 3e 00 be a9 b9 3a 42 83 3d
       -0.3444203 0.2328615 -0.00032375753 0.06409116
000090 b2 95 a5 bd 1d ea 8e 3e dc b3 30 3e 14 6f 3e 3e
       -0.08085193 0.2791299 0.17256111 0.1859706
0000a0 3c ee c7 3b 88 1f 0a bc df 78 14 ba 70 86 8e bc
       0.006101398 -0.008430369 -0.0005663763 -0.01739809
0000b0 25 ec 45 3d 06 2c ba 3f 0a b5 fd be 43 61 ef bc
       0.048320908 1.4544685 -0.49552184 -0.029221183
0000c0 32 89 ea bd 11 12 ba 3d c7 16 d7 bd 30 ea fa bc
       -0.11451949 0.09085477 -0.10502391 -0.030629247
0000d0 f8 50 83 3d 45 19 e9 bd d0 af 05 3d 9a 8b 5c bd
       0.06411928 -0.11381773 0.03263837 -0.053844072
0000e0 0c 26 05 bf e2 8c 6f 3e d8 61 db 3c 10 d7 f8 3d
       -0.5201118 0.23393586 0.026780054 0.12150395
0000f0 e0 a3 5e 3d 49 a8 9b 3e be 5d 67 bb 03 9e 86 3e
       0.054355502 0.3040183 -0.0035303677 0.26292428
000100 3c b3 8a be 32 be f1 3c 22 26 92 3d 62 ef 6f bc
       -0.2708987 0.029509638 0.071361795 -0.014644476
000110 32 21 6c 3e 44 99 c9 3f b2 29 fb be d3 75 f9 3d
       0.23059538 1.5749898 -0.49055248 0.12180676
000120 e2 93 ed bd b4 0f c5 3c 7c 85 f3 3d 04 52 c7 3d
       -0.11600472 0.02405534 0.118906945 0.0973244
000130 c4 24 fd 3d a2 a9 a2 bd 60 a7 43 bc b0 5c 1a 3d
       0.12360528 -0.07942511 -0.011941761 0.03768605
000140 3e a6 f2 be c0 d4 86 3e 90 02 94 3d a6 5b d8 bd
       -0.47392458 0.2633419 0.07227051 -0.105643556
000150 68 98 ff 3d 00 0a 38 3e be 7e 32 3d 5e f8 f5 3d
       0.12480241 0.17972565 0.043577902 0.12010263
000160 f0 bb 32 be 64 ad 0d 3e 50 47 1a bd 55 de 29 be
       -0.17454505 0.13835675 -0.037665665 -0.16588719
000170 ad 99 ea 3d 27 01 b1 3f 1e 66 9f be 40 7b 15 3e
       0.114550926 1.3828477 -0.31132597 0.14597797
000180 86 1c b1 bd 20 9b b5 bb c8 a1 2a bd 73 23 9e bd
       -0.086480185 -0.005542174 -0.041658193 -0.07721605
000190 a0 ec cf bc 64 22 4d bd 46 3a a5 3d d7 99 92 bd
       -0.025381386 -0.050081626 0.080677554 -0.07158249
0001a0 e8 ea b5 3c 2e d0 a6 bd c2 84 38 bd bc b4 e8 3d
       0.022206739 -0.08145176 -0.045048483 0.11362597
0001b0 53 1f 91 bd d0 32 0e bc 66 28 0d 3e c8 59 4a 3d
       -0.07086053 -0.008679107 0.13784942 0.04940203
0001c0 36 76 96 bd 2c 7b b1 bd 26 52 4f bd ca 22 39 bd
       -0.07346766 -0.08666071 -0.050615452 -0.045199193
0001d0 aa b3 80 3d a0 70 03 bd 30 4f f9 3d 2e 31 a2 bd
       0.06284268 -0.03208983 0.12173307 -0.079195365
0001e0 5e df 38 bd 24 51 52 3d c0 15 ec 3d d4 62 0d 3e
       -0.045134895 0.051346913 0.11527586 0.13807231
0001f0 30 41 bd 3c 88 85 41 be d7 70 84 bd 7c 05 a7 3d
       0.023102373 -0.18898594 -0.06466835 0.08155343
000200 bf 1f 06 bf aa 02 c2 3d 76 10 f7 bd 8f 16 0e be
       -0.5239219 0.094731644 -0.120636865 -0.13875793
000210 60 3a a5 3d f0 7c 33 3e 3f 9c 3a 3e f8 04 84 3e
       0.08067775 0.17528129 0.18223666 0.2578504
000220 20 ff d0 bd bd d7 0c 3e 22 da e5 bb 19 1f 6d 3d
       -0.10204911 0.13754173 -0.007014529 0.057890985
000230 93 c2 7c 3e 78 f8 c1 3f 4d 74 df be 95 67 77 3d
       0.24683599 1.5153952 -0.43643418 0.060401518
000240 00 e1 27 3a fd a8 ec bc ec 3d 09 3d b8 4f d9 bd
       0.0006404072 -0.028889174 0.03350632 -0.10610908
000250 58 6d 8f 3d 46 5b 8c be 32 1e 41 bd da 30 8c bd
       0.070032775 -0.27413386 -0.047147937 -0.06845255
000260 12 25 a6 be 73 e0 a2 3d 6a f0 96 3d 08 41 94 3d
       -0.32450157 0.079529665 0.07370074 0.07238966
000270 78 03 d1 3d f0 31 85 3e 24 ab 41 3e b1 57 96 3e
       0.1020574 0.26014662 0.18912941 0.29363778
000280 8d 9b 0f be 17 c3 16 3e 78 e4 4a bc 04 ca cf ba
       -0.14024182 0.14722858 -0.012383573 -0.0015853052
000290 0f c4 7c 3e 3f 48 bd 3f 87 5f d9 be ad 51 0f bd
       0.24684165 1.4787673 -0.42455694 -0.03499
0002a0 d8 bf 19 bd 2d 65 5d 3d 0c 89 fe 3d 1f 78 05 be
       -0.037536472 0.054051567 0.12428483 -0.13034104
0002b0 98 21 8d 3d 85 ac aa be cf 57 0d be b6 1e b9 bd
       0.06891173 -0.33334747 -0.13803028 -0.09039061
0002c0 25 99 ea be 1b a7 31 3e 44 cf e0 bd a0 be e3 3d
       -0.45819965 0.17348902 -0.10977033 0.11120343
0002d0 5c a8 05 3e 72 21 33 3e 7e 13 41 3e 1a d9 9e 3d
       0.13052505 0.17493227 0.18855092 0.077562526
0002e0 f2 2e 72 be e2 15 81 3d 11 00 42 3d b2 9a f4 bd
       -0.2365072 0.06303002 0.047363345 -0.11943568
0002f0 f7 7a 7e 3d f8 cb c3 3f c7 2d c5 be ad 65 39 3e
       0.062128987 1.5296621 -0.38511488 0.18105192
000300 e8 0a 71 bd 5e 40 05 3d 1a 93 6e bd a8 ec 91 3d
       -0.05884829 0.03253209 -0.058245756 0.07125217
000310 f0 ff 02 bc c2 0c aa bd 5c 3a a4 3d 74 0b f6 3d
       -0.007995591 -0.083032146 0.08018944 0.12013903
000320 39 d4 b7 be 8b 71 fb 3d 28 be fe 3d cc a1 ad bd
       -0.359041 0.12277516 0.12438613 -0.08478126
000330 8c 67 0b 3e 84 91 95 3e c5 74 3c 3e 05 e3 84 3d
       0.13613719 0.29212582 0.18403919 0.06488613
000340 e9 be 7d be b0 6b cb 3d e6 46 6b 3d a2 16 0b 3d
       -0.24779858 0.09932649 0.05744066 0.03395713
000350 fb aa 62 3e f3 5f ca 3f 6d 76 f5 be 1d d7 de bc
       0.22135536 1.5810531 -0.47941914 -0.027202183
000360 30 2c 46 3d 53 bd 5d 3d 00 6f ac bd b0 bc 64 3c
       0.048381984 0.05413563 -0.08419609 0.013961002
000370 d0 6f e0 bd 65 ff 70 be 60 08 68 bd 7c 8f 01 3e
       -0.109588265 -0.23534925 -0.056648612 0.12652391
000380 72 ce 12 bf b0 5a 75 3d a5 a4 10 be 00 1b 15 3d
       -0.5734626 0.05990094 -0.14125307 0.036402702
000390 ca 85 e3 bd d8 8c 66 3e e4 92 88 bc 2a 48 76 3d
       -0.111095026 0.22514665 -0.016671605 0.060127415
0003a0 3b a4 7f be ca 77 d3 3d d2 ce 36 3e 6f a4 06 3e
       -0.24964993 0.10325582 0.17852333 0.13148664
0003b0 3f 9c 38 3e e7 74 aa 3f 04 9c ef be f3 f5 b7 ba
       0.18028353 1.3316926 -0.46798718 -0.001403509
0003c0 88 7e fb bc cd ec 8d 3d 08 c2 94 3d 24 10 83 3d
       -0.030699983 0.06929932 0.07263571 0.06399563
0003d0 94 e3 28 3d 98 a1 80 be 00 b1 c8 ba 98 7b 96 3c
       0.04123266 -0.25123286 -0.0015311539 0.018369481
0003e0 9c 8f 02 bf 26 b0 07 3e 70 99 93 bc 18 a5 0b be
       -0.5100038 0.13250789 -0.0180175 -0.13637197
0003f0 6c 65 c8 3d ed 97 27 3e 6c 0a 21 bd fa 8a 88 3e
       0.0978497 0.16366549 -0.03931658 0.2666853

fc2.bias f4 [48]
000000 e4 33 25 be b2 04 92 3e dd ad 95 3c 6d c5 87 3e
       -0.16133076 0.28519207 0.018271381 0.2651781
000010 e1 1f 47 be b3 0c a9 3d 9e b6 32 3e 1b 76 1d 3e
       -0.19445755 0.08254375 0.17452475 0.15377085
000020 b5 48 f7 3d 8d 94 46 3e a6 56 da 3d 0e 60 5c 3e
       0.12074415 0.19392605 0.10661058 0.21521017
000030 07 fd aa 3e b4 3f 07 be be 29 f2 3d d3 3e a8 bb
       0.3339617 -0.13207895 0.11824368 -0.0051344424
000040 54 f2 92 3e 27 51 9e 3e 81 f3 17 3e b2 36 5d bc
       0.28700507 0.3092129 0.14838983 -0.01350181
000050 8d 5c 56 3e a1 d9 97 3e d2 4c 14 3e 90 46 a7 3e
       0.20933743 0.29658225 0.1448243 0.32671022
000060 e3 39 77 3e 0d 0b 94 3e d8 03 a4 3e 02 d5 07 be
       0.24143176 0.2891468 0.32034183 -0.1326485
000070 70 a9 35 3e b1 54 66 3d a1 eb 67 3e 88 58 96 bc
       0.17740417 0.05623311 0.22648479 -0.018352762
000080 32 c0 3c 3e e3 9c 7a 3c ec 28 98 bd ca ca 6c 3e
       0.18432692 0.015296194 -0.0742968 0.23124233
000090 1e 95 6f 3e 85 44 16 3e 3c 89 85 3e bf 90 ae bd
       0.23396727 0.14674576 0.26081264 -0.08523702
0000a0 32 24 4a 3e 0e 3f 5d 3e 96 37 34 3e 81 9d b2 3d
       0.1974037 0.21606085 0.1759933 0.08721448
0000b0 a4 12 a5 3e e2 6f 90 3e 17 e0 97 3e a0 71 16 3c
       0.32240784 0.2821036 0.29663154 0.009182364

fc3.weight f4 [1, 48]
000000 6c d0 3a 3a 34 b7 98 3e 3f 2a 17 3f 54 fb c5 3e
       0.0007126394 0.29827273 0.5904884 0.3866831
000010 86 27 21 3b 61 27 0f 3f ff 15 01 3f 32 9d 1d 3f
       0.0024590208 0.5591946 0.5042419 0.61567986
000020 21 97 07 3f c8 1e 18 3f 2a 63 19 3f b0 44 e5 3e
       0.5296498 0.5942197 0.5991694 0.44778967
000030 f0 d6 98 3e d0 cf 8c b9 cf 45 45 3f 1d 6a 82 3e
       0.29851484 -0.00026857713 0.77059644 0.25471583
000040 a3 71 8d 3e 8d 55 bc 3e 66 67 04 3f 52 e6 82 3e
       0.2762576 0.3678402 0.51720273 0.25566345
000050 46 9d dd be bb 24 b4 3e 9b b1 12 3f 48 d9 a8 3e
       -0.43284053 0.35184273 0.57302254 0.32978272
000060 73 29 f3 3e 48 2d 8f 3e 51 ac ba 3e d0 3b 46 b9
       0.4749256 0.27964234 0.36459592 -0.00018905033
000070 7c fc ef 3e 23 33 19 3f 9d 49 eb 3e 20 37 87 3a
       0.46872318 0.59843653 0.459546 0.0010316111
000080 22 e7 e0 3e 15 0b 12 3f 0b b9 a2 be 96 e5 dd 3e
       0.4392634 0.5704816 -0.31781802 0.43339223
000090 26 be c7 3e 66 05 13 3f 83 e7 bd 3e 20 ad fa b8
       0.3901226 0.5743011 0.37090692 -0.00011953176
0000a0 6c 93 00 3f 09 e5 dd be 43 63 86 be 1a 84 22 3f
       0.5022495 -0.43338802 -0.26247606 0.6348282
0000b0 c8 d0 c6 3e 72 f4 b1 3e 57 a9 9d 3e b4 fc 9b 3a
       0.38831162 0.3475681 0.3079326 0.0011900873
