financial/finance/trained_models/TD3__time__PnL/actor.pth (torch, 9687 bytes, 9 tensors)

fc1.weight f4 [24, 8]
000000 ce 5c 2a be b2 f2 ec 3d cb 06 ec 3d f8 73 49 3e
       -0.16636965 0.11569728 0.11524733 0.19673145
000010 07 c9 7b bd 75 8f e1 3b b4 4d fe 3c 4d b8 4b 3e
       -0.06147101 0.0068835565 0.031042911 0.19894524
000020 aa 39 41 3e 05 ee c4 bd 9b 61 29 be dd 41 34 be
       0.18869653 -0.09615711 -0.1654114 -0.1760325
000030 13 2f b5 bd fc 1c 3a 3e 0d f6 9b 3d 28 15 42 3e
       -0.08846869 0.18175119 0.0761529 0.18953383
000040 8f 00 16 3e 1e 22 cf 3b 69 56 fa bd 77 34 48 3e
       0.1464865 0.0063212058 -0.12223513 0.19551264
000050 ec 72 27 3e e5 32 bf 3d 41 ab eb bd e3 13 23 3e
       0.16352433 0.09335879 -0.115072735 0.15925555
000060 08 32 98 3c 94 36 0a 3e 88 7a ae 3d 70 fc dd 3d
       0.018578544 0.13497382 0.08519465 0.10839164
000070 ac 69 37 be 7c cc e7 bd 74 bb fa 3d 24 30 2e bd
       -0.17911404 -0.11318299 0.12242785 -0.04252638
000080 8c d8 35 be e2 15 3e 3e c0 a5 90 bb 98 9d 28 3e
       -0.17758387 0.18563035 -0.00441429 0.16466367
000090 41 60 23 be 44 ee 8f 3d 06 77 9d bd 98 eb af bd
       -0.15954687 0.070278674 -0.076887175 -0.08589858
0000a0 56 6b ec 3b 0c ee 37 bd c3 f2 27 3e 20 8f d3 3b
       0.007214944 -0.044904754 0.164012 0.006456271
0000b0 f8 b9 4f 3e 11 f9 c0 3d 7a 73 34 3d d0 57 33 3b
       0.20285785 0.09422506 0.04405544 0.0027365573
0000c0 a5 7b 44 be 87 34 56 bd 97 70 3a be 2f 8a 1b bd
       -0.19187792 -0.052296188 -0.18207012 -0.03797358
0000d0 08 c9 ea 3b e9 21 90 bb fa 7b c0 bd 70 0a 1b 3e
       0.007165078 -0.0043985737 -0.09398647 0.151407
0000e0 6c 6f eb 3d 7c fe 4d bd 2a 2c a5 bd 28 69 03 3e
       0.114958614 -0.050291523 -0.08065064 0.12833083
0000f0 ee da 35 3e c0 63 3f be 40 a5 34 bd b0 2e 9b bc
       0.17759296 -0.18690395 -0.044102907 -0.01894316
000100 f5 b2 99 bd 5d f6 28 3e af 3b 24 bd 88 22 0c 3e
       -0.075048365 0.1650023 -0.04009598 0.13685048
000110 d0 0c 40 bc 5c 18 a2 bc ba 6c 39 bc d3 93 40 3b
       -0.011721805 -0.019787006 -0.011317426 0.0029384985
000120 3f 36 d7 3d 32 38 5d 3d 72 a1 4c bc 6c 65 4d 3e
       0.105083935 0.05400867 -0.012489663 0.2005822
000130 06 75 0d be 87 87 96 3d d4 af 20 3e b0 c7 c4 3a
       -0.13814172 0.073500685 0.15692073 0.0015013125
000140 ed 78 28 3e 46 27 2a ba 81 02 1a be 09 b0 e6 bd
       0.1645238 -0.00064908375 -0.15040018 -0.11264045
000150 d7 18 9b 3d b4 f6 bb bd e2 81 2a 3d a6 35 48 3e
       0.07573097 -0.09177914 0.041627772 0.19551715
000160 b8 72 ac 3d 69 a6 44 3a 87 70 90 3d d7 96 c7 bd
       0.08420318 0.00075016037 0.07052713 -0.09745567
000170 68 e2 18 be b4 85 05 be 5f 54 10 be 45 0b 91 3d
       -0.14930117 -0.13039285 -0.14094685 0.070822276
000180 58 db 22 3d 02 a8 b1 bd c3 74 4c be 28 75 e2 3d
       0.039759964 -0.08674623 -0.19966416 0.11057502
000190 0d 34 ed bd 70 95 0b bd 1a 43 2f be 1f d8 eb bd
       -0.115821935 -0.03407806 -0.17115441 -0.11515831
0001a0 00 2f a0 3d e9 7c 39 be e6 51 e9 bd f4 c1 19 3e
       0.078214645 -0.18114056 -0.11392574 0.15015393
0001b0 5c 33 d7 bd e5 c9 96 bd 7a e9 7a bd 66 38 ac 3d
       -0.10507843 -0.07362727 -0.061257817 0.08409195
0001c0 86 11 0d be 7a f9 f9 3c 7e 2c b7 3d 86 4e 43 bc
       -0.13776216 0.030514468 0.08944033 -0.011920577
0001d0 af 1c 35 3d b1 04 16 be 3b c7 cd 3d e1 7f 8e 3d
       0.044216808 -0.14650227 0.10047766 0.06957985
0001e0 b2 51 0a 3d ee 5d 57 be b7 cb d5 3d 36 8a 30 3e
       0.033769317 -0.21031925 0.10439246 0.17240223
0001f0 6a 5f d4 3b dd 1b 06 3e 92 04 dd 3d d9 e4 03 3b
       0.006481101 0.13096566 0.10791887 0.0020125418
000200 4e 0b d9 3c f6 5f 6a 3e 81 18 54 3d a2 99 fd bd
       0.026494648 0.22888169 0.05178118 -0.12382819
000210 ba 08 eb 3c a6 98 12 3e d6 36 c5 ba 72 a0 13 3b
       0.028690685 0.14316043 -0.001504625 0.0022526053
000220 d6 5f 33 3e e1 32 0d 3e 96 d9 0f 3c 4d 50 39 3d
       0.17517027 0.1378894 0.008779904 0.045242596
000230 72 37 b0 3c 0d f4 ae 3d ad 61 c2 3d 61 b8 f6 3a
       0.021510813 0.08542643 0.094912864 0.001882326
000240 42 65 09 3d 23 46 0a 3c 88 83 6c 3c 22 40 a1 bd
       0.033543833 0.008439573 0.014435656 -0.078735605
000250 b4 69 57 3d 94 5f 1f be 04 49 4d 3d a1 57 f8 3d
       0.05259104 -0.15563804 0.05011846 0.12126089
000260 1e d7 ba bc 77 9b 18 be d9 08 99 3b 37 ac c0 3b
       -0.022807654 -0.14903055 0.004670244 0.0058799046
000270 f0 9d 2c be 1f 4d 09 be 6d ee 46 3e 8f f6 17 3e
       -0.16857123 -0.13408326 0.1942689 0.14840148
000280 9c c2 d8 3d 40 4d 0f 3e f4 6d 9c 3d 48 12 df 3d
       0.10583994 0.13994312 0.076381594 0.10892159
000290 f0 d8 05 3e 21 9f 44 bd 0c 18 17 bd d2 89 09 3e
       0.13071036 -0.04800332 -0.036888167 0.1343148
0002a0 6d eb ff 3b 5c 38 09 be 4c 1e 19 be 0e cb fc 3d
       0.0078100474 -0.13400406 -0.14952964 0.12343417
0002b0 94 be 37 3e 25 1a 20 3e f2 84 0b 3d c3 9f 05 3e
       0.17943794 0.15634973 0.034062333 0.13049226
0002c0 21 80 1d be bd f6 01 be c7 2b 3d be bb b4 22 3e
       -0.15380909 -0.1269178 -0.18473731 0.15889256
0002d0 de 5f 34 3c 78 c4 95 bd da 28 f4 3d 50 45 cb 3a
       0.011009185 -0.07312864 0.11921854 0.0015508328
0002e0 cf 84 03 be 2e 4a c0 3d 04 8b 3d 3d 80 9d 0a be
       -0.12843631 0.09389149 0.046275154 -0.13536644
0002f0 f3 f0 f5 bd 4c 4d e4 3d 93 a0 1a 3e c4 0d b0 3c
       -0.12008848 0.11147556 0.15100317 0.021490939

fc1.bias f4 [24]
000000 51 72 82 be bf 2c 81 3c a2 4f 80 be eb 4b 47 be
       -0.25477841 0.015768407 -0.25060755 -0.19462554
000010 40 f6 52 be 07 ec 48 3e b4 aa 4d be 00 c2 fc bb
       -0.2060175 0.19621287 -0.2008465 -0.0077135563
000020 82 c2 bd 3d 0f 4c 87 3e 42 cb 8b be 15 52 57 be
       0.09265615 0.26425216 -0.2730351 -0.21027406
000030 d0 38 52 be 4b 67 7d 3e fc 51 fa bd 95 59 b3 3e
       -0.20529485 0.24746434 -0.122226685 0.35029283
000040 c5 b0 47 3e 2a 92 02 3e 5c cc 36 bb 69 b3 8c bd
       0.19501026 0.1275107 -0.0027892804 -0.06870157
000050 a9 b1 35 3d 42 56 b4 bd e4 90 89 3d 14 c3 38 3d
       0.044358883 -0.08805515 0.06717089 0.045107916

fc2.weight f4 [48, 24]
000000 4a 55 21 3e 59 14 a9 3e 4b 6d b4 3e f6 4d dd 3e
       0.15755191 0.33023337 0.35239634 0.43223542
000010 dd d9 28 bf 0f 34 89 3d 78 26 bb 3e 52 74 1a bf
       -0.65957433 0.066993825 0.36552787 -0.6033374
000020 db c7 bb ba 71 27 a2 bd 1f 5d c9 3e 17 6f ae 3e
       -0.0014326529 -0.07917679 0.39328858 0.3406913
000030 c6 3f 15 3f 20 be d0 3e 3c 15 aa 3e c8 a2 55 3b
       0.58300436 0.40770054 0.33219326 0.0032598246
000040 b5 16 1b 3d 6e 3d ce 3b 09 4d 7f 3e 5b 57 cb 3e
       0.037863452 0.006293944 0.2493173 0.39715084
000050 a6 dc 6b 3e 20 5f dd 3d 37 bc d4 bd 9b a6 aa 3d
       0.2303339 0.10809159 -0.10387462 0.08332559
000060 20 3a f7 3c 32 c2 0b be 7a 0d 19 be 86 6d 56 3e
       0.030179083 -0.13648298 -0.14946547 0.20940217
000070 dc 7b a8 be e3 d5 30 be 3c ee 4b 3b 3b a2 ac be
       -0.32906997 -0.17269091 0.003111734 -0.33717522
000080 38 91 15 bd e6 df 2c 3d 4b 61 a2 bd 6a 89 0d bd
       -0.036515445 0.042205714 -0.079287134 -0.034554876
000090 55 95 16 3e 6e 41 ab 3d 3a 26 98 3d 58 40 9d bc
       0.14705403 0.08362089 0.07429166 -0.01919572
0000a0 4b ae 2b 3d 32 3a 88 be 38 f7 9f bd 5d 86 3b bd
       0.041914266 -0.266069 -0.07810825 -0.045782436
0000b0 fc c0 3d be be e2 42 bc f1 14 37 be 0f 3b 0d be
       -0.18530649 -0.01189488 -0.17879082 -0.1379206
0000c0 90 be 80 be 2d 7a 63 bd c1 1e 5c be af 95 59 3e
       -0.25145388 -0.055536438 -0.21496107 0.21248506
0000d0 56 2a 3d be a9 cf 0a 3e cd ac b4 bd 1b 65 99 be
       -0.18473181 0.13555779 -0.08822022 -0.2995995
0000e0 52 a5 5f be b3 6f 33 3e 58 89 ce bd b9 a1 ac bb
       -0.21840408 0.17523079 -0.1008479 -0.0052683023
0000f0 9f 3f 99 3e 29 b5 97 3c 01 d7 63 be db 5f 6c 3e
       0.29931352 0.018519001 -0.22249986 0.23083441
000100 90 58 80 bd 6e 61 8a bd 4e 1e d6 bd cd 9a 10 be
       -0.06266892 -0.067568645 -0.10454999 -0.14121552
000110 ef ed b1 bd b0 5a ab bb ef a0 10 be 58 d1 90 bd
       -0.0868796 -0.0052293167 -0.14123891 -0.07071179
000120 7f 29 6a be 6d 4c a9 bd 9e 96 ca 3c 4a a4 97 3e
       -0.22867392 -0.0826653 0.024730023 0.2961753
000130 26 03 a6 bd 1b 1c d3 3d f5 5d ed bd 92 d4 28 be
       -0.08106069 0.10308095 -0.115901865 -0.16487339
000140 b0 82 14 be 56 b8 3f 3e 0d 8c 0b bd 63 7d 5f be
       -0.14502978 0.18722662 -0.03406911 -0.21825175
000150 56 2d a7 3e a8 50 ad bd a7 2c db bd ff 38 59 3d
       0.32651776 -0.084626496 -0.10701876 0.05303287
000160 00 82 06 bd 78 19 0d bd 6b 67 2e be fc 69 77 be
       -0.03283882 -0.034448117 -0.17031638 -0.24161524
000170 4d 21 32 be ac 13 0e be 59 1d 7f 3d a9 90 2e 3c
       -0.17395516 -0.13874692 0.062283847 0.010654607
000180 67 92 00 bf 2a 8d cb be 9e 74 c3 be cc 2b c0 3e
       -0.5022339 -0.39756137 -0.3817491 0.37533414
000190 ed 01 f7 be 10 53 4a be c1 4e 95 be b6 9b 05 bf
       -0.48243657 -0.19758248 -0.29161647 -0.5219072
0001a0 24 17 70 bd 9a 55 55 be c7 e0 de be 0b 36 94 be
       -0.05861582 -0.20833436 -0.43530867 -0.28947482
0001b0 80 62 c2 3e b0 02 a3 be b6 89 68 be 83 47 05 bd
       0.37965775 -0.31837988 -0.22708783 -0.032538902
0001c0 f3 72 eb be b0 fc b0 be 8f 40 d6 be 4a 2e e2 be
       -0.45986137 -0.34567785 -0.4184613 -0.4417594
0001d0 8d 01 9c be 0e 28 e3 be 16 37 e9 bd 53 08 f6 be
       -0.30469933 -0.44366497 -0.1138746 -0.48053226
0001e0 7e 74 39 be ea 03 7a bd af 3c 71 3c 01 f4 cc 3e
       -0.18110844 -0.06103889 0.014723941 0.4002991
0001f0 1b a9 7a be 16 0e ae 3d de 49 39 be 70 43 3b be
       -0.24478571 0.084987804 -0.18094584 -0.18287444
000200 ca ae 45 be b8 80 73 3d 9c 1f 7b be 6d 40 8c be
       -0.19304958 0.059448928 -0.24523777 -0.27392903
000210 6f 41 b0 3e 7a ef a2 bd e7 18 79 3c 8f 3f 67 3e
       0.34424922 -0.07955833 0.015203691 0.2258284
000220 d7 86 0f 3e 04 3d bf 3d f2 42 10 be 18 af 10 bd
       0.14016281 0.0933781 -0.14088038 -0.035323232
000230 59 96 1a bd db aa 9d bd 8b 76 9c 3c 9b 1c b3 bd
       -0.03774104 -0.07698604 0.019099494 -0.087456904
000240 b9 73 ee bd 7f 75 67 be 28 9e 8b bd 4c 27 a6 3d
       -0.11643166 -0.22603415 -0.06817275 0.08112964
000250 18 a4 fb bd 6b b1 a1 bd 16 12 1d be 20 39 85 be
       -0.12287158 -0.07895168 -0.1533893 -0.26020145
000260 b9 4b dd 3c 3d c6 a3 bd 06 73 1d bd a4 9c 60 bd
       0.027013646 -0.07996795 -0.038439773 -0.054836884
000270 ff 04 96 3e 1d dc 7f bd 0a dc 1f bd 23 1c 3c 3e
       0.29300687 -0.062465776 -0.039028205 0.18370108
000280 a6 da 8c 3c 27 38 3f bb 6e 34 6c be 3f 01 26 be
       0.017194103 -0.0029177757 -0.23066875 -0.16211413
000290 5c d8 cf bd 20 21 d6 bd 4f c9 e0 bd eb f4 88 be
       -0.10148689 -0.10455537 -0.109758966 -0.26749358
0002a0 71 2f 1e be f0 75 2f bd 87 a2 cc 3c 7a 9d 4d 3d
       -0.15447785 -0.042837083 0.024979843 0.05019901
0002b0 78 18 f0 bd cb 4a 7f be 46 a7 7a be 0f 96 8d be
       -0.11723417 -0.24930875 -0.24477872 -0.27653548
0002c0 5b 56 1d be 57 eb 18 bd cb d7 62 be 31 1d bc bb
       -0.15364973 -0.037333813 -0.22152631 -0.0057407846
0002d0 cd b4 a1 3e 5c 52 ad bd 03 7c cc 3c d6 4e 15 be
       0.31583253 -0.084629744 0.024961477 -0.14580855
0002e0 e5 2b 2e be 3a 12 10 be 6a 27 9e bd 04 33 49 be
       -0.17008932 -0.14069453 -0.077223614 -0.19648367
0002f0 86 77 5f be 12 83 63 bd 78 0a a9 bd 8f dd 4d 3d
       -0.21822938 -0.05554492 -0.0825395 0.050260123
000300 4f d2 36 3e 70 c5 a1 3e 61 0f 8f 3e d9 09 22 3f
       0.17853664 0.31595945 0.2794142 0.63296276
000310 c1 ef 13 bf f6 20 2b 3e 2f 5b bc 3e c1 67 e2 be
       -0.5778771 0.16711792 0.36788318 -0.44219783
000320 da 35 0b bc 7c 16 0a 3d b4 a3 c6 3e e2 01 24 3e
       -0.008496726 0.03371285 0.3879677 0.16016343
000330 6e 89 32 3f b3 26 fb 3e 29 8e d9 3e 2a f4 2e 3d
       0.6974095 0.49052963 0.42491272 0.04271332
000340 c2 13 74 bc e9 fe 81 ba 90 c7 a9 3e 9c 35 ab 3e
       -0.014897289 -0.0009917888 0.33160067 0.33439338
000350 90 83 b3 3e 69 e1 ba 3e c3 76 4b bd 88 a1 3e 3e
       0.35061312 0.365001 -0.049673807 0.18616307
000360 2d 6f 73 bd 20 4e 6c bd 75 8a 3b be c2 14 40 3e
       -0.059432197 -0.057691693 -0.18314536 0.18757918
000370 63 1b 94 be f0 a2 1f be 4b a2 23 be 2f 23 58 bd
       -0.28927144 -0.155895 -0.15979879 -0.05276793
000380 21 d8 88 be 13 41 42 be f3 c9 7b be 5d 13 ab bd
       -0.26727393 -0.18970136 -0.24588756 -0.08353303
000390 66 15 8a 3d 16 3b 17 bd 4d 4d 4b be 98 35 44 be
       0.06742363 -0.036921583 -0.19853707 -0.1916107
0003a0 9b c9 40 be 44 95 cc bd 90 8b 1b 3d c6 e4 10 3d
       -0.18826906 -0.09989408 0.037974894 0.035374425
0003b0 1c ac d8 bd 30 81 79 be 21 28 30 be e6 05 25 be
       -0.10579702 -0.24365687 -0.17202808 -0.16115531
0003c0 c7 bd 17 be 93 ad 68 bd 53 fd d7 bc 3f b4 8a 3e
       -0.14818488 -0.05680616 -0.026365912 0.27090642
0003d0 5e ca 2f be b5 c9 23 bd c7 3c db bd 5d 18 45 be
       -0.1716704 -0.039987285 -0.10704952 -0.19247575
0003e0 6c c0 56 be e8 72 fe 3c ed 48 04 be f1 e5 8a be
       -0.2097184 0.031060651 -0.12918444 -0.27128556
0003f0 00 a9 9d 3e e2 f6 d2 bd c1 86 7e be 18 a4 3c 3e
       0.30793 -0.103009954 -0.24856092 0.18421972

fc2.bias f4 [48]
000000 c7 e5 92 3e c3 a0 a5 3e 26 01 9c 3d 9d fe 8c 3e
       0.2869093 0.32349214 0.076174065 0.27538005
000010 cb 4f b1 3e eb 3f 29 3e 6d 5b 15 3e d7 42 2f 3e
       0.3463119 0.16528289 0.14585657 0.17115341
000020 8e 82 ee 3e 4e 87 4a 3e 57 d6 0c 3e 61 3e 3b 3e
       0.4658398 0.19778177 0.13753639 0.18285514
000030 e5 39 b2 3e 68 a9 a8 3c 32 83 d8 3e 40 a6 85 3d
       0.34809795 0.020588592 0.42287594 0.0652585
000040 3a 19 c2 3e ae fa 9f 3e 64 1c 0c 3e 64 c5 b9 3e
       0.3790987 0.3124594 0.13682705 0.3628341
000050 64 75 70 3c 6c 4d 94 3e dd 70 07 3e c6 8c aa 3e
       0.014676426 0.28965318 0.13226648 0.33310527
000060 19 a1 89 3e 47 d8 c8 3e 4c c4 9a 3e 98 8c 15 3d
       0.2688072 0.39227507 0.30227888 0.036511034
000070 32 4a 15 3f a0 ff 8b 3d 06 ad 74 3e 94 55 ea 3d
       0.5831634 0.06835866 0.23894128 0.11442104
000080 40 32 2f 3e 5d da 9e 3c 51 18 97 3c e4 d3 64 3e
       0.17109013 0.019391233 0.018444212 0.22346455
000090 b9 7a 34 3e 0d 8a 1f 3e 46 6b 95 3e e0 0e 1c 3d
       0.1762494 0.15580006 0.29183406 0.038100123
0000a0 bb b6 59 3e d1 7d f4 3e 32 65 64 3e e2 0a 80 3e
       0.21261112 0.4775224 0.22304228 0.25008303
0000b0 94 10 89 3e 5b 38 ab 3e fb ae a9 3e fe 10 3a 3e
       0.2677046 0.33441433 0.33141312 0.18170545

fc3.weight f4 [1, 48]
000000 8a 8d c7 be 56 b0 08 be 42 02 33 be fc 4c e7 bd
       -0.38975173 -0.13348517 -0.1748133 -0.112939805
000010 0f ab 1d bf 13 35 21 be 53 01 10 be 04 9e ff bd
       -0.6158914 -0.15742902 -0.14063005 -0.12481311
000020 c4 30 bf be 9c 16 f0 bd 9b ea 20 be 07 18 01 be
       -0.37341893 -0.117230624 -0.15714495 -0.12606822
000030 2c 9e fd bd 56 e8 02 be c7 7d c7 be c6 8b 0e be
       -0.123836845 -0.12783942 -0.38963148 -0.13920507
000040 ea ab 39 be 0e 5c f4 bd 2e 22 0e be 79 b5 da be
       -0.18131986 -0.119316205 -0.13880226 -0.42716578
000050 ca a0 0a be ff 5b 00 be 04 36 0f be 04 ef e7 bd
       -0.13537899 -0.12535094 -0.13985449 -0.113248855
000060 de da 0f be ee 53 32 be f6 05 e5 bd ad 52 ce bd
       -0.14048335 -0.17414829 -0.111827776 -0.10074363
000070 89 ab d4 be 3b 1a e4 bd cd fa ef bd 57 f1 05 be
       -0.4153712 -0.111378156 -0.11717758 -0.13080345
000080 4e 9a e2 bd a9 b6 04 be 38 66 19 be dc d3 07 be
       -0.110645875 -0.12960304 -0.149804 -0.13264412
000090 37 34 dd bd bc 65 0a be 69 b9 fa bd 9a 95 f9 bd
       -0.10800975 -0.13515371 -0.122423954 -0.12186737
0000a0 c2 6f 05 be 83 1a d7 be 52 7d 04 be dc 07 68 be
       -0.13030913 -0.42012414 -0.12938431 -0.22659248
0000b0 1e ff df bd 8c 40 01 be 5f 29 00 be 7c 64 0f be
       -0.109373316 -0.12622279 -0.12515782 -0.14003175

bn1.weight f4 [24]
000000 a0 2d a5 3f 5b 08 ac 3f 2d 78 b8 3f 00 00 80 3f
       1.2904549 1.344005 1.4411675 1.0
000010 00 00 80 3f 68 e2 95 3f c4 14 b2 3f 00 00 80 3f
       1.0 1.1709719 1.3912587 1.0
000020 32 24 8b 3f de fb 8e 3f be 13 ae 3f d2 19 aa 3f
       1.0870421 1.1170614 1.3599775 1.328913
000030 00 00 80 3f b8 41 b8 3f e0 4d b1 3f 69 e2 8f 3f
       1.0 1.4395056 1.385189 1.124097
000040 c8 37 92 3f d5 28 8f 3f 69 78 b0 3f 3e ad ac 3f
       1.1423273 1.1184336 1.3786746 1.3490369
000050 9d 54 b3 3f 0b f4 a5 3f b5 e7 8f 3f 11 38 a8 3f
       1.4010197 1.2965101 1.1242586 1.314211

bn1.bias f4 [24]
000000 a2 be c8 bd fe b9 a9 bb 57 fe 2c 3e e9 34 f6 3e
       -0.09801985 -0.0051796427 0.16893898 0.48087242
000010 e4 d5 fa be a1 d3 8f 3d b4 22 8a 3d d3 92 f3 be
       -0.4899131 0.07022787 0.067449 -0.47572955
000020 5d fe 93 be 5d e8 5c 3c 7a 08 1f 3a 1e 89 2f bd
       -0.28905 0.013483134 0.0006066632 -0.042855375
000030 5b e5 f0 3e 6b 1d 84 3e 72 fa a0 3d 95 d6 80 3e
       0.47049984 0.25803694 0.07860269 0.25163713
000040 a7 67 2b bd 46 7f 61 be 88 8c 96 3d a5 c6 e4 bc
       -0.041846897 -0.22021207 0.07351023 -0.027926752
000050 fa c7 ab 3d 70 7b 9c bd 3f 28 5b be 96 1d 92 bd
       0.08387752 -0.07640731 -0.21402071 -0.07134549

bn1.running_mean f4 [24]
000000 1f 15 f0 4d 9b b9 e4 4d 99 2f c0 4d 00 00 00 00
       5.034895e+08 4.7967114e+08 4.030431e+08 0.0
000010 00 00 00 00 c0 5a d3 4a e7 b6 b6 4d 00 00 00 00
       0.0 6.925664e+06 3.8318e+08 0.0
000020 7f f3 e2 4a 67 e7 67 4a 10 f2 eb 4d f1 ee 2a 4d
       7.4367355e+06 3.7995138e+06 4.948137e+08 1.7923662e+08
000030 00 00 00 00 de f5 4a 4d 49 ef 27 4d a3 6f 9b 4a
       0.0 2.1281942e+08 1.760923e+08 5.0933295e+06
000040 22 fa ad 4a 08 61 91 4a b9 55 92 4d 64 16 b3 4d
       5.700881e+06 4.76378e+06 3.0688643e+08 3.7557363e+08
000050 86 16 a2 4d 9c 79 9d 4d 9c 8d 6f 4a 66 7a 4f 4c
       3.3992314e+08 3.302491e+08 3.924839e+06 5.4389144e+07

bn1.running_var f4 [24]
000000 21 12 41 5d 60 3c 2f 5d 75 70 f7 5c 04 00 00 00
       8.6951366e+17 7.8919206e+17 5.5718374e+17 6e-45
000010 04 00 00 00 44 a1 15 57 ba a6 df 5c 04 00 00 00
       6e-45 1.6451986e+14 5.036179e+17 6e-45
000020 3f 87 2c 57 ff 23 34 56 74 79 3a 5d 67 bd c3 5b
       1.8969688e+14 4.9516674e+13 8.3980616e+17 1.1019174e+17
000030 04 00 00 00 0d fb 09 5c b2 ee bc 5b 2c db a1 56
       6e-45 1.5535242e+17 1.0635949e+17 8.898135e+13
000040 d4 c5 ca 56 c0 96 8d 56 ec 74 8f 5c 34 dc d6 5c
       1.1147551e+14 7.78393e+13 3.2303583e+17 4.838221e+17
000050 83 01 b0 5c 5d 21 a6 5c 69 38 40 56 13 31 10 5a
       3.9633006e+17 3.7409224e+17 5.283713e+13 1.0146589e+16
