financial/finance/trained_models/TD3__spread__PnL/critic.pth (torch, 18810 bytes, 18 tensors)

fcs1.weight f4 [24, 8]
00000000: e07c 323e 8723 b3bd 9022 3f3d bc32 72bd
00000010: 6010 d13d 4081 5c3b 34dd e53d 6066 62bd
00000020: be9d 3f3c 506b aebe 14e3 92be 888a 983e
00000030: c8e7 82bd 7da1 bf3d bf18 9dbe f671 1dbd
00000040: b079 6d3c 2cc9 90bd a674 96bd 6824 52bd
00000050: 507b 123e 5859 7a3d 6943 c9bd ac7b 10be
00000060: 9116 d23d e317 81bd 923e 64bd e730 fa3d
00000070: 0727 873e 994c 893d a771 843d a519 be3d
00000080: d9f7 06be 31d4 083e 7c04 773e f85c 3ebe
00000090: 6dd9 89bd e254 45bd cad4 68be 5b22 8e3d
000000a0: 54b5 f73d 5e51 afbc 17da 2a3d 2ea2 b3bc
000000b0: 7fff 803d 1211 613d 8122 2b3e de60 fc3d
000000c0: b5db debd 3028 2ebe a759 053e 55ea 48be
000000d0: b7d2 573d c80c 04bc 5c89 5f3d 0bbd c73d
000000e0: 82cb b13d 36b5 b83d 8397 013d 11a7 e63b
000000f0: 8ddc 693d bd19 ad3b 2a77 2fbe 788d 233e
00000100: 55b3 1dbe 1347 963e a39c 243e e29b 803d
00000110: 2927 79be 399d afbd 83ad a2bd 9280 83bb
00000120: 243e a6be f6d0 dbbc d48d babe d651 a33e
00000130: 77db 9a3e c0cf 30be d16d 1a3f 0fde 953c
00000140: cf8a 1cbe 0e43 283e b690 b93d 2add 3a3e
00000150: d31d b9bd 3ebc dabd 0d55 c8bd 048d 07bc
00000160: a8a8 8d3d 753b f0bd 2070 9dbc 3c81 10bd
00000170: 6ab8 3e3e aec3 96bd e28e 4a3e 4033 00be
00000180: 09a5 74bd 31d4 8fbe 9c1e 483e 45ff 8ebe
00000190: 5c4f 4c3d df9e 85ba a86c 7a3e be85 a5bd
000001a0: a95e 49bf 7cfa 123f ab11 b93e ff09 3bbd
000001b0: e025 ebbc 4404 c83d 986f 3d3d 2948 ed3b
000001c0: e852 2dbd f02e 5e3d 003f babd b8d6 4d3e
000001d0: 18b1 343e 1c4c c33d 9ab6 9bbd 6643 44be
000001e0: 886f 84be 3c43 083f 2849 363d 959c eb3c
000001f0: 0a7f 55be 93ea 3abd 9987 abbe 59eb 26be
00000200: 57f2 2540 08bd 62bf d655 a7bf c379 01be
00000210: b4e9 813f 3b15 9cbe 43bc 9e3e a8f8 e33c
00000220: 0cf5 2bbd df5a d6bc bfd7 d2bc d908 10bb
00000230: 642f 373d 3f26 73bc 40fb 39be d852 50bc
00000240: 545b 5fbe b6c2 493e 8ea4 803d f4e4 c03d
00000250: 542a b73d 57bc 0ebe c20a aa3d 9304 ef3c
00000260: b40e 223e 3192 a4be 4ad9 cbbc d7c5 743d
00000270: db47 1bbd 6478 c03d 4ece 37bc f623 d33d
00000280: 723e f0bd ea17 f13d 6f87 d3bd 32ae e63c
00000290: 3cac b63c 937a 8fbe 0956 273e 3788 2d3d
000002a0: 700a b13d 6479 1c3e d821 82bd f070 3e3d
000002b0: d024 2a3c d289 10be 50b7 a0bd 2469 94bd
000002c0: f3a1 04be ff66 8fbd 12d7 b7bd 40b3 0d3d
000002d0: 5b8e e9bd b973 5dbe 2a6b 3d3d 30e0 4e3d
000002e0: 77d7 0541 8d65 dbc0 a79a 0dc0 bae7 02bf
000002f0: e205 893e 46e3 63bf 0d3f a23f a710 8cbc
0.17430449 -0.08747011 0.04666382 -0.059130415 0.102082014 0.0033646375 0.11223832 -0.055273414
0.0116953235 -0.34066248 -0.28688872 0.2979319 -0.06391865 0.09356973 -0.30682942 -0.03843876
0.014494345 -0.070696205 -0.07346468 -0.05130425 0.14304852 0.06112036 -0.098273106 -0.14109677
0.102582105 -0.06303384 -0.055723734 0.12216359 0.26396963 0.06704063 0.0646699 0.09282235
-0.13180484 0.13362195 0.24122804 -0.18590152 -0.06730924 -0.048176654 -0.22737423 0.069401465
0.120951325 -0.021401104 0.041711893 -0.02192792 0.06298732 0.05494792 0.16712381 0.123231634
-0.108817495 -0.17007518 0.13022481 -0.1962064 0.052691188 -0.008059688 0.054574355 0.09752854
0.08681394 0.09018938 0.031638633 0.007038959 0.0570951 0.0052826093 -0.17135301 0.15971935
-0.15400441 0.293511 0.16075377 0.06279732 -0.24331345 -0.0857491 -0.07943251 -0.0040131295
-0.32469285 -0.026833039 -0.3643633 0.31898373 0.30245563 -0.1726675 0.60323817 0.018294362
-0.15287326 0.1643183 0.090608045 0.1824843 -0.09038892 -0.106804356 -0.09781847 -0.008273367
0.06916934 -0.117300905 -0.019218504 -0.035279498 0.18625036 -0.07361542 0.19781068 -0.1251955
-0.059727702 -0.28091577 0.19542927 -0.2792913 0.04988037 -0.0010194442 0.24455512 -0.0808215
-0.78660065 0.5741346 0.36146292 -0.04566383 -0.028704584 0.097664386 0.046249002 0.007241268
-0.042315394 0.05424398 -0.090940475 0.2010144 0.17645681 0.09536001 -0.07603188 -0.19166335
-0.25866342 0.5322759 0.04450336 0.028761188 -0.20849243 -0.045633864 -0.3350189 -0.16300716
2.5929163 -0.8856969 -1.307307 -0.12644105 1.0149446 -0.30484948 0.31003007 0.02782853
-0.04198174 -0.026166378 -0.025737641 -0.002197793 0.04472293 -0.014840662 -0.1816225 -0.012715064
-0.21812183 0.19703183 0.06281386 0.09418669 0.0894362 -0.13939033 0.08302833 0.029176986
0.15825921 -0.32142785 -0.024883885 0.059758987 -0.037910324 0.09397963 -0.01121862 0.103095934
-0.117306605 0.11772139 -0.10328566 0.028159235 0.022298925 -0.28023204 0.16341414 0.042366233
0.08644569 0.15280682 -0.063541114 0.046494424 0.010384753 -0.14115074 -0.07847464 -0.072466165
-0.12952404 -0.07002067 -0.08976568 0.034594774 -0.11404105 -0.21626176 0.046244778 0.05050677
8.365104 -6.8561463 -2.2125642 -0.51134837 0.267623 -0.89018667 1.2675492 -0.017097784

fcs1.bias f4 [24]
00000000: cc5f 7fbe cb0d 133c a236 7fbe 9dc2 54be
00000010: 70c8 72be 6876 f73d 5435 54be 98dd 20bd
00000020: 2c7b 9a3c d5cc f93e c9ed 92be 428b 78be
00000030: cec9 2cbe 053b ed3d e623 02be 977c fb3b
00000040: b1ad 923e 6d2a bd3c 06d7 833d 748e cdbd
00000050: 76b5 353d d856 a5bd d672 6f3b 47da e83e
-0.24938887 0.0089754565 -0.24923185 -0.20777364 -0.23709273 0.12083131 -0.20723468 -0.03927383
0.018857561 0.48789087 -0.2869704 -0.24271873 -0.16873857 0.11583523 -0.12709007 0.0076747644
0.2864814 0.02309152 0.06437497 -0.100369364 0.044362508 -0.08073205 0.0036536953 0.45479032

fc2.weight f4 [48, 25]
00000000: 7b48 0b3e d431 b3bc e436 45bd 154f a73d
00000010: ca69 903d 8c3d 49bc e5a2 15be 070c e9bd
00000020: 658d 76bb 0d39 06bd 0c2b b63d 3fbe 1e3e
00000030: 6ed2 5c3c 37ff aebd 2b30 d63c 6a3e d0bd
00000040: fe36 0fbd c5ee d8bd 7a0e 3fbd a093 8a3d
00000050: 17cb 173d 5e95 51be 08dc 01bd b6c5 09be
00000060: 3a8f 483e 5aff 373e 0e8e 8c3d 67f9 f1bd
00000070: 8dc3 11be 8912 663d 46a0 8abd 5358 583d
00000080: 6066 8c3d 62fd 60bd c976 a5bd 2455 31be
00000090: fe38 113e 1ee7 903d 7835 1a3c b6bf 06be
000000a0: 6234 f8bd a374 ddbc 33fd d63c 4ee8 90bd
000000b0: 5d56 06be ca79 12be c724 8c3d 6b8c 203c
000000c0: 02a7 d7bd 79e7 a93c 9e74 e3bd 992e 5fbe
000000d0: e90c fdbd acc9 81bd 1b92 e5bd eafc 85bd
000000e0: 28d1 62be 3ecb 56be 3c50 3c3d 5425 8cbd
000000f0: 1654 45bd c1ce 09be da16 09be c545 2b3e
00000100: 9036 afbd 7eaf 1b3d 89f3 c0be 4cb1 36be
00000110: 0caa d8bc 420b 18be 01d7 103d e8c8 b5bc
00000120: 2765 ce3d c559 0f3d daeb b43e 5e28 823e
00000130: 0175 263e 7466 bf3e 2378 ccbd c60f 14bd
00000140: 2e90 5dbe 4150 033e f39d edbc fb82 48bd
00000150: a55a 7cbd 2bfb b2bd 395b 893e fb43 9b3d
00000160: 2db9 2dbe 958d 58bd 4d43 44bd 64e0 de3c
00000170: 63ba 99bd bfad 493e cc91 933d 8251 ab3d
00000180: 4625 8fbe d2e4 31be a5e9 08be 5e19 ccbd
00000190: 0214 1a3d b317 86be 7eaa 3ebd 7ad3 3bbe
000001a0: c8fc 9dbb 0d9d 873d ccab 59bd bcaf 1ebe
000001b0: b72f 443d ba06 3d3b 6350 46be bb38 6cbe
000001c0: 4f93 84bc 91d6 2c3e 56cc 95bc 6880 e2bd
000001d0: f9f8 19be f25b ffbd cf92 22bd 42cd 0abe
000001e0: b713 6bbd 8b46 493d aa17 cf3c 2e26 22bd
000001f0: ce5b 913e 433d 8ebd b352 47be 1cfe ef3c
00000200: 9539 f63c 3b31 ba3d e0ed 18be 3d6b 113d
00000210: cf04 4fbc ecb2 673d 1c94 6bbd c98a 74bd
00000220: 2e24 3a3d 8771 773c 75fa 0cbe b004 a43c
00000230: fff1 68bd 1b9c cc3c d877 9bbd 3c54 edbd
00000240: b550 b4bd 3d5c bbbd 9364 11be ae5b cd3c
00000250: 0cf1 99bd f539 ebbd 863d 8ebc b73a 55bc
00000260: 2cd8 8b3d 29e0 02be 51b3 a5bd 1cb5 f4bd
00000270: f518 b43b ec93 b5b9 ed43 9cbd d149 f83d
00000280: 664d 62bd fced 8ebd f2cf 4f3c 0027 273e
00000290: 3561 d33d 23a7 13bd dfaa dbbd e3b3 093d
000002a0: ed8d 823d d6bd 4cbc 3b5d 6e3d 7bfa 7c3d
000002b0: 6b02 cdbd 7d56 59bd 505a 733d ea6e 6fbd
000002c0: 3a59 cd3d c90b 4dbe b492 0ebd a2d6 35bd
000002d0: 3492 03be 4041 4f3d 7dde 84bd 3386 8cbe
000002e0: cfcd e1bd 777d 963c 3a97 063e 2539 053d
000002f0: a2d5 e7bd 4f2b 043e 2f15 99bd a1c2 123e
00000300: be73 4c3c b3d8 04bd 6e75 9cbd 7e86 ba3c
00000310: 8fb9 bfbe 3b1c 7bbd 04d4 92bd 4dc8 88bc
00000320: 27f9 c2bc 0338 87bd 77ef 323c 1cfd fcbd
00000330: b18f 03bd a0b3 26be 5d3e aa3d debf 77bd
00000340: f643 aebd 9571 cd3d 91c8 1abc e871 953d
00000350: baef f9bd da66 9e3d db17 e9bd 7e3b 8cbd
00000360: d69d 9abd 94fb 7c3c b715 aa3d fa13 1bbe
00000370: a947 17be 5475 4dbe 5d3a 523d 7646 583c
00000380: 27f6 003d 0c6a 7e3c 1564 0b3c cab1 4a3e
00000390: d5a3 8a3d 72e2 0fbd bdf0 92bd 3a6a 213e
000003a0: 8291 28bd 21a5 f4bd dfd6 32bb 9f5f cfbc
000003b0: 5c57 2c3e 1669 293c ce1a 3abd c498 9dbd
000003c0: e1d5 f6bd 1a58 373c e6e9 6fbd 3ed2 113e
000003d0: 874a 003d 67bf 96bd 39bc 2abe 969a dbbc
000003e0: 91c0 8cbd b44d d73c 7bcf 873d cc37 1f3c
000003f0: af96 aabc 97d9 633d 5914 16bd 1bb8 b43b
0.13601868 -0.021874346 -0.04814805 0.081693806 0.07051428 -0.01228274 -0.1461292 -0.11379247
-0.0037620899 -0.03276925 0.08894929 0.1550226 0.013477905 -0.08544772 0.026146015 -0.101681545
-0.034964554 -0.10592417 -0.046644665 0.067664385 0.037058916 -0.20467135 -0.03170398 -0.13454327
0.19585887 0.17968503 0.06863032 -0.11815148 -0.14234753 0.05617002 -0.06768851 0.052818608
0.06855464 -0.054929145 -0.08079297 -0.17317635 0.14181897 0.07075332 0.009412162 -0.1315907
-0.12119366 -0.027033156 0.026243782 -0.070755586 -0.13118882 -0.14304271 0.06842952 0.009799103
-0.10529901 0.020740258 -0.11106227 -0.2179512 -0.12355978 -0.06337294 -0.11209508 -0.0654238
-0.221501 -0.20975968 0.045974955 -0.06843057 -0.048175894 -0.13457777 -0.13387623 0.16725834
-0.08555329 0.03800916 -0.37685803 -0.17841071 -0.026448272 -0.14848045 0.035361294 -0.022190526
0.10077887 0.03499772 0.3533619 0.25421423 0.16255571 0.37382853 -0.09983852 -0.036147855
-0.21637031 0.12823583 -0.02900598 -0.048953038 -0.061609883 -0.08739313 0.2682741 0.075813256
-0.1696517 -0.0528694 -0.047915746 0.027206607 -0.075062536 0.19695185 0.07205543 0.08365156
-0.27958125 -0.17372444 -0.13370378 -0.09965776 0.037616737 -0.26189956 -0.046549313 -0.1834239
-0.0048213936 0.06621752 -0.053142354 -0.15496725 0.047897067 0.002884312 -0.19366603 -0.23068516
-0.016183523 0.16878726 -0.018285912 -0.11059648 -0.15036382 -0.12468709 -0.03969079 -0.13554862
-0.05739185 0.04913954 0.025279839 -0.039587192 0.28390354 -0.069452785 -0.19465141 0.029295973
0.030056754 0.09091421 -0.14934492 0.03550266 -0.012635424 0.056567118 -0.057514295 -0.05970267
0.04544466 0.015102751 -0.13767417 0.020021766 -0.05687141 0.02497678 -0.07591218 -0.11588332
-0.08804456 -0.091484524 -0.14198522 0.02506813 -0.07516679 -0.11485664 -0.017363321 -0.013014487
0.06828341 -0.12780823 -0.080908425 -0.11948606 0.005496139 -0.0003463322 -0.07630143 0.12123454
-0.055249594 -0.06978986 0.012683855 0.16323471 0.10321275 -0.036048066 -0.107259504 0.03361882
0.063747264 -0.012496432 0.05819438 0.061762314 -0.10010227 -0.053060997 0.0594123 -0.058455385
0.10026784 -0.20024027 -0.034807876 -0.044394143 -0.12848741 0.050599337 -0.06487749 -0.27446136
-0.11025583 0.018370373 0.13143626 0.0325252 -0.11320044 0.12907146 -0.074747436 0.14332058
0.012478767 -0.032433223 -0.076395854 0.022769209 -0.37446257 -0.06130622 -0.07169345 -0.016697073
-0.023800446 -0.0660248 0.010921351 -0.12352964 -0.032119457 -0.16279459 0.08312676 -0.060485713
-0.08509056 0.1003143 -0.009447233 0.072971165 -0.12203927 0.07734461 -0.11381503 -0.06847285
-0.07549636 0.01544084 0.08304923 -0.15144339 -0.1477343 -0.20064288 0.05132519 0.013200393
0.03148475 0.015528213 0.008507748 0.19794384 0.0676953 -0.035128064 -0.071748234 0.15763178
-0.041154392 -0.11945558 -0.0027288718 -0.02531415 0.168302 0.010339996 -0.04543572 -0.07695153
-0.12052513 0.011190439 -0.058572672 0.14240357 0.031321075 -0.07360726 -0.16673364 -0.02680711
-0.068726666 0.026282169 0.06631371 0.009717893 -0.020823805 0.05562743 -0.0366405 0.005515111

fc2.bias f4 [48]
00000000: d8f0 933c d20e a3be 10d0 4dbc b899 a0be
00000010: 6ba3 493d 7ffc 95be b3f8 03be 05f2 ccbe
00000020: 0f81 b0be 7a76 d3bd 6178 c5bd e7fc a43d
00000030: b5de 3dbe 697a 98be ed05 79be aad4 0ebe
00000040: 4803 6abd 205e 6cbe 3c81 7fbe 0676 03be
00000050: b77f cbbd 0c2d e0be 5c67 e8bd ab66 113e
00000060: 22c2 3cbe 730e 1fbe 8d51 14be b84b b0be
00000070: af24 a9be eee5 003e acd2 37be 8fba 35bf
00000080: 24da 71bd 30bc d0be 5736 1b3e 9fac 0abd
00000090: af53 8e3b f2da adbe 73e0 3fbe a307 94be
000000a0: 6ed8 f2be 4e3c 3abe 7926 3cbe 9df5 1bbe
000000b0: fa1a 81be 7842 84bd 7ceb 47be 49f5 8bbf
0.01805918 -0.31847245 -0.012561813 -0.31367278 0.049228113 -0.29294202 -0.1288784 -0.40028396
-0.34473464 -0.10325332 -0.09642101 0.0805605 -0.18541987 -0.29780892 -0.24318667 -0.13948312
-0.057132035 -0.23082781 -0.24951643 -0.12837991 -0.09936469 -0.43784368 -0.11347839 0.14199321
-0.18433431 -0.15532856 -0.14484234 -0.3443277 -0.330358 0.12587711 -0.17951459 -0.7098779
-0.059045926 -0.40768576 0.15157448 -0.03385603 0.004343472 -0.33956105 -0.18737964 -0.28912076
-0.47430748 -0.18187067 -0.18374051 -0.15230413 -0.25215894 -0.064579904 -0.19523424 -1.093423

fc3.weight f4 [1, 48]
00000000: d837 fabc 8719 2b3c ae38 e9bc 0c4d 233c
00000010: 7afc 5abc f3d3 ca3a dae6 3438 305d 413d
00000020: 4dda ed3c 7d54 de3c df40 f238 c7e5 c83c
00000030: 0f93 1fbb 52bd 02bc 37e5 c83c 21d7 bfba
00000040: 12ce f93c c9ab eb3b 6500 ce3c 8dfd cc3c
00000050: a713 813c 53f2 9bbb 7889 fdbc dd4a 8bbd
00000060: 0d85 8abc 4eb8 31bd ec4b 14bc 9e6c 6abc
00000070: 08fa dbbb e86e 133e f6ca c73c 6d94 5ebc
00000080: 0f29 773b 7b9f c33b 61c9 133d 22ac 843c
00000090: 2d81 203c b270 15bc 5a18 9dbc e0b5 923c
000000a0: 2b3d babc 9e73 87bc 6c40 d53c 6e21 193c
000000b0: 770e e23b 98e0 c53a 1812 19bd e427 b5bc
-0.030544207 0.010443098 -0.02846941 0.0099671 -0.013365859 0.0015474543 4.313034e-05 0.04720801
0.029034758 0.027139897 0.000115515424 0.024523629 -0.0024349128 -0.007979708 0.02452336 -0.0014636257
0.03049377 0.0071921092 0.025146673 0.025023246 0.015756441 -0.004759112 -0.03094934 -0.068013884
-0.016909147 -0.043388657 -0.009051304 -0.014308123 -0.0067131557 0.14397776 0.024388772 -0.013585192
0.0037713682 0.0059699393 0.03608072 0.01619536 0.009796423 -0.009121107 -0.01917665 0.01790899
-0.022734245 -0.016534623 0.026031695 0.009346349 0.006898697 0.0015096841 -0.03737077 -0.022113748

fcs4.weight f4 [24, 8]
00000000: 22f3 183e 4bd3 15be 0ad8 253e c206 503e
00000010: 48e9 db3c 7c13 23be 9811 223d a0db 28bd
00000020: 9a86 133f 5929 f2be b85a d3bd bde8 2abd
00000030: b316 1bbc 1502 24bd aee9 90ba db07 11bd
00000040: aedc f3bd 2963 a7bd d056 b23c f452 a13d
00000050: f80f 1cbd 64fe a4bd fc70 b73d 1f3c 4bbe
00000060: 6349 7c3e b447 f6bd fc76 0e3e 81f1 223e
00000070: 2ded 633c 0a48 f13d 7daa bebd b496 1a3e
00000080: c09c 2abf f4e2 2f3f c53e 003e 107e b2bd
00000090: f086 723e 1df3 393e 82ea 783e fc02 de3c
000000a0: 8621 c941 da83 acc1 49c9 2bc0 e6f5 093e
000000b0: 7f85 4e3e 6ac7 873e b2d8 833f 5030 963c
000000c0: 47e1 943e 483d 0cbe 500e 00be 88fc 123e
000000d0: 5589 ac3d a7f1 083e de60 173d 144a 933c
000000e0: 4968 403e bb9d d83d caf3 323d 0a24 4b3e
000000f0: ae7b 79bd 2505 c7bc 021e 4cbe b5a2 063d
00000100: 732f 4fbe 0ae6 50be 989d 4ebe d4e5 003e
00000110: 3006 ae3c 005e f339 08fc 043d ca35 9ebd
00000120: eb7b b43d ccf3 8fbe b8f8 dcbd a69b 14bd
00000130: 8f9f c63d 8eca 4c3e 867b 2cbe 2c52 703d
00000140: 5c01 ebbd a316 87be 4c6b 61be cddc e93e
00000150: bc1b 4a3e 6829 953e 7505 adbe 0b6f fbbd
00000160: 735a e13d fed0 82be 64aa 30be bbd6 cbbd
00000170: 10d7 173d 48ab 83bd 1cce eebd 5292 ed3d
00000180: 6379 233e e677 01be cd4d 1fbd b376 923d
00000190: b216 143d c0c9 38bd 80bc f6bd 578f 59be
000001a0: 4961 6b40 f7ab cabf 4e5d d1bf 6cd4 f4bd
000001b0: a40a 833f f90a 87be ed6b ae3e 45d3 4b3d
000001c0: 985c 4e3e e016 15bd 5e84 033e fc3d d8bd
000001d0: 9b8d 4bbe dd9c 26be 183e d6bd 6c22 85bd
000001e0: 44cf 8c41 2123 89c1 12c8 64c0 d7ae 5ebe
000001f0: 9468 53be ecb4 40be cc7b 233f a3c9 6c3b
00000200: 885a 463d 14f8 b83d 7425 7ebd 2676 8fbd
00000210: d538 c5bd 8d2b 4abe 50d2 923d 4b06 1ebe
00000220: 89be 7abe 3075 0e3e b9f1 633e 08e1 d03d
00000230: 635b 5cbe 29e6 2e3e c8c4 303e 01e1 8e3d
00000240: 8095 913c 46e0 273e 4c1d cb3d 8efc 15be
00000250: b857 dcbd 0096 7b3b 6321 14be b4a7 89bd
00000260: 9455 d93d e858 2b3e af75 623e f326 89bd
00000270: d699 0fbe b9ef 293e 0ac3 4ebd 30fe 94bb
00000280: 19fa 87be f9d5 cbbe 3b37 f7bf 645a aebe
00000290: 7a85 263c a0e4 843e add5 313f 149c dcbc
000002a0: d8c6 a640 bf62 94c0 0085 3bc0 eca2 84be
000002b0: 2815 0a3d 7434 a53d df84 883f af64 b8bb
000002c0: 60c0 9e3d 2538 eb3d 7da7 393d 9759 dabd
000002d0: fbb2 d1bd 1ad3 82bd 2e1c 1c3e 8525 ef3d
000002e0: 1720 0d3e 70cb 11be b890 26bd 26a9 03be
000002f0: a681 0dbe 1e7e 6dbd b472 5abe 596f 1ebe
0.14936498 -0.14631383 0.16195694 0.20315078 0.026844636 -0.15925401 0.03956756 -0.041225076
0.5762726 -0.4729717 -0.103200376 -0.041725863 -0.009465861 -0.040041048 -0.001105597 -0.035407882
-0.11907326 -0.0817321 0.021769911 0.0787715 -0.038101166 -0.08056334 0.08957097 -0.19847153
0.2463737 -0.12025395 0.13912576 0.15912439 0.013911528 0.117813185 -0.09309862 0.15096551
-0.6664543 0.6870568 0.12523945 -0.08715451 0.23684287 0.18159147 0.24308208 0.027101032
25.141369 -21.56438 -2.6841605 0.13472709 0.20168112 0.26519328 1.0300505 0.018333584
0.29078123 -0.13695252 -0.1250546 0.14354146 0.084246315 0.13373433 0.036957614 0.01797966
0.18789782 0.1057696 0.043689527 0.19837967 -0.060908966 -0.024294445 -0.19933322 0.032870013
-0.20232944 -0.20400253 -0.20177305 0.12587672 0.021243185 0.00046418607 0.03246692 -0.07725103
0.08812698 -0.2811569 -0.10789627 -0.03628125 0.09698402 0.19999143 -0.16843995 0.058672115
-0.11474869 -0.26384458 -0.22013587 0.4567627 0.19737142 0.29133153 -0.33793226 -0.12277039
0.1100358 -0.25550073 -0.17252499 -0.09953066 0.037070334 -0.06429154 -0.11660406 0.11600174
0.15964274 -0.12643394 -0.038892556 0.07151546 0.036154456 -0.04511428 -0.12047672 -0.21246086
3.6778128 -1.583373 -1.6356599 -0.11954579 1.0237622 -0.2637556 0.34066716 0.04976203
0.20152509 -0.03639877 0.12843463 -0.105586976 -0.19878237 -0.16270776 -0.10461062 -0.06500706
17.601204 -17.142153 -3.5747113 -0.21746384 -0.20645362 -0.18819016 0.63860774 0.0036130927
0.04842618 0.09031692 -0.062047437 -0.07004957 -0.096299805 -0.19743176 0.0716902 -0.15432088
-0.24486746 0.13911891 0.22260179 0.10199171 -0.21519236 0.17079987 0.17262566 0.0697651
0.017771482 0.16394147 0.09917697 -0.14647123 -0.107589185 0.0038388968 -0.14465861 -0.0672144
0.10612026 0.16733134 0.22115205 -0.06696882 -0.14023528 0.16595353 -0.050478972 -0.004546903
-0.26557997 -0.39811686 -1.931373 -0.34053338 0.010163659 0.25955677 0.6946667 -0.026929893
5.211773 -4.637054 -2.9299927 -0.2590555 0.033711582 0.08066645 1.0665549 -0.005627237
0.07751536 0.11485318 0.045325745 -0.10661619 -0.10239216 -0.06387921 0.15245125 0.11677078
0.13781773 -0.14237761 -0.04066536 -0.12857494 -0.13818988 -0.057981603 -0.21332818 -0.15472163

fcs4.bias f4 [24]
00000000: 939f 8fbe 5d33 19bc eeb6 83be 5812 79bd
00000010: 8641 973e 3000 823f 75b3 0f3e 1cc0 27be
00000020: 6b79 1dbe 9934 4b3e c5d4 6f3c 9660 983e
00000030: 4b9c 8dba 011a ac3e f0dd 91be 75ed 263f
00000040: 1657 26be b442 f0bd 00af 0a3b 3980 bcbd
00000050: f814 093f b81b 8c3f f07f 44be 6de4 663a
-0.28051433 -0.009350625 -0.25725502 -0.06080851 0.29542178 1.0156307 0.14033301 -0.16381878
-0.15378349 0.19844283 0.014638131 0.2976119 -0.0010804025 0.3361359 -0.28489637 0.6520608
-0.16244158 -0.117314726 0.0021161437 -0.09204144 0.5354762 1.0945959 -0.1918943 0.0008807842

fc5.weight f4 [48, 25]
00000000: 8893 c83d 42ee ec3c 9de6 0abd 4c5c 993d
00000010: 0b47 f6bd d71c 7ebd 0163 d6bc 7992 9bbc
00000020: 2319 95bd f7f0 8ebd f005 86bd 723a 84bd
00000030: d01c ba3c fb03 17be baa1 45bd 9b65 c8bd
00000040: 5333 623c ad25 8d3d 4f6d 70bc c8d3 0abd
00000050: 2d5d 46bd cfee 9ebc 7524 2dbb faa7 0dbe
00000060: 02c0 7abd d617 33be b864 fdbd 2358 bdbd
00000070: 457a ecbd 686b b63d 69f6 11bc 42cb c7bd
00000080: f00b d1bd 4df3 04be f34f d7bd bb79 c13a
00000090: d216 2cbd 8a52 72bd d5ec 39be a06d 20be
000000a0: 4a7a d2bd 1bbe a9be 9f08 043d 9911 b9be
000000b0: 82d3 c8bc 91c3 00bd a64a 84bd fdee 2b3d
000000c0: abdc a2be 7316 d5bd c78d 0f3d fdfb b23d
000000d0: f519 97bd 5075 34bd f8e2 a63d c1bf 58bd
000000e0: bc00 d53c e655 b9bd 4799 38be 6a32 9c3d
000000f0: a54a 50be af54 ebbc fab3 cf3d ba13 67bd
00000100: 5c20 963c f58a 8bbd 2226 403e 2a89 f5bb
00000110: 6f4f bebd 1478 0abe 91e1 7fbd fb85 9ebb
00000120: 56ec 04be 5222 8eba e955 16be 8f2d a7bd
00000130: a4c0 5cbd fad5 f53d 6863 c8bc 800a 753d
00000140: 3583 10bc 8554 a6bd 7533 c9bc 688f 28be
00000150: b2ff a33d 5f09 273d 549e 11be 2bf7 803d
00000160: 69f4 cfbd d238 afbc 5a30 1f3d 1553 49bd
00000170: 8398 5cbd 079b 16bd 5d08 b23c 7e41 d8bb
00000180: 46a1 23bc 6113 353d 88f6 a3bd 3fa9 843e
00000190: c584 e93d 8581 6fbc 3f06 633d f44e 0bbd
000001a0: 560e 4a3d 4641 7dba 3bc7 62bd d521 38be
000001b0: b45e 343d d7ac 343d ac89 66bd c32e a73b
000001c0: 1533 103e b55c e8bb 7939 c1bc fbc8 dc3c
000001d0: 526a 373d be4b 6fbb ee02 6bbd 9d9a 893d
000001e0: 6405 2bbc 312c 2fbd af34 273d e0c8 81bd
000001f0: 79e5 4f3e fe3c 293d e4d8 00be 436d 373c
00000200: 91a2 9a3d 441f 003e f2c6 92ba b495 2f3c
00000210: 3764 be3c e455 183d 155c a2bd dd67 9ebd
00000220: 1841 72bc c898 c33d 6578 08be 7b76 603d
00000230: cbf1 bc3c 4917 b4bd 6a3c 663d 709b 943d
00000240: 7a79 bdbd 4736 18be 677e 54be c610 16be
00000250: d160 35bd 1629 3cbd 5cbf 163e 9bdd 91bd
00000260: 64d7 4dbc 9106 13be 874d 103e 932d 07be
00000270: e1ba 923d bcca e13c dfcd c7bd b22a 50bc
00000280: e1a6 11be 35a1 f4bc 59c2 a7bd 4de5 50bd
00000290: 2f88 1a3e dc66 85bd b9c3 25bd c5fe 10bd
000002a0: 49f3 503a 360f 96bd 2aa8 30be 94a5 21be
000002b0: 481e 18be 9c6b d6bd a518 b8bd 76fc 44be
000002c0: 26a3 abbd 0e53 153e ddc0 1abe d8b8 3dbe
000002d0: 4dff abbe b8fd 4cbe 0b8c d4be f5e0 54be
000002e0: 97e2 073c 3f5d 443c fb11 7dbd 8fdd f63c
000002f0: 8cd7 13be fa3b 10be 6607 eebd 266b 11be
00000300: bd2c 72be bb62 2cbd 75ca 1cbd d210 1e3d
00000310: c102 15be a722 8fbe 61b3 e7bd b7b8 993e
00000320: 1124 213e 8b34 a5bd 6c70 633e b397 203d
00000330: 2b96 c63d 6d18 24bd 5bfd a8bd 2264 06be
00000340: 68cc 0cbf aa53 c73c d0cc c93d ed17 3e3d
00000350: 4ac8 4e3c 87ce 2bbc 714a 853d 03a8 2f3d
00000360: c4d3 993e 921a e2bb 424f 66be 12f9 2cbe
00000370: 4ca3 0dbe 65a3 a53c 066b b3bc 294b babe
00000380: c4e7 883d 314a 17be 52fa f23d b155 5a3d
00000390: a7f1 1ebd 70c8 6abc 3a05 f6bd d8a9 3e3e
000003a0: 1dc3 d5bd f678 1dbe 9ebc 1cbd daeb bb3d
000003b0: 52b8 e23c 2012 753d 047e 24bd 978b ca3c
000003c0: 1d32 a5bd c5ef cbbd ddaf b63d 9ca2 12be
000003d0: 4cc8 d13c a092 c0bb b8d9 53bd 60cb 43bd
000003e0: 1419 7abe e924 4e3e 3a1d 893d 7902 d9bc
000003f0: 42cc ddbb 5a4a 15be b139 6ebc fcb4 b5bd
0.09793764 0.028922204 -0.033911336 0.07488307 -0.12025269 -0.062039223 -0.026170256 -0.018990742
-0.07280185 -0.06979554 -0.06544101 -0.0645646 0.022718817 -0.14747612 -0.048249938 -0.09785005
0.013806182 0.06891952 -0.014674499 -0.033893377 -0.048428703 -0.019400982 -0.0026419435 -0.13833609
-0.06121827 -0.17489561 -0.12372726 -0.09245326 -0.115467586 0.08907205 -0.008908846 -0.09755565
-0.10207355 -0.12983437 -0.10513296 0.001476101 -0.04201395 -0.059160747 -0.1815675 -0.15666819
-0.10277231 -0.3315285 0.032234784 -0.36146238 -0.024514917 -0.031436507 -0.064595506 0.041975964
-0.3180898 -0.104046725 0.03504732 0.08739469 -0.07377998 -0.04405719 0.081487596 -0.052917246
0.026001327 -0.09049587 -0.1802722 0.07626803 -0.20340975 -0.028726904 0.1014175 -0.056415297
0.018325977 -0.06813613 0.18764547 -0.007493158 -0.092924945 -0.13522369 -0.062470976 -0.004837749
-0.1298078 -0.0010843968 -0.1468121 -0.081629865 -0.053894654 0.120037034 -0.024461463 0.059824467
-0.008820345 -0.081215896 -0.02456067 -0.16460955 0.080077544 0.04078042 -0.14220554 0.062971435
-0.101540394 -0.021389399 0.03886447 -0.0491515 -0.053856384 -0.03676894 0.021732504 -0.006599604
-0.009987181 0.044207934 -0.080060065 0.25910375 0.11402277 -0.014618282 0.05542588 -0.034010842
0.049330078 -0.00096609106 -0.055365782 -0.17981656 0.04403563 0.044110145 -0.056283638 0.00510201
0.14081986 -0.0070911297 -0.023586975 0.026951304 0.04477913 -0.0036513652 -0.05737584 0.06718943
-0.010438297 -0.042766754 0.040821727 -0.06337142 0.2030238 0.041317932 -0.12582737 0.011195484
0.07550538 0.12511927 -0.0011198206 0.010716844 0.023241146 0.037191287 -0.079277195 -0.07734654
-0.014786027 0.09550625 -0.13327177 0.05480049 0.023064515 -0.08793504 0.05620996 0.0725621
-0.092516854 -0.14864455 -0.20751344 -0.14654836 -0.044281784 -0.04593762 0.14721435 -0.07122346
-0.01256356 -0.14357974 0.14092074 -0.13200979 0.071645506 0.027562492 -0.09756064 -0.012705492
-0.14223816 -0.029862026 -0.08191366 -0.05099993 0.15091012 -0.065137595 -0.04046986 -0.035399217
0.00079708226 -0.0732712 -0.1725165 -0.1578582 -0.14855301 -0.104697436 -0.089890756 -0.19236931
-0.083807275 0.14582464 -0.15112634 -0.18527544 -0.33593217 -0.20018661 -0.41513094 -0.2078894
0.008293769 0.011985122 -0.061784726 0.030134944 -0.14437693 -0.14085379 -0.11622505 -0.1420103
-0.23649879 -0.042086344 -0.038279016 0.03859026 -0.14551832 -0.27956125 -0.11313511 0.3002374
0.15736414 -0.080666624 0.22210854 0.03920717 0.09696611 -0.040062357 -0.08251449 -0.13124135
-0.549994 0.024331886 0.09853518 0.046409536 0.012620995 -0.010486252 0.06508339 0.042884838
0.30044377 -0.00690014 -0.22491172 -0.16891888 -0.13831824 0.020219514 -0.021901619 -0.36385468
0.06684831 -0.14774396 0.11864151 0.053304378 -0.038804676 -0.014330015 -0.12012716 0.18619478
-0.104376055 -0.15378174 -0.038265817 0.091758445 0.027675781 0.05983174 -0.04015924 0.024724765
-0.08066199 -0.09957842 0.08920262 -0.14319843 0.025608204 -0.005876854 -0.051721305 -0.047801375
-0.24423629 0.20131268 0.06695028 -0.026490437 -0.006768734 -0.14579144 -0.014540122 -0.08872411

fc5.bias f4 [48]
00000000: 84b2 05be d354 a3be 5130 87be 6957 8a3d
00000010: ecf9 25be 3488 38be 1bcc 96be d512 1a3d
00000020: c304 28be 7b91 9b3c acee d3bd 9d5c b0be
00000030: 811b 43be 4872 4bbe 1ca5 47be c89a 38bd
00000040: b389 8bbe 7867 20be e540 133b 982e b4be
00000050: 4da4 b0be 03ec b4be 2940 34bd 6f9a 48bd
00000060: 463d d7be 518d b1bd 73f9 b93d fa20 c4bb
00000070: cce4 3dbe 4d6e 9ebe d715 34bf 28c8 cbbd
00000080: f6b9 20be ef57 8cbe 62de 05bf 4a5e 16be
00000090: 239b a9bd eeb5 493d a586 01be d416 3f3e
000000a0: ad94 b9be c098 a9be b019 07be 50c1 7c3e
000000b0: 639c 8bbf 32b0 36be 5594 31be d78e 59be
-0.1305638 -0.31900653 -0.2640405 0.067549534 -0.16208619 -0.18020707 -0.29452595 0.037615616
-0.16408066 0.018990269 -0.103482574 -0.34445658 -0.1905346 -0.19867814 -0.19496578 -0.045069486
-0.27253494 -0.1566447 0.00224691 -0.35191798 -0.34500352 -0.35336313 -0.0440065 -0.048975404
-0.42038935 -0.08669532 0.09080782 -0.0059853764 -0.1854431 -0.30943528 -0.70345825 -0.09950286
-0.15695938 -0.27410838 -0.52292454 -0.14684406 -0.08281543 0.049245767 -0.12649019 0.18661052
-0.36246243 -0.33124352 -0.13193393 0.24683118 -1.09071 -0.1784065 -0.1734174 -0.21245895

fc6.weight f4 [1, 48]
00000000: ce0e 9e3c bac1 16bb 1fe9 b9bc 16a4 c6bc
00000010: ef14 433c 05a3 5bbc 78ea a63c a17f 213a
00000020: f840 42bb 24f4 efbc 7240 ad3c 17dc 6dbc
00000030: bf38 62bc 31b7 70bc 7d00 ed3b 0c00 0ebc
00000040: b585 c03b bbbf a7bc 23d5 50bd 0daf 383c
00000050: f79f d33c 3e2a 07bc 48a0 aa3b 911b 833c
00000060: c59c 323b 7873 03bd 69b0 243e 9ebb 7bbd
00000070: 1763 85bb b9b5 543a 15d2 4eba deaf af3c
00000080: 3d95 b0bd 0991 a13c cac5 a6bc 69d2 143c
00000090: d4be 5dbc 5edc 20bc 3068 6a3c 1854 133e
000000a0: b47c 4d3a 3ea9 0dba 472e b9bc 54ea 7e3d
000000b0: 5745 d539 b5fe 593c 9702 77bd 814f c6bb
0.019294169 -0.0023003654 -0.022694169 -0.024248164 0.011906846 -0.013405566 0.020375475 0.0006160681
-0.0029640775 -0.02929122 0.021148894 -0.014517806 -0.013807475 -0.014692114 0.007232724 -0.008667003
0.005875314 -0.020477166 -0.050984513 0.011272204 0.025833113 -0.008249817 0.0052070953 0.016004356
0.0027254086 -0.03209254 0.1608292 -0.061458223 -0.0040706503 0.0008114237 -0.0007889581 0.021446165
-0.08622215 0.019722478 -0.020357985 0.009083369 -0.0135342665 -0.009818165 0.014307067 0.14387548
0.00078387116 -0.0005403942 -0.022605075 0.06223519 0.00040678188 0.013305356 -0.060305204 -0.006051958

bn1.weight f4 [24]
00000000: 0000 803f e53f 433f 0000 803f 6cd0 39bb
00000010: 9e12 0639 2dca 9f3f 3456 8c3b 7789 473f
00000020: 876d 643f b904 2d3b 490b 6d3f 0505 453b
00000030: 17b1 e33e d0e6 25bb 0000 803f 15eb 8d3e
00000040: a4b1 a53b 7259 a13f 476b efbb 03ef 2c39
00000050: dd52 903f 5ef0 cd3e a840 aa3f 740d db3e
1.0 0.7626937 1.0 -0.002835299 0.00012786171 1.2483574 0.004282737 0.7794413
0.89229625 0.002640052 0.92595345 0.0030062806 0.44471046 -0.0025314577 1.0 0.27718416
0.005056577 1.2605422 -0.0073064896 0.00016492237 1.1275288 0.40222448 1.3300982 0.427837

bn1.bias f4 [24]
00000000: 61a3 863b 4849 4138 298d b43b 1402 c0b9
00000010: f3d0 e33b 9563 8e3e 0f67 dd3b 5c85 2a3e
00000020: d8aa 8aba 9642 9ebb 360d 243b 1f5b 7dba
00000030: d12e 8fbb 78b3 b23b 5e2e 4f3b 2a7b 4b3d
00000040: 4c3d 20bb 2132 7e3e 9642 823b 05ac 82ba
00000050: befe 803e eb06 bb3d 388e 963e 1b1f 3b3d
0.0041088318 4.6083034e-05 0.0055099917 -0.00036622642 0.006952399 0.2781035 0.0067566703 0.16652435
-0.001057948 -0.004829715 0.0025032288 -0.0009664762 -0.0043695946 0.0054535232 0.003161333 0.049678005
-0.0024450598 0.2482381 0.003975223 -0.0009969479 0.25194353 0.09132179 0.2940538 0.04568396

bn1.running_mean f4 [24]
00000000: 0000 0000 0400 0000 0000 0000 e933 1459
00000010: c3fc 8458 a36d cd58 2f1c a658 f2c4 0959
00000020: 0400 0000 8d99 3058 0400 0000 c1ba 6f58
00000030: 0400 0000 027e f957 0000 0000 c2f0 ee55
00000040: 9a62 a857 1c23 1058 5e8b b057 1af4 9b58
00000050: 9b25 0058 8958 ab3d ec0f c558 24ea 943d
0.0 6e-45 0.0 2.6072108e+15 1.1697691e+15 1.8069662e+15 1.4611198e+15 2.4236635e+15
6e-45 7.766942e+14 6e-45 1.0543415e+15 6e-45 5.486392e+14 0.0 3.2839727e+13
3.702829e+14 6.339219e+14 3.8822525e+14 1.3717817e+15 5.63596e+14 0.08366496 1.7333774e+15 0.07271221

bn1.running_var f4 [24]
00000000: 0400 0000 0400 0000 0400 0000 3bf9 b974
00000010: dcaa a273 50be 6b74 ddbb 1474 bd8f c874
00000020: 0400 0000 dda4 2573 0400 0000 1ce3 0d74
00000030: 0400 0000 6d4a d772 0400 0000 61f4 0c6f
00000040: d34f 3d72 fb2c 4d73 5d1a 5072 f963 2274
00000050: 7d4a db72 e76f 0a3e 1ac7 3674 4e96 c93d
6e-45 6e-45 6e-45 1.1787475e+32 2.5775681e+31 7.471007e+31 4.7135636e+31 1.2712094e+32
6e-45 1.312367e+31 6e-45 4.496583e+31 6e-45 8.528544e+30 6e-45 4.3623337e+28
3.7497068e+30 1.6255694e+31 4.1219042e+30 5.146361e+31 8.68701e+30 0.1351925 5.792458e+31 0.098431215

bn2.weight f4 [24]
00000000: 0000 803f 0000 803f 0000 803f 0000 803f
00000010: 0000 803f 0000 803f 0000 803f 0000 803f
00000020: 0000 803f 0000 803f 0000 803f 0000 803f
00000030: 0000 803f 0000 803f 0000 803f 0000 803f
00000040: 0000 803f 0000 803f 0000 803f 0000 803f
00000050: 0000 803f 0000 803f 0000 803f 0000 803f
1.0 1.0 1.0 1.0 1.0 1.0 1.0 1.0
1.0 1.0 1.0 1.0 1.0 1.0 1.0 1.0
1.0 1.0 1.0 1.0 1.0 1.0 1.0 1.0

bn2.bias f4 [24]
00000000: 0000 0000 0000 0000 0000 0000 0000 0000
00000010: 0000 0000 0000 0000 0000 0000 0000 0000
00000020: 0000 0000 0000 0000 0000 0000 0000 0000
00000030: 0000 0000 0000 0000 0000 0000 0000 0000
00000040: 0000 0000 0000 0000 0000 0000 0000 0000
00000050: 0000 0000 0000 0000 0000 0000 0000 0000
0.0 0.0 0.0 0.0 0.0 0.0 0.0 0.0
0.0 0.0 0.0 0.0 0.0 0.0 0.0 0.0
0.0 0.0 0.0 0.0 0.0 0.0 0.0 0.0

bn2.running_mean f4 [24]
00000000: 0000 0000 0000 0000 0000 0000 0000 0000
00000010: 0000 0000 0000 0000 0000 0000 0000 0000
00000020: 0000 0000 0000 0000 0000 0000 0000 0000
00000030: 0000 0000 0000 0000 0000 0000 0000 0000
00000040: 0000 0000 0000 0000 0000 0000 0000 0000
00000050: 0000 0000 0000 0000 0000 0000 0000 0000
0.0 0.0 0.0 0.0 0.0 0.0 0.0 0.0
0.0 0.0 0.0 0.0 0.0 0.0 0.0 0.0
0.0 0.0 0.0 0.0 0.0 0.0 0.0 0.0

bn2.running_var f4 [24]
00000000: 0000 803f 0000 803f 0000 803f 0000 803f
00000010: 0000 803f 0000 803f 0000 803f 0000 803f
00000020: 0000 803f 0000 803f 0000 803f 0000 803f
00000030: 0000 803f 0000 803f 0000 803f 0000 803f
00000040: 0000 803f 0000 803f 0000 803f 0000 803f
00000050: 0000 803f 0000 803f 0000 803f 0000 803f
1.0 1.0 1.0 1.0 1.0 1.0 1.0 1.0
1.0 1.0 1.0 1.0 1.0 1.0 1.0 1.0
1.0 1.0 1.0 1.0 1.0 1.0 1.0 1.0
