financial/finance/trained_models/DDPG__rate__CjOeCriterion/critic.pth (torch, 8318 bytes, 5 tensors)

fcs1.weight f4 [24, 8]
00000000: 9865 3fbe 28e8 73bd e18f 41be 48e7 1abd
00000010: 40a5 5a3b 2086 57bc f559 cdbd 4a13 113e
00000020: 3cd1 c1bf d898 7ebf f02a f1bf e893 62bf
00000030: ee78 23bf e520 6cbe 2514 21bf 731f 713d
00000040: b45b 97bd e871 323e 3000 f7bc 5038 313e
00000050: 0044 843a 5062 b5bc dad8 f3bd c800 8bbd
00000060: f8b4 863d e4ea b83d 80fc edbb 8c2a 473e
00000070: faab 10be d848 a03d 1643 3c3e bc61 11bd
00000080: 4b35 203e dca0 173c 0e62 1fbe 862f e1bd
00000090: eaed 913d c856 abbd 9b84 013d 75e2 3b3e
000000a0: 8fa3 77bf 6d35 d6bf 95af a0bb 37b1 0a3f
000000b0: df59 6e3f cd69 2b3f d454 88be 58cb 82bd
000000c0: 58db 223d 02a8 b1bd c374 4cbe 2875 e23d
000000d0: 0d34 edbd 7095 0bbd 1a43 2fbe 1fd8 ebbd
000000e0: ae96 ae40 21fe 913e 5b3f e53e 28c3 64be
000000f0: de00 ffbe 7f27 1dbf 9f79 c5bd c179 d63d
00000100: e73d e23c c25e d53f b00d 8c3f 97f8 44be
00000110: c331 46bf a308 4ebe 6e61 1e3f 5f59 4e3f
00000120: ed0a 79bf f04a 2ec0 9132 08c0 f875 04c0
00000130: e6f4 a9bf 1903 d1bf 6d7a 33bd e64f 8cbe
00000140: d02a 68bc d611 503e 009f 7c3a f867 26be
00000150: 30e6 73bc 98f9 cf3d ce75 88bd 88ec dabd
00000160: 5030 2c3e c026 dd3d d40b 0ebd 40dc 2a3c
00000170: d8da b0bc a81c 423d e0b6 ed3b 73f9 fcbd
00000180: 0ce8 1a3d 40f1 ae3b b039 583c f84f 9fbd
00000190: d039 563d 9706 29be 68ed 793d 5889 e23d
000001a0: 694c ef3f 59f0 9dbf 245b 6bbf 932f 223f
000001b0: 0fa3 633f 4c1b 933f 0783 433f 1278 ef3e
000001c0: b8ae e73d 76cd 103e acee a03d 9045 eb3d
000001d0: c870 0a3e 5051 43bd 5092 d4bc 100b 153e
000001e0: 8d3b 89c0 13d7 6b3f 28c3 ac40 2d07 a53f
000001f0: 7bff a73e e2c2 a2bd 1ac3 9c3e dc6b a53e
00000200: c822 473f fb7c 50be 7f7b 643f 90bd 983f
00000210: a374 6e3f b347 8c3e 7af2 b9be 66e4 8abb
00000220: a990 b3c0 f021 893f 1b03 90be b6f5 87be
00000230: 93d7 82be 8ef7 39be fea8 2a3d cb1e 453d
00000240: a79b 91c0 ad6b f5be ebaa 43bf 8463 c7be
00000250: cad2 5ebf 4825 d8be 864b 373f 4478 cb3e
00000260: b023 ca3d 6073 01be 7205 483e 2ef0 143e
00000270: 309b 1c3d 54fc b93d b08b 913d 1cb0 f6bd
00000280: 1a17 193c 868a 903d 0b1a 82bd 05f4 683e
00000290: 6593 42bd af1c 57be c627 0abe 064c 6dbe
000002a0: c03e 2c3e 34aa bbbd 2610 13be d8c2 b4bc
000002b0: 70d7 0cbe 5360 dabd cc1f d53d 04ef 1cbe
000002c0: 15d2 ad40 1de5 393f 4695 513e 083a 9abf
000002d0: 40e6 afbf 12c1 42bf 5800 b43e be39 a3bd
000002e0: 16d7 613e 1c88 a2bc 3f2e 0e3e 056f a4bd
000002f0: 7037 b5be af32 763e 38e7 43bf c7d2 18bf
-0.18691099 -0.059547573 -0.18902542 -0.037818223 0.0033362657 -0.0131545365 -0.100269236 0.14167514
-1.5141978 -0.9945197 -1.8841228 -0.8850694 -0.638564 -0.23059423 -0.62921363 0.058867883
-0.07390538 0.17426264 -0.030151457 0.17306638 0.0010091066 -0.022141606 -0.119065955 -0.067872584
0.06577486 0.09029177 -0.0072627664 0.19449824 -0.14128104 0.07826394 0.18384966 -0.035493597
0.1564533 0.00925466 -0.15564749 -0.109953925 0.07125457 -0.083661616 0.031620603 0.18348105
-0.96733946 -1.6735054 -0.0049037435 0.5417666 0.9310588 0.66958314 -0.2662722 -0.06386441
0.039759964 -0.08674623 -0.19966416 0.11057502 -0.115821935 -0.03407806 -0.17115441 -0.11515831
5.4558935 0.28514197 0.447749 -0.22340071 -0.4980535 -0.6138839 -0.09642338 0.104724415
0.027617408 1.6669543 1.0941677 -0.19235454 -0.7741968 -0.20120482 0.61867416 0.8060512
-0.97282296 -2.7233238 -2.1280863 -2.0697002 -1.3277862 -1.632907 -0.043817926 -0.27404708
-0.014170364 0.20319304 0.000963673 -0.16250598 -0.014886424 0.10155028 -0.066630945 -0.10689646
0.16815305 0.107984066 -0.03467925 0.010428488 -0.021588728 0.04739061 0.0072544664 -0.12352266
0.037818953 0.005338818 0.0131973475 -0.07778925 0.052301228 -0.1650642 0.061017424 0.110613525
1.8695194 -1.2338973 -0.91935945 0.6335384 0.8892068 1.1492705 0.76371807 0.46771294
0.11312622 0.14140877 0.07858023 0.11487877 0.13519585 -0.047684968 -0.025948673 0.14555001
-4.2885194 0.9212505 5.398823 1.2892815 0.32812104 -0.07947327 0.306176 0.32308853
0.77787447 -0.20360176 0.8925094 1.193285 0.93146724 0.27398452 -0.36317807 -0.004238653
-5.6114087 1.0713482 -0.2812737 -0.2655465 -0.25555095 -0.18160841 0.04166507 0.04812507
-4.5502505 -0.47933713 -0.76432675 -0.38943112 -0.8704039 -0.42215943 0.71599615 0.39740193
0.09870088 -0.12641668 0.19533327 0.14544746 0.038233936 0.09081331 0.071067214 -0.12045309
0.009343887 0.07057671 -0.063526236 0.22749336 -0.047503848 -0.21007036 -0.13491735 -0.23173532
0.16820812 -0.09163323 -0.14361629 -0.022065565 -0.13754058 -0.10662904 0.104064554 -0.15325552
5.431895 0.72615224 0.204671 -1.204896 -1.3742142 -0.7607585 0.35156512 -0.07969998
0.22054705 -0.019840293 0.13884829 -0.08028988 -0.35393858 0.24042772 -0.76524687 -0.5969662

fcs1.bias f4 [24]
00000000: cc5f 7fbe 05e0 113f a236 7fbe eb4b 47be
00000010: 7a5d 64be 5c47 933e 5dbe 57be 7dd7 163e
00000020: 9e3f 69bd b82a 173e 0ed6 88be 428b 78be
00000030: d038 52be a324 573d e623 02be 5929 093e
00000040: e137 c13e b417 2b3e 97b0 e23d 0023 8fbd
00000050: 137d 05bc d856 a5bd b9b4 d13d cff4 00bc
-0.24938887 0.5698245 -0.24923185 -0.19462554 -0.22301283 0.2876538 -0.21068712 0.1473064
-0.056945436 0.1476239 -0.2672581 -0.24271873 -0.20529485 0.052525174 -0.12709007 0.13394679
0.37737945 0.16708261 0.11068838 -0.069890976 -0.008147496 -0.08073205 0.10239548 -0.007870867

fc2.weight f4 [48, 25]
00000000: 3289 eabd 9d20 123f c716 d7bd 30ea fabc
00000010: bada 5e3d e422 833e d0af 053d 73e7 63be
00000020: 9db6 a6bf 8126 a4be d861 db3c 10d7 f83d
00000030: e0a3 5e3d 9ce1 1dbf 2133 eebd d8b4 25bf
00000040: 601a f83e 40c5 5cbe 84e1 a0bf 78bd ddbc
00000050: 8238 143d a2b4 033e 522f 76bf 29d5 b7be
00000060: 735e 83be 38a8 b93c 7c85 f33d 0452 c73d
00000070: c424 fd3d 6a04 a03d 60a7 43bc b05c 1a3d
00000080: d809 77bd 34ea fa3d 9002 943d a65b d8bd
00000090: 6898 ff3d 405e 0cbb 603e d2bb f6cd 21bd
000000a0: f2fb 1bbd 80b8 ec3b 7b4f 90bd 737c 09be
000000b0: 5d44 98bd 084c ebbc 2439 df3d 5076 d93d
000000c0: 861c b1bd 209b b5bb c8a1 2abd 7323 9ebd
000000d0: a0ec cfbc 6422 4dbd 463a a53d d799 92bd
000000e0: e8ea b53c 1249 acbd f96b 5cbd 18e1 d33d
000000f0: 531f 91bd d032 0ebc 6628 0d3e 4209 1d3d
00000100: 3676 96bd 45cc c7bd 630d 4ebd 87a9 57bd
00000110: e3b7 5b3d a070 03bd 304f f93d 2e31 a2bd
00000120: 4f2d 5bbd 283f 573d d5ed d33d d462 0d3e
00000130: 69df a93c 205c c73b d770 84bd 7c05 a73d
00000140: 440f b7bd 6a65 1bbd 4278 09be 9b21 24be
00000150: e3be 743d e0a8 203c c4a5 eb3d 8038 eb3d
00000160: 31f4 603d f898 6c3d a4b2 69bd 339c 9e3d
00000170: e3c5 553d 18e4 dc3c c087 88bb e09d b03c
00000180: 00e1 273a aab3 00be ec3d 093d 8a79 f7bd
00000190: 586d 8f3d 222b 11bf 321e 41bd da30 8cbd
000001a0: 4630 ee3d 1f5b fcbc 6af0 963d 5468 de3e
000001b0: ac7b 13bd 26f3 53be d625 a13d a8ac e93d
000001c0: 40e8 e83c 9ea5 fdbb 6e24 e7bd 68dd b2bd
000001d0: 91f2 643e 9431 76be f576 99be 7985 12be
000001e0: d59d 8cbd 9056 623d 9184 393e 1516 0bbf
000001f0: e0ce e33c c23e 0cbe 17c5 81bf b61e b9bd
00000200: 502d 9cbc d41e 253d f00e 8c3d a0be e33d
00000210: e28b 8b3d b0de 583d b10f d03d fdd2 85bd
00000220: d4e0 69bd a895 98bc db06 443d 7635 cebd
00000230: 3b81 22be 7972 c9be bad4 f43d 243d da3d
00000240: e80a 71bd 68c7 503d 1a93 6ebd 524c 0e3a
00000250: 5a76 d3bd 5528 78bd 5c3a a43d 740b f63d
00000260: c4e8 973d 40b1 b13b 28be fe3d cca1 adbd
00000270: 8c67 0b3e 7e34 d13d 962f ba3d fdb6 eabd
00000280: bba0 9cbd 609e 153c b819 383d a793 c63c
00000290: 0872 703d 79fb 993d ddca 25bd d7d3 bcbd
000002a0: 8e79 a83a fcbf 243d 006f acbd b0bc 643c
000002b0: b1f6 20be 1a71 2dbd 124a dfbd 7c8f 013e
000002c0: 130c 05be 1788 aebd a5a4 10be 001b 153d
000002d0: ca85 e3bd 8847 3f3d 5054 cdbd 9c5b bdbd
000002e0: 3b04 97bd 9071 b13c e6cf 073e 9872 0a3e
000002f0: 80a9 32bc 72c5 10be e851 43bd bc50 61bd
00000300: 887e fbbc b0e4 613d 08c2 943d 2410 833d
00000310: 94e3 283d 4456 6fbd 00b1 c8ba 987b 963c
00000320: c8fd 96bd 708c 53bc 7099 93bc 18a5 0bbe
00000330: 6c65 c83d 0017 6fbc 8589 ffbd a0df e93d
00000340: 750e 9fbd 2c50 513d a893 123e a0f2 da3b
00000350: a017 2a3d 44e7 6a3d 146a df3d 4a65 35bd
00000360: 7457 a6bd 6010 39bc 482d e73d 1055 4b3c
00000370: 7863 cd3d 00a8 8cba e464 353d 0076 a43b
00000380: 2064 803b a5a6 0cbe 8b7d 08be a096 443c
00000390: d64d 923d 75b2 bf3d 273b 193d d834 793d
000003a0: c77e 433d de97 0cbe 897b 13be e331 e5bd
000003b0: 80a1 223b 34ea babd 88b1 80bd dce7 b0bc
000003c0: b0f4 263d 5a77 2d3d 7938 f43d 48a4 ed3d
000003d0: 0795 bcbd 0066 eeb9 e041 c33c de67 e93d
000003e0: 363a 37bd deb5 97bd 7440 bbbd 1182 f83e
000003f0: 4e7e 27bd fa6b 5dbd fa9f a53d d016 ee3d
-0.11451949 0.57081014 -0.10502391 -0.030629247 0.054407813 0.25612557 0.03263837 -0.2225626
-1.3024479 -0.32060626 0.026780054 0.12150395 0.054355502 -0.6167238 -0.11630846 -0.6472907
0.48457623 -0.2155962 -1.2568822 -0.027067885 0.036186703 0.12861875 -0.96165955 -0.35904816
-0.25657997 0.02266322 0.118906945 0.0973244 0.12360528 0.07813342 -0.011941761 0.03768605
-0.060312122 0.12251702 0.07227051 -0.105643556 0.12480241 -0.0021418482 -0.006416127 -0.03950306
-0.03808207 0.0072241426 -0.0704641 -0.1342638 -0.07434914 -0.028722778 0.108995706 0.106182694
-0.086480185 -0.005542174 -0.041658193 -0.07721605 -0.025381386 -0.050081626 0.080677554 -0.07158249
0.022206739 -0.084123746 -0.05381391 0.103456676 -0.07086053 -0.008679107 0.13784942 0.038338907
-0.07346766 -0.09755758 -0.050305735 -0.05265191 0.053642165 -0.03208983 0.12173307 -0.079195365
-0.053510007 0.052550465 0.10348097 0.13807231 0.020736413 0.00608398 -0.06466835 0.08155343
-0.089384586 -0.037938513 -0.13424781 -0.16028444 0.059752356 0.009805888 0.11506227 0.11485386
0.05492038 0.05776307 -0.05705513 0.077446364 0.052190673 0.026964232 -0.0041665733 0.021559656
0.0006404072 -0.12568536 0.03350632 -0.120837286 0.070032775 -0.5670644 -0.047147937 -0.06845255
0.11630301 -0.030805169 0.07370074 0.4343897 -0.036006615 -0.20698223 0.07868545 0.11409885
0.028431058 -0.0077406904 -0.11286245 -0.08733636 0.22358157 -0.2404235 -0.2997357 -0.14308728
-0.068660416 0.055258334 0.18116976 -0.5433057 0.027808607 -0.13695815 -1.0138272 -0.09039061
-0.019064575 0.040312603 0.068387866 0.11120343 0.0681379 0.052946746 0.10159243 -0.065343834
-0.05709918 -0.01862605 0.0478581 -0.100687906 -0.1586961 -0.39345148 0.11954637 0.10656193
-0.05884829 0.05097142 -0.058245756 0.0005428243 -0.10325308 -0.06058534 0.08018944 0.12013903
0.074174434 0.005422741 0.12438613 -0.08478126 0.13613719 0.1021509 0.090911075 -0.114606835
-0.076478444 0.009131998 0.044946402 0.024240328 0.0587025 0.07518668 -0.04047667 -0.09220093
0.0012853609 0.040222153 -0.08419609 0.013961002 -0.15719105 -0.04234419 -0.109028 0.12652391
-0.12992887 -0.08522051 -0.14125307 0.036402702 -0.111095026 0.046699077 -0.10025847 -0.09245989
-0.07373854 0.021660596 0.132629 0.13520277 -0.01090467 -0.1413782 -0.047685534 -0.055008635
-0.030699983 0.055149734 0.07263571 0.06399563 0.04123266 -0.05843188 -0.0015311539 0.018369481
-0.07372624 -0.012911901 -0.0180175 -0.13637197 0.0978497 -0.014592886 -0.12477402 0.11419606
-0.07766429 0.05110185 0.14314139 0.006681755 0.041526437 0.05734946 0.10908905 -0.04428605
-0.08122149 -0.011295408 0.112879336 0.012410417 0.10028738 -0.001073122 0.04428567 0.0050189495
0.003918186 -0.13735445 -0.13329141 0.011998802 0.07143752 0.0936021 0.037409928 0.06084141
0.047728326 -0.13729808 -0.14402594 -0.11191156 0.00248155 -0.09126702 -0.062838614 -0.021594934
0.040760696 0.04235015 0.11924834 0.116036 -0.09208112 -0.00045470893 0.023835123 0.11396764
-0.04473325 -0.07407735 -0.09143153 0.48536733 -0.040891938 -0.054058053 0.08087154 0.11625445

fc2.bias f4 [48]
00000000: 6d1e 03be a09f 4cbe 29d1 04be eb85 843c
00000010: f657 0abd 3aff 1fbe 634a 0bbe 2d4e bfbd
00000020: 78e8 4abe 59e8 dfba 2260 26be 6ebd 1e3d
00000030: 4d9d c2bd 03dd 48be 5a3a 25be f07d c2bd
00000040: 81ca 813d 0ff6 bebd bde1 debd f780 dabd
00000050: a2c6 1fbd a88b 4abe e2f8 45be 8c2b 543e
00000060: 926f 0bbe 99ad 35be 4ff2 a9bd 07eb 33be
00000070: 586b 10bd b746 633d 3a52 a6bd ee6e 7dbc
00000080: cf85 3abd 20e1 4bbe ff69 163e 4e41 323e
00000090: d053 8d3d e35e a0bd a225 953d b8e1 3fbe
000000a0: bc65 96bd c89c 26bd 4a48 c9bd 195d 093e
000000b0: 30a3 babd 98e5 bdbc f88b 6cbd 6337 78be
-0.12804575 -0.19982767 -0.12970413 0.016177138 -0.033775292 -0.15624705 -0.13602595 -0.09341083
-0.19815242 -0.0017082795 -0.1624761 0.038754873 -0.09502659 -0.1961556 -0.1613554 -0.09496677
0.06337453 -0.09324276 -0.108829 -0.10669129 -0.03900779 -0.19779837 -0.19333223 0.20719737
-0.1361678 -0.17742004 -0.0829817 -0.17570125 -0.03525862 0.05548736 -0.08121152 -0.015468342
-0.045537766 -0.19910097 0.14688872 0.17407724 0.069007516 -0.07830598 0.072825685 -0.18738449
-0.07343623 -0.040676862 -0.09828241 0.1341442 -0.09113157 -0.023180768 -0.057750672 -0.24239878

fc3.weight f4 [1, 48]
00000000: 99c7 52be e46c 223a 00ee 6fbc 951c 6c3b
00000010: b4db c6bc e41d 0bbc dae5 b6bc 9043 f03a
00000020: 9c64 35bb 595b 833a f69d 103f 981a 053c
00000030: 28a3 313b c0c4 963a c86d 1aba 5414 843e
00000040: cfd5 5d3e a8b3 03bb e277 adba f094 d2b9
00000050: 04a4 3f3c 645e 9dba 38d4 bdba 029c d83e
00000060: 5388 803c abd6 adbb d753 d83b c26d 143b
00000070: 28d1 ebb9 0c5f dabc 0f77 1cbb dfda bebb
00000080: 1e30 b23c 68d8 ec3a a8b1 603d 8c60 f03d
00000090: ea12 9cbc dedd 983b b82a 28be 04d4 43ba
000000a0: be88 443c da66 213b 36a8 59bc f14c c03d
000000b0: 8074 8c39 74f3 2aba 9081 86b9 f116 1ebc
-0.20583953 0.00061960355 -0.014644146 0.0036027778 -0.024274684 -0.008491013 -0.022326399 0.0018330682
-0.0027678376 0.001002173 0.5649103 0.008124016 0.0027105305 0.0011502728 -0.00058909925 0.2579676
0.21663593 -0.0020096097 -0.001323458 -0.00040165288 0.011696819 -0.001200628 -0.0014482802 0.42306525
0.015690004 -0.0053051314 0.0066017914 0.0022648429 -0.00044978526 -0.02665665 -0.0023874675 -0.0058244313
0.02175146 0.0018069865 0.054856926 0.11737165 -0.019051988 0.0046651205 -0.16422546 -0.00074702525
0.0119954925 0.0024627955 -0.0132847335 0.093896754 0.0002678968 -0.00065212627 -0.00025655003 -0.009649024
