financial/finance/trained_models/TD3__baseline__CjMmCriterion/actor.pth (torch, 9687 bytes, 9 tensors)

fc1.weight f4 [24, 8]
0	0xbe8981c6	-0.26856822
1	0xbde8f692	-0.113751546
2	0x3db5f8f1	0.088853724
3	0x3e8c6cbd	0.2742671
4	0xbc8b8531	-0.017031284
5	0x3e139dd3	0.14415674
6	0xbcf13386	-0.029443514
7	0x3dafcd0e	0.08584033
8	0xbe01013b	-0.12598126
9	0xbdcd1bf9	-0.10015101
10	0xbe3b6a27	-0.18302213
11	0xbe11bac1	-0.14231397
12	0xbd876618	-0.0661127
13	0x3e9350fa	0.28772718
14	0x3d2bca35	0.041940887
15	0x3e4cfa79	0.20017423
16	0xbe4d3e45	-0.20043285
17	0x3dc1add1	0.09456981
18	0xbe063103	-0.13104634
19	0x3e42213d	0.18957992
20	0x3de2dde7	0.11077481
21	0x3e20b8f8	0.1569556
22	0xbe1e9aab	-0.15488689
23	0x3ce3a0b9	0.0277866
24	0x3c983208	0.018578544
25	0x3e0a3694	0.13497382
26	0x3dae7a88	0.08519465
27	0x3dddfc70	0.10839164
28	0xbe3769ac	-0.17911404
29	0xbde7cc7c	-0.11318299
30	0x3dfabb74	0.12242785
31	0xbd2e3024	-0.04252638
32	0xbe35d88c	-0.17758387
33	0x3e3e15e2	0.18563035
34	0xbb90a5c0	-0.00441429
35	0x3e289d98	0.16466367
36	0xbe236041	-0.15954687
37	0x3d8fee44	0.070278674
38	0xbd9d7706	-0.076887175
39	0xbdafeb98	-0.08589858
40	0x3e4a367f	0.19747351
41	0xbd9b8792	-0.07594217
42	0x3cf68e28	0.030097082
43	0xbcf1d97a	-0.029522646
44	0xbcb91ab6	-0.022595745
45	0xbcdfa31b	-0.027299454
46	0x3da85d0c	0.08220872
47	0xbc1509ca	-0.009096572
48	0xbf0f5670	-0.5599127
49	0xbde74d80	-0.11294079
50	0xbe126545	-0.14296444
51	0x3d25ea65	0.04050674
52	0x3d1e6ceb	0.03867809
53	0x3dcca23b	0.099918805
54	0xbe6130e9	-0.21991314
55	0x3cae59e4	0.021283098
56	0x3deb6f6c	0.114958614
57	0xbd4dfe7c	-0.050291523
58	0xbda52c2a	-0.08065064
59	0x3e036928	0.12833083
60	0x3e35daee	0.17759296
61	0xbe3f63c0	-0.18690395
62	0xbd34a540	-0.044102907
63	0xbc9b2eb0	-0.01894316
64	0xbd975bb4	-0.07390538
65	0x3e3271e8	0.17426264
66	0xbcf70030	-0.030151457
67	0x3e313850	0.17306638
68	0x3a844400	0.0010091066
69	0xbcb56250	-0.022141606
70	0xbdf3d8da	-0.119065955
71	0xbd8b00c8	-0.067872584
72	0x3dea7766	0.11448555
73	0x3e391477	0.18074213
74	0x3d231477	0.03981444
75	0x3e359591	0.17732836
76	0xbd275b4e	-0.04085856
77	0xbc5e59fa	-0.013571257
78	0x3e2e9cd5	0.17052014
79	0xbcd5d178	-0.026100859
80	0x3dcf4c89	0.1012202
81	0xbe198d0a	-0.14995208
82	0xbe7dcceb	-0.24785201
83	0xbda65ae1	-0.081228025
84	0x3cb2f492	0.021845136
85	0x3cdf34d8	0.027246878
86	0xbd62e7f5	-0.055396993
87	0x3e2476fb	0.16061012
88	0x3e1d0485	0.15333755
89	0xbcd38232	-0.025818918
90	0x3d2626f2	0.040564485
91	0xbe1549d3	-0.14578943
92	0xbe22c0bd	-0.15893836
93	0xbe31dde3	-0.173698
94	0xbe53f041	-0.20697118
95	0x3c7df424	0.015500102
96	0x3d22db58	0.039759964
97	0xbdb1a802	-0.08674623
98	0xbe4c74c3	-0.19966416
99	0x3de27528	0.11057502
100	0xbded340d	-0.115821935
101	0xbd0b9570	-0.03407806
102	0xbe2f431a	-0.17115441
103	0xbdebd81f	-0.11515831
104	0xbe3ab737	-0.18233953
105	0xbe6ccfba	-0.23126116
106	0xbe27a6e0	-0.16372252
107	0x3dca3e21	0.098751314
108	0xbe0b1c75	-0.13585074
109	0x3dad4047	0.084595256
110	0x3c4ec9a9	0.012621322
111	0x3d8d5077	0.06900113
112	0xbf0fc6c3	-0.5616266
113	0xbc189e9b	-0.009315158
114	0x3cf0c3c7	0.029390229
115	0x3c505dff	0.012717723
116	0xbb0a4bfb	-0.0021102417
117	0xbd0e5136	-0.034745418
118	0x3e3da046	0.1851817
119	0xbb4f249e	-0.003160752
120	0x3da3dcbe	0.080010876
121	0xbea49e05	-0.3215181
122	0x3e115c73	0.14195423
123	0x3e3d3125	0.18475778
124	0xbd64b323	-0.0558349
125	0xbc65cce0	-0.014025897
126	0xbda98e36	-0.08279078
127	0xbe79a4f2	-0.24379328
128	0x3da47f97	0.08032148
129	0x3b3421bc	0.0027485928
130	0x3d9624d2	0.07331242
131	0xbcf24233	-0.029572582
132	0xbacc02bd	-0.0015564781
133	0x3c6c7a8f	0.014433517
134	0xbd9ec732	-0.07752837
135	0xbe1d4879	-0.15359677
136	0x3e3ab85c	0.1823439
137	0x3d8e6899	0.06953544
138	0xbc55627b	-0.013023968
139	0x3d059ffa	0.03262327
140	0xbca9600f	-0.020675687
141	0x3d02f6d8	0.03197369
142	0xbc55cd5a	-0.013049448
143	0xbe033354	-0.12812549
144	0xbee6bdce	-0.45066684
145	0x3b8755eb	0.0041301153
146	0x3c8626ba	0.016375888
147	0x3cd82231	0.026383491
148	0x3cf0ae3c	0.029379956
149	0x3996af58	0.0002874087
150	0xbc9aceee	-0.0188975
151	0xbc1fb74e	-0.009748293
152	0xbe869c51	-0.26291135
153	0xbea1cbc9	-0.31600788
154	0xbd10ba72	-0.035334058
155	0x3daa7154	0.08322397
156	0xbe12ed63	-0.14348368
157	0x3a8b2834	0.001061684
158	0x3e3cdf29	0.18444504
159	0x3d783de4	0.0606059
160	0xbe68e567	-0.2274376
161	0x3e1c1758	0.1524328
162	0x3db910a8	0.0903638
163	0x3dc8db17	0.09807413
164	0x3da93c6b	0.08263477
165	0x3dfc24ef	0.12311732
166	0xbe130653	-0.14357881
167	0xbbc522c7	-0.0060161087
168	0xbec5ed5e	-0.3865766
169	0xbe2ce391	-0.16883685
170	0xbdc91f6f	-0.098204486
171	0x3dde4c20	0.108543634
172	0x3e5574f0	0.2084539
173	0x3e882dd0	0.26597452
174	0x3d998b48	0.07497269
175	0x3a937fd4	0.0011253306
176	0xbde02563	-0.10944631
177	0xbe2a27b1	-0.16616704
178	0xbe20da62	-0.15708306
179	0x3e3878e1	0.18014862
180	0xbc1cf17a	-0.009579057
181	0xbdc47a57	-0.09593647
182	0x3d89d913	0.06730857
183	0xbda84688	-0.08216578
184	0xbe306bdf	-0.1722865
185	0x3e97147b	0.29507813
186	0x3de42dd9	0.11141557
187	0xbdd61c15	-0.10454575
188	0xbd96d3c5	-0.073646106
189	0xbd55e168	-0.052216917
190	0x3dab71d9	0.08371324
191	0x3d78a6b9	0.060705874

fc1.bias f4 [24]
0	0xbe9cacba	-0.3060053
1	0x3c81898f	0.015812663
2	0xbeb8534a	-0.36001045
3	0xbe474beb	-0.19462554
4	0xbe52f640	-0.2060175
5	0x3e457ee8	0.19286692
6	0xbe8ed88a	-0.2789958
7	0xbbfcc200	-0.0077135563
8	0x3c73af40	0.014873326
9	0x3e7e3810	0.24826074
10	0xbe94b24a	-0.29042274
11	0xbe6a18dc	-0.22861046
12	0xbe5238d0	-0.20529485
13	0x3e7b40df	0.24536465
14	0xbd2e5065	-0.04255714
15	0x3d8f45fd	0.06995771
16	0x3d89ccdc	0.06728527
17	0x3bf0d012	0.0073490227
18	0x3d465215	0.048418123
19	0xbd815150	-0.06314337
20	0x3d302ab7	0.043009486
21	0xbda51823	-0.08061244
22	0x3c7a008d	0.01525892
23	0x3d5ebe3a	0.054380633

fc2.weight f4 [48, 24]
0	0xbd0371d0	-0.032090962
1	0x3e09344b	0.13398854
2	0x3e162c3b	0.1466531
3	0xbd97b15b	-0.07406875
4	0xbe126f32	-0.1430023
5	0x3d0841d0	0.03326589
6	0x3ebdac22	0.3704539
7	0xbdc7a230	-0.09747732
8	0x3ca1986c	0.019726
9	0xbe57d777	-0.21078287
10	0x3e2bd4dd	0.1678042
11	0x3d10b54f	0.03532916
12	0x3d90bc15	0.07067124
13	0x3e106e72	0.14104632
14	0x3e894de5	0.2681724
15	0xbde3fd95	-0.11132351
16	0xbd305c07	-0.043056514
17	0xbce10d58	-0.027472183
18	0x3e9e1d10	0.30881548
19	0x3e36ef61	0.17864753
20	0x3eea7ac2	0.45796782
21	0x3de39582	0.11112501
22	0xbe0cab2b	-0.1373717
23	0xbecfe838	-0.40606856
24	0x3dd45600	0.10367966
25	0x3da993d2	0.082801476
26	0xbe181995	-0.14853509
27	0x3e715663	0.2356811
28	0xbeaf1001	-0.34191898
29	0xbe557b58	-0.20847833
30	0xbd5214ae	-0.051289253
31	0xbeb7e7e2	-0.359191
32	0xbe4274f3	-0.18989925
33	0xbcc2870d	-0.023746038
34	0x3cd05520	0.025431216
35	0xbe6c3062	-0.23065332
36	0x3e310c3a	0.1728982
37	0x3eb6b7ad	0.35687009
38	0x3e9111e8	0.28333974
39	0xbe4d3ff7	-0.20043932
40	0xbde92fc1	-0.113860615
41	0xbeca1920	-0.39472294
42	0xbe9ed253	-0.3101984
43	0x3e36cbc8	0.17851174
44	0xbe396e60	-0.18108511
45	0xbbc33806	-0.0059576062
46	0xbeaba9b7	-0.3352792
47	0x3c3198fb	0.010839696
48	0xbce3746c	-0.027765475
49	0x3e0cb90f	0.13742469
50	0x3d46b66c	0.048513815
51	0xbb5c804f	-0.0033645814
52	0x3d342c56	0.043987595
53	0x3db2741f	0.087135546
54	0x3e94f02f	0.29089496
55	0xbda9b62a	-0.08286698
56	0xbdb89abb	-0.090138875
57	0xbd1c5332	-0.03816528
58	0x3dd9ee14	0.10641113
59	0x3dac7798	0.08421248
60	0x3da24e12	0.07925047
61	0x3e7c1f71	0.24621369
62	0x3dc0e74d	0.09419117
63	0x3de19a4f	0.1101576
64	0xbd9a1758	-0.07523984
65	0xbd33ac17	-0.04386529
66	0x3e934a47	0.28767607
67	0x3cb021ea	0.021500546
68	0x3f065537	0.5247378
69	0x3edf773a	0.4364565
70	0xbdc83d50	-0.097773194
71	0xbe4b9565	-0.19881208
72	0xbf0d6e50	-0.5524645
73	0xbe54c479	-0.20778073
74	0xbe50af42	-0.20379356
75	0x3f096a2d	0.53677636
76	0xbe9c0fad	-0.3048071
77	0x3db48faf	0.08816468
78	0xbeada4b5	-0.33914724
79	0xbececcb5	-0.40390554
80	0xbf01a8f2	-0.50648415
81	0x3e558747	0.20852385
82	0xbed7e415	-0.421662
83	0xbf1aaad3	-0.6041691
84	0x3f1296ea	0.57261527
85	0xbe8be04b	-0.2731956
86	0x3e0c2e34	0.136895
87	0xbe7f21ae	-0.24915192
88	0xbe8e49b1	-0.27790597
89	0xbe89dc6a	-0.26925975
90	0xbcb7e954	-0.022450127
91	0xbedcc2ae	-0.4311728
92	0xbeded8df	-0.43524835
93	0xbe498422	-0.19679311
94	0xbe2eb4c5	-0.17061146
95	0x3d8ef345	0.06979994
96	0xbe579ece	-0.21056673
97	0xbe00dbfb	-0.12583916
98	0xbe1d9a40	-0.15390873
99	0x3c8727bc	0.016498439
100	0xbe002b72	-0.12516573
101	0x3ea41260	0.3204527
102	0xbcf0b75b	-0.029384306
103	0xbe24ceb7	-0.1609448
104	0xbd927870	-0.07151878
105	0xbef7626c	-0.48317277
106	0xbe170b30	-0.14750361
107	0xbdbbf629	-0.09177811
108	0x3c732ee8	0.014842726
109	0x3e1a55d4	0.15071803
110	0xbcd8451a	-0.026400138
111	0x3ea167fb	0.31524643
112	0x3e86276e	0.26201957
113	0x3d697d87	0.057004478
114	0xbeaeb95a	-0.34125787
115	0xbe2abf8d	-0.16674633
116	0x3b9a1a03	0.004702808
117	0xbe25bd46	-0.16185483
118	0x3e7d60a4	0.24743897
119	0xbed5d532	-0.41764218
120	0x3dd4c65d	0.10389397
121	0x3de15775	0.11003009
122	0x3ea85dfd	0.32884207
123	0x3dd9cb86	0.10634522
124	0x3d94de98	0.07269019
125	0xbddad4be	-0.106851086
126	0x3e3b819c	0.18311161
127	0x3df4234b	0.11920794
128	0xbd749c92	-0.05971963
129	0x3cddd839	0.027080642
130	0x3b240c35	0.002503169
131	0xbdeea71e	-0.11652969
132	0x3d5e8be0	0.054332614
133	0x3cc0ec5c	0.023550205
134	0x3eddd55e	0.4332685
135	0x3e3fed0f	0.18742774
136	0x3e02ba0d	0.12766285
137	0x3dbe9b84	0.09307006
138	0x3e3e7fe6	0.18603477
139	0x3dea2c36	0.11434214
140	0x3ec8b9a2	0.39204127
141	0x3ef1e435	0.4724442
142	0x3d0cd5bf	0.03438353
143	0xbc782343	-0.015145126
144	0xbd969e83	-0.073544525
145	0xbe22c8b2	-0.15896872
146	0x3dad7f04	0.08471492
147	0xbe0a26ab	-0.13491313
148	0x3dd0000f	0.10156261
149	0x3c58f8b4	0.013242889
150	0x3db92001	0.090393074
151	0xbd1869d6	-0.037210308
152	0x3e10ffcc	0.14160079
153	0xbe8bf2e8	-0.2733376
154	0xbc400f97	-0.011722467
155	0x3d9fa609	0.077953406
156	0x3d8da731	0.06916655
157	0x3e71f325	0.23627909
158	0x3dfc361b	0.12315007
159	0x3e360944	0.17776972
160	0x3dbdc0c1	0.092652805
161	0x3db58d3e	0.088648304
162	0xbe136b35	-0.14396365
163	0xbdd691cc	-0.10477027
164	0x3e6d78a9	0.2319056
165	0x3d672432	0.056431003
166	0xbc1d1f31	-0.009589956
167	0xbea4df83	-0.32201776
168	0xbec52197	-0.3850219
169	0xbdf5eaea	-0.12007697
170	0xbe6ef855	-0.23336919
171	0x3ec1ae55	0.37828317
172	0xbeda079e	-0.42583936
173	0xbec07308	-0.37587762
174	0xbf02f7de	-0.51159465
175	0xbf197ea1	-0.59958845
176	0xbf0844ea	-0.53230155
177	0x3e509da1	0.2037263
178	0xbefbf020	-0.49206638
179	0xbedc02a0	-0.42970753
180	0x3f250ca2	0.644724
181	0xbe5f3056	-0.21795782
182	0x3e4b54e2	0.19856599
183	0xbee3a607	-0.44462606
184	0xbefac0c6	-0.489752
185	0xbef4e307	-0.47829458
186	0xbbc84d62	-0.0061127404
187	0xbeaccb1d	-0.33748713
188	0xbef37735	-0.47551885
189	0xbe120c1f	-0.14262436
190	0xbecbb2ea	-0.39784938
191	0x3ead862f	0.33891436
192	0x3d305832	0.04305286
193	0x3ddbb0ac	0.10727057
194	0x3df6def8	0.12054247
195	0x3d70adfb	0.05875967
196	0x3c255b77	0.010092608
197	0x3df892f2	0.121374026
198	0x3ead9576	0.33903092
199	0x3e06c681	0.1316166
200	0x3db42a85	0.087971725
201	0xbdeb48ed	-0.11488519
202	0x3e5c4113	0.21509199
203	0xbdbc3fd1	-0.091918595
204	0x3def17bd	0.116744496
205	0x3e6bdb32	0.23032835
206	0x3ea28a9a	0.3174637
207	0xbd16a57b	-0.03677891
208	0xbd50f364	-0.051013365
209	0x3c401221	0.011723072
210	0x3e971c04	0.29513562
211	0x3de7a3dd	0.11310551
212	0x3f037c5d	0.5136164
213	0x3ed14f79	0.40880945
214	0xbd67b986	-0.056573413
215	0xbe9ee2df	-0.31032464
216	0x3c385558	0.011250816
217	0xbc5b3dad	-0.013381404
218	0xbd319d7d	-0.043363083
219	0xbd934014	-0.07189956
220	0xbcc22d57	-0.02370326
221	0x3d7f7458	0.062366813
222	0x3e2c3c46	0.16819867
223	0x3e5b6473	0.21425037
224	0xbd3695bc	-0.04457639
225	0xbe7fddcc	-0.24986953
226	0xbe43c682	-0.19118693
227	0x3dada2af	0.08478295
228	0xbe4f0cea	-0.2021977
229	0x3e8e0d17	0.27744362
230	0x3c3dd0bb	0.01158541
231	0x3c4f14be	0.012639223
232	0x3cab395e	0.020901378
233	0x3dc31f93	0.09527507
234	0x3e24b5f9	0.16085042
235	0x3db0ae0f	0.08626949
236	0x3ea06961	0.31330398
237	0xbe140b34	-0.14457399
238	0x3b837202	0.0040113935
239	0xbe66b9fa	-0.22531882
240	0x3d55e46c	0.052219793
241	0x3ded4560	0.11585498
242	0x3e6e22b9	0.23255433
243	0x3d8cedff	0.06881332
244	0x3d3189e3	0.04334439
245	0xbca21473	-0.019785142
246	0x3ea00947	0.31257078
247	0x3c81fcc5	0.0158676
248	0xbd9c814c	-0.07641849
249	0xbe1bff4f	-0.15234111
250	0x3d4a46b7	0.049383845
251	0xbe30c169	-0.1726128
252	0x3dc35de8	0.095393956
253	0x3dcfd7b6	0.101485655
254	0x3e173945	0.1476794
255	0x3e0ec2fa	0.13941565

fc2.bias f4 [48]
0	0xbe22ef40	-0.15911579
1	0x3eb71ff1	0.35766557
2	0xbe13ccc6	-0.14433584
3	0x3f06dc6c	0.5268009
4	0xbe1af396	-0.15131983
5	0xbe048c62	-0.12944177
6	0xbd7ab071	-0.061203424
7	0x3efa3b86	0.48873538
8	0xbd4cfca0	-0.05004561
9	0xbd92b63c	-0.07163665
10	0xbd9254fa	-0.07145114
11	0xbd95f111	-0.073213704
12	0x3d9fc722	0.078016534
13	0xbe37a866	-0.17935333
14	0x3ad17963	0.0015981611
15	0xbe285e16	-0.16442141
16	0x3d023c1e	0.031795613
17	0x3ebad747	0.3649237
18	0xbd881ffa	-0.06646724
19	0xbd3638f6	-0.044487916
20	0xbe24087d	-0.16018863
21	0x3d050051	0.032471005
22	0xbdb7727a	-0.089573815
23	0x3e027542	0.12740043
24	0x3d011354	0.031512573
25	0x3e138106	0.14404687
26	0x3db808d9	0.089860626
27	0xbe09bded	-0.13451357
28	0x3d6cef83	0.057845604
29	0xbdeeb412	-0.116554394
30	0x3f0395f4	0.51400685
31	0x3cfac76f	0.030612675
32	0x3c8e8d05	0.017401228
33	0xbe18f0e8	-0.14935648
34	0xbe4b470b	-0.1985132
35	0x3d1f0901	0.038826946
36	0xbd2b5290	-0.041826785
37	0xbd3d58cc	-0.04622726
38	0x3d9ebd7b	0.07750984
39	0xbe37d9c6	-0.17954168
40	0xb88b5755	-6.644303e-05
41	0xbd85efec	-0.06539902
42	0x3cc9300d	0.024559045
43	0xbdb4c48c	-0.08826551
44	0x3d2856b1	0.0410983
45	0x3ef12c00	0.47103882
46	0x3e1a4d8a	0.15068641
47	0xbc88a297	-0.016679091

fc3.weight f4 [1, 48]
0	0xbe9ba120	-0.30396366
1	0x3e2ab010	0.16668725
2	0xbede55bd	-0.43424788
3	0x3ed5a732	0.41729122
4	0xbf07aea0	-0.5300083
5	0xbe10fd29	-0.14159073
6	0xbdb79b32	-0.08965148
7	0x3ede30ec	0.433967
8	0xbe4f69d6	-0.20255217
9	0xbd9b20eb	-0.07574638
10	0xbea6cfa3	-0.3258029
11	0xbe64651d	-0.22304197
12	0xbda7e3dc	-0.081977576
13	0xbe6f3ede	-0.23363826
14	0xbec4cc8b	-0.38437304
15	0xbe223742	-0.15841392
16	0xbe6384d0	-0.22218633
17	0x3eb735d8	0.35783267
18	0xbe263f60	-0.16235113
19	0xbedec350	-0.43508387
20	0xbe4acce9	-0.1980473
21	0xbdd7db77	-0.105399065
22	0xbd5c84af	-0.053837474
23	0xbdb823ac	-0.08991179
24	0xbe924f6b	-0.28576216
25	0xbe154b47	-0.14579497
26	0xbe6d7580	-0.23189354
27	0xbe81060d	-0.2519993
28	0xbdc763a3	-0.09735801
29	0xbdb6776a	-0.08909495
30	0x3ebded12	0.37094933
31	0x3daea4b1	0.08527506
32	0xbe8a540b	-0.27017245
33	0xbe98a37e	-0.29812235
34	0xbe9d36a4	-0.3070575
35	0xbe56adce	-0.20964739
36	0xbe088761	-0.13332893
37	0xbd41d30a	-0.047320403
38	0xbe670cdb	-0.22563498
39	0xbe074ae4	-0.13212162
40	0xbeaa59d0	-0.33271646
41	0xbee2358d	-0.4418148
42	0xbeb22844	-0.34796345
43	0xbeacdb26	-0.33760947
44	0xbddaf01f	-0.10690331
45	0x3ef2eec3	0.47447786
46	0xbe4f5d0d	-0.2025034
47	0xbea19365	-0.31557766

bn1.weight f4 [24]
0	0x3fa0fa1c	1.2576327
1	0x3f8b2064	1.086926
2	0x3f98b6c6	1.1930778
3	0x3f800000	1.0
4	0x3f800000	1.0
5	0x3fae5252	1.3618872
6	0x3fb6a102	1.4267886
7	0x3f800000	1.0
8	0x3f800000	1.0
9	0x3fa1d9db	1.2644609
10	0x3fa55619	1.29169
11	0x3f938ee1	1.1527978
12	0x3f800000	1.0
13	0x3fa63de4	1.2987638
14	0x3fa23abc	1.2674174
15	0x3f99b550	1.2008457
16	0x3fa0b98b	1.2556623
17	0x3f8d2761	1.1027642
18	0x3fb09412	1.3795187
19	0x3f9547b8	1.1662512
20	0x3fb65670	1.4245129
21	0x3f936365	1.1514708
22	0x3f9ae3e9	1.2100803
23	0x3fadf15e	1.3589284

bn1.bias f4 [24]
0	0xbeba68cb	-0.36408076
1	0xbdd18581	-0.10230542
2	0xbe29f319	-0.1659664
3	0x3ee7d522	0.45279795
4	0xbecf5294	-0.4049269
5	0xbeac721e	-0.33680815
6	0xbea9df6e	-0.33178276
7	0xbeeb96b5	-0.46013418
8	0xbece93cd	-0.40347138
9	0x3e1ee8d3	0.15518503
10	0xbe99144a	-0.29898292
11	0xbee973ac	-0.45596063
12	0x3eea36f3	0.45745048
13	0xbe182a16	-0.14859805
14	0x3d10a904	0.035317436
15	0xbebc8889	-0.36822918
16	0xbea43b9a	-0.32076722
17	0xbe8e73d8	-0.27822757
18	0xbd2062f7	-0.03915688
19	0xbe985d88	-0.2975886
20	0xbe76c83c	-0.24099821
21	0xbdfee445	-0.12445883
22	0xbe76d24b	-0.24103658
23	0x3df8405a	0.12121649

bn1.running_mean f4 [24]
0	0x00000004	6e-45
1	0x3e20e0e0	0.15710783
2	0x00000004	6e-45
3	0x00000000	0.0
4	0x00000000	0.0
5	0x3e88c5e9	0.26713493
6	0x00000004	6e-45
7	0x00000000	0.0
8	0x00000000	0.0
9	0x3ecc08a6	0.39850348
10	0x00000004	6e-45
11	0x00000004	6e-45
12	0x00000000	0.0
13	0x3e95ab23	0.2923213
14	0x3e089c7b	0.13340943
15	0x00000004	6e-45
16	0x00000004	6e-45
17	0x00000004	6e-45
18	0x3ccf9c5b	0.02534311
19	0x3e13d660	0.14437246
20	0x00000004	6e-45
21	0x00000004	6e-45
22	0x3d1cc84c	0.038276955
23	0x3e29695a	0.16544095

bn1.running_var f4 [24]
0	0x00000004	6e-45
1	0x3ba18500	0.004929185
2	0x00000004	6e-45
3	0x00000004	6e-45
4	0x00000004	6e-45
5	0x353f8754	7.1349973e-07
6	0x00000004	6e-45
7	0x00000004	6e-45
8	0x00000004	6e-45
9	0x378cd12b	1.6786702e-05
10	0x00000004	6e-45
11	0x00000004	6e-45
12	0x00000004	6e-45
13	0x3a190520	0.00058372505
14	0x37965079	1.7918866e-05
15	0x00000004	6e-45
16	0x00000004	6e-45
17	0x00000004	6e-45
18	0x377bdd0f	1.5012235e-05
19	0x3a338794	0.0006848511
20	0x00000004	6e-45
21	0x00000004	6e-45
22	0x3a3692b6	0.00069646107
23	0x3a0da938	0.00054039387
