financial/finance/trained_models/DDPG__baseline__CjOeCriterion/critic.pth (torch, 8318 bytes, 5 tensors)

fcs1.weight f4 [24, 8]
000000 98 65 3f be 28 e8 73 bd e1 8f 41 be 48 e7 1a bd
       -0.18691099 -0.059547573 -0.18902542 -0.037818223
000010 40 a5 5a 3b 20 86 57 bc f5 59 cd bd 4a 13 11 3e
       0.0033362657 -0.0131545365 -0.100269236 0.14167514
000020 6c 6f eb 3d 7c fe 4d bd 2a 2c a5 bd 28 69 03 3e
       0.114958614 -0.050291523 -0.08065064 0.12833083
000030 ee da 35 3e c0 63 3f be 40 a5 34 bd b0 2e 9b bc
       0.17759296 -0.18690395 -0.044102907 -0.01894316
000040 b4 5b 97 bd e8 71 32 3e 30 00 f7 bc 50 38 31 3e
       -0.07390538 0.17426264 -0.030151457 0.17306638
000050 00 44 84 3a 50 62 b5 bc da d8 f3 bd c8 00 8b bd
       0.0010091066 -0.022141606 -0.119065955 -0.067872584
000060 f8 b4 86 3d e4 ea b8 3d 80 fc ed bb 8c 2a 47 3e
       0.06577486 0.09029177 -0.0072627664 0.19449824
000070 fa ab 10 be d8 48 a0 3d 16 43 3c 3e bc 61 11 bd
       -0.14128104 0.07826394 0.18384966 -0.035493597
000080 04 f2 25 3e 00 85 5c 3b a1 86 1c be d8 58 e5 bd
       0.16205603 0.003364861 -0.15285732 -0.11198586
000090 74 9a 9b 3d b9 e8 b4 bd 57 5d c6 3c b4 2f 34 3e
       0.07597819 -0.08833451 0.02421443 0.17596322
0000a0 8c 00 8e 3d d8 7f 9c bc 48 fc 50 3d d0 da f0 bd
       0.06933698 -0.01910393 0.051021844 -0.11760485
0000b0 e1 a1 2f be 62 1f 1d be 4f 64 2f be 20 95 2b 3d
       -0.17151596 -0.15344003 -0.17128108 0.041890264
0000c0 58 db 22 3d 02 a8 b1 bd c3 74 4c be 28 75 e2 3d
       0.039759964 -0.08674623 -0.19966416 0.11057502
0000d0 0d 34 ed bd 70 95 0b bd 1a 43 2f be 1f d8 eb bd
       -0.115821935 -0.03407806 -0.17115441 -0.11515831
0000e0 64 64 ae 3d a3 c0 42 be f6 62 ee bd 02 b6 1c 3e
       0.08515242 -0.19018798 -0.11639969 0.15303805
0000f0 fe 64 d6 bd 59 c7 ad bd a1 13 9a bd 71 c5 8d 3d
       -0.104684815 -0.08485288 -0.07523275 0.069224246
000100 b1 7a 4e 3f 83 6f 83 bf e7 bf 92 bf da a1 b3 be
       0.8065596 -1.0268406 -1.1464814 -0.3508442
000110 67 22 36 3b 0c 60 76 be f6 27 9b 3d 55 f1 81 3d
       0.0027791501 -0.24060076 0.07575981 0.063448586
000120 b3 19 38 bf c2 97 40 3f 3c 98 5d 3f 23 7a 4f 3e
       -0.71914214 0.75231564 0.86560416 0.20261435
000130 78 95 08 3d b9 4b 86 3e 38 64 51 3d 09 40 37 be
       0.03334567 0.26229647 0.051120967 -0.17895521
000140 d0 2a 68 bc d6 11 50 3e 00 9f 7c 3a f8 67 26 be
       -0.014170364 0.20319304 0.000963673 -0.16250598
000150 30 e6 73 bc 98 f9 cf 3d ce 75 88 bd 88 ec da bd
       -0.014886424 0.10155028 -0.066630945 -0.10689646
000160 50 30 2c 3e c0 26 dd 3d d4 0b 0e bd 40 dc 2a 3c
       0.16815305 0.107984066 -0.03467925 0.010428488
000170 d8 da b0 bc a8 1c 42 3d e0 b6 ed 3b 73 f9 fc bd
       -0.021588728 0.04739061 0.0072544664 -0.12352266
000180 0c e8 1a 3d 40 f1 ae 3b b0 39 58 3c f8 4f 9f bd
       0.037818953 0.005338818 0.0131973475 -0.07778925
000190 d0 39 56 3d 97 06 29 be 68 ed 79 3d 58 89 e2 3d
       0.052301228 -0.1650642 0.061017424 0.110613525
0001a0 ce a4 bb 3e 34 21 80 bf e8 1f aa be 07 d9 ef be
       0.36649173 -1.0010133 -0.33227468 -0.46845266
0001b0 5e 62 67 bb 8d 36 f6 be 7c 2f 2a 3e 94 0a 60 3e
       -0.0035306434 -0.48088494 0.16619676 0.21879035
0001c0 b8 ae e7 3d 76 cd 10 3e ac ee a0 3d 90 45 eb 3d
       0.11312622 0.14140877 0.07858023 0.11487877
0001d0 c8 70 0a 3e 50 51 43 bd 50 92 d4 bc 10 0b 15 3e
       0.13519585 -0.047684968 -0.025948673 0.14555001
0001e0 8a 61 d7 3e e2 b0 8d bf 19 b0 a0 3d ed f7 34 3e
       0.42066604 -1.1069605 0.07846088 0.17672701
0001f0 f0 92 45 3e 13 b8 47 3e b6 b2 92 bd 47 19 d5 3d
       0.19294333 0.19503812 -0.07162993 0.10405212
000200 7e 73 2e bf de 5d 52 3f f6 b2 8a bc 04 76 17 3f
       -0.6814498 0.8217448 -0.016931038 0.5916445
000210 e2 91 44 be 23 38 15 3e 38 d2 cb 3c 55 b7 83 be
       -0.19196275 0.14572196 0.024880514 -0.2572581
000220 b3 20 a1 bf 7e fc c3 3f cc 9a 2f 40 37 4f 44 3f
       -1.2588104 1.531143 2.743823 0.7668337
000230 b1 d3 5d 3e ea 91 50 3e af ca d7 3d a8 c3 26 bd
       0.21662785 0.20368162 0.10536706 -0.040713936
000240 cc b4 9d bf b5 d7 2e 3f 38 23 0b 3f 8f 3c b6 be
       -1.23208 0.6829789 0.54350615 -0.35593078
000250 40 08 07 bf d4 de 46 3b 77 23 c4 3d 89 ca 97 be
       -0.52746964 0.0030345218 0.09577077 -0.2964671
000260 b0 23 ca 3d 60 73 01 be 72 05 48 3e 2e f0 14 3e
       0.09870088 -0.12641668 0.19533327 0.14544746
000270 30 9b 1c 3d 54 fc b9 3d b0 8b 91 3d 1c b0 f6 bd
       0.038233936 0.09081331 0.071067214 -0.12045309
000280 00 4d e9 ba e8 f3 5e 3d cc b7 3c bd 18 71 48 3e
       -0.0017799437 0.054431826 -0.04607372 0.19574392
000290 c0 36 a1 bd 16 ac 3a be 98 05 c7 bd bf fd 41 be
       -0.07871771 -0.18229708 -0.09717864 -0.18944453
0002a0 17 7d 71 3e b9 da 44 3f f1 27 57 bf 73 8c e5 3e
       0.23582874 0.76896244 -0.8404532 0.44833717
0002b0 a4 0e 49 be 5e f1 84 3e 0a ca 41 3e 85 4a 4c be
       -0.19634491 0.259654 0.18924728 -0.19950302
0002c0 73 27 91 3f 9f a7 11 c0 57 68 ef 3f 75 f0 56 bc
       1.1340164 -2.2758558 1.8703717 -0.013118853
0002d0 7a fe b0 bd b2 de 4e bd a6 51 e7 3d c8 38 b1 be
       -0.086422876 -0.050505348 0.1129487 -0.34613633
0002e0 4c 7a 3e 3e 3a 98 4f be 78 9b b7 bc 34 20 26 3d
       0.1860134 -0.20272914 -0.022413 0.040558055
0002f0 1f ae 35 be 40 6f cb 3d d0 52 9f bd 36 33 97 bd
       -0.17742203 0.09933329 -0.07779467 -0.073828146

fcs1.bias f4 [24]
000000 cc 5f 7f be d0 2c 81 3c a2 36 7f be eb 4b 47 be
       -0.24938887 0.015768439 -0.24923185 -0.19462554
000010 39 6e 6c be 28 73 f7 3d 5d be 57 be 8b e2 d1 bc
       -0.23088922 0.12082511 -0.21068712 -0.02562072
000020 ef b6 96 bc 73 79 5b 3e 0e d6 88 be 42 8b 78 be
       -0.018397776 0.21433048 -0.2672581 -0.24271873
000030 d0 38 52 be 02 13 5b 3e e6 23 02 be 0c 25 39 3e
       -0.20529485 0.2139397 -0.12709007 0.18080539
000040 98 23 d3 3d 7e 44 f4 3b 3d 36 b3 bc 00 23 8f bd
       0.10309523 0.007454454 -0.021876449 -0.069890976
000050 d8 b1 35 3d 66 36 eb 3b a0 59 8d bd 40 c6 38 3d
       0.04435906 0.0071781157 -0.0690186 0.04511094

fc2.weight f4 [48, 25]
000000 32 89 ea bd 20 b2 71 3d c7 16 d7 bd 30 ea fa bc
       -0.11451949 0.059007764 -0.10502391 -0.030629247
000010 13 83 2e 3d 10 b1 de 3d d0 af 05 3d b4 1a 90 bd
       0.04260547 0.10873616 0.03263837 -0.07036343
000020 d6 47 19 3c be e7 0b 3d d8 61 db 3c 10 d7 f8 3d
       0.009355506 0.034156553 0.026780054 0.12150395
000030 e0 a3 5e 3d 1e 8a 39 3e 21 33 ee bd b1 32 29 3e
       0.054355502 0.18119094 -0.11630846 0.16523243
000040 ad ef 64 be 9e 2b 54 3e a7 98 2d 3e 78 bd dd bc
       -0.22357054 0.20719764 0.16952763 -0.027067885
000050 60 e3 e9 3c 5d 1e d3 be 1f 12 52 bf dc ac 36 3d
       0.028550804 -0.41234103 -0.820589 0.044598445
000060 b5 63 09 be 38 a8 b9 3c 7c 85 f3 3d 04 52 c7 3d
       -0.13416941 0.02266322 0.118906945 0.0973244
000070 c4 24 fd 3d 6a 04 a0 3d 60 a7 43 bc b0 5c 1a 3d
       0.12360528 0.07813342 -0.011941761 0.03768605
000080 d8 09 77 bd 34 ea fa 3d 90 02 94 3d a6 5b d8 bd
       -0.060312122 0.12251702 0.07227051 -0.105643556
000090 68 98 ff 3d 40 5e 0c bb 60 3e d2 bb f6 cd 21 bd
       0.12480241 -0.0021418482 -0.006416127 -0.03950306
0000a0 f2 fb 1b bd 80 b8 ec 3b 7b 4f 90 bd 73 7c 09 be
       -0.03808207 0.0072241426 -0.0704641 -0.1342638
0000b0 5d 44 98 bd 08 4c eb bc 24 39 df 3d 50 76 d9 3d
       -0.07434914 -0.028722778 0.108995706 0.106182694
0000c0 86 1c b1 bd 20 9b b5 bb c8 a1 2a bd 73 23 9e bd
       -0.086480185 -0.005542174 -0.041658193 -0.07721605
0000d0 a0 ec cf bc 64 22 4d bd 46 3a a5 3d d7 99 92 bd
       -0.025381386 -0.050081626 0.080677554 -0.07158249
0000e0 e8 ea b5 3c 2e d0 a6 bd f3 34 8c bd 08 93 ce 3d
       0.022206739 -0.08145176 -0.06846037 0.10086638
0000f0 53 1f 91 bd d0 32 0e bc 66 28 0d 3e 2b 03 08 3d
       -0.07086053 -0.008679107 0.13784942 0.033206146
000100 36 76 96 bd c1 f7 d4 bd ba dc 6f bd 38 5c 68 bd
       -0.07346766 -0.10398818 -0.05856011 -0.05672857
000110 86 6a 81 3d a0 70 03 bd 30 4f f9 3d ec 13 a1 bd
       0.06319146 -0.03208983 0.12173307 -0.07865128
000120 c1 ac 7c bd 28 3f 57 3d 13 a6 d6 3d d4 62 0d 3e
       -0.06168819 0.052550465 0.10480895 0.13807231
000130 30 41 bd 3c 20 5c c7 3b d7 70 84 bd 9e 00 84 3d
       0.023102373 0.00608398 -0.06466835 0.0644543
000140 a1 58 ab bd 6a 65 1b bd d6 7a 05 be 79 b8 76 be
       -0.08366514 -0.037938513 -0.1303514 -0.24093808
000150 aa 4e 35 3e e0 a8 20 3c c4 a5 eb 3d 80 38 eb 3d
       0.17705789 0.009805888 0.11506227 0.11485386
000160 3d 51 30 3d f8 98 6c 3d 2b 27 bd bd ca 0b f1 3d
       0.043046225 0.05776307 -0.09235986 0.11769827
000170 c4 98 54 3e a6 ed 04 3e c0 87 88 bb e0 9d b0 3c
       0.207614 0.1298128 -0.0041665733 0.021559656
000180 ea 99 cf bc d9 f9 8e be ec 3d 09 3d 3c 25 11 bb
       -0.025341947 -0.27924994 0.03350632 -0.0022147438
000190 58 6d 8f 3d 90 1f b0 bd 32 1e 41 bd da 30 8c bd
       0.070032775 -0.0859977 -0.047147937 -0.06845255
0001a0 cc c5 bc 3d 5c 2b d0 bd 6a f0 96 3d 81 ff 64 3d
       0.09217414 -0.1016452 0.07370074 0.05590773
0001b0 e4 0f 63 3d ca f1 b5 3c d6 25 a1 3d a8 ac e9 3d
       0.055435076 0.02221002 0.07868545 0.11409885
0001c0 40 e8 e8 3c 73 7c 75 bc 6e 24 e7 bd 15 e3 b7 bd
       0.028431058 -0.014983284 -0.11286245 -0.08978859
0001d0 60 87 e2 3d 15 1d 09 be 1b cb b0 bd 79 85 12 be
       0.11060977 -0.1339 -0.08632489 -0.14308728
0001e0 d8 bf 19 bd 2f 16 b8 3e 76 10 4e 3e 1f 78 05 be
       -0.037536472 0.35954425 0.20123467 -0.13034104
0001f0 27 f6 0a 3d c2 3e 0c be cf 57 0d be b6 1e b9 bd
       0.033926155 -0.13695815 -0.13803028 -0.09039061
000200 50 2d 9c bc d4 1e 25 3d 44 cf e0 bd a0 be e3 3d
       -0.019064575 0.040312603 -0.10977033 0.11120343
000210 5c a8 05 3e c0 7f 11 3c c8 9d f0 3d fd d2 85 bd
       0.13052505 0.008880556 0.117488444 -0.065343834
000220 d4 e0 69 bd a8 95 98 bc 60 32 81 3c 76 35 ce bd
       -0.05709918 -0.01862605 0.015771091 -0.100687906
000230 5f b3 ec bd dc 8b 69 3d f0 75 2a 3d fc 96 10 3e
       -0.1155765 0.057018146 0.04161638 0.14120096
000240 e8 0a 71 bd 68 c7 50 3d 1a 93 6e bd a8 ec 91 3d
       -0.05884829 0.05097142 -0.058245756 0.07125217
000250 f0 ff 02 bc 14 22 db 3d 5c 3a a4 3d 74 0b f6 3d
       -0.007995591 0.10699859 0.08018944 0.12013903
000260 c4 e8 97 3d 40 b1 b1 3b 28 be fe 3d cc a1 ad bd
       0.074174434 0.005422741 0.12438613 -0.08478126
000270 8c 67 0b 3e 0c 6e 10 3e 4e db 04 3e 29 d9 a4 bd
       0.13613719 0.1410448 0.12974283 -0.080492325
000280 bb a0 9c bd 60 9e 15 3c b8 19 38 3d ba 74 80 3d
       -0.076478444 0.009131998 0.044946402 0.06272264
000290 08 72 70 3d ed ca e8 3d fa 1e 14 bd da c8 4f bd
       0.0587025 0.1136683 -0.036162354 -0.050728656
0002a0 30 2c 46 3d fc bf 24 3d 00 6f ac bd b0 bc 64 3c
       0.048381984 0.040222153 -0.08419609 0.013961002
0002b0 26 50 ee bd 1a 71 2d bd 2e e8 a3 bd 7c 8f 01 3e
       -0.11636381 -0.04234419 -0.08003269 0.12652391
0002c0 13 0c 05 be 17 88 ae bd a5 a4 10 be 00 1b 15 3d
       -0.12992887 -0.08522051 -0.14125307 0.036402702
0002d0 ca 85 e3 bd 88 47 3f 3d 50 54 cd bd 9c 5b bd bd
       -0.111095026 0.046699077 -0.10025847 -0.09245989
0002e0 3b 04 97 bd 90 71 b1 3c e6 cf 07 3e 98 72 0a 3e
       -0.07373854 0.021660596 0.132629 0.13520277
0002f0 80 a9 32 bc 72 c5 10 be e8 51 43 bd bc 50 61 bd
       -0.01090467 -0.1413782 -0.047685534 -0.055008635
000300 88 7e fb bc b0 e4 61 3d 08 c2 94 3d 24 10 83 3d
       -0.030699983 0.055149734 0.07263571 0.06399563
000310 94 e3 28 3d 44 56 6f bd 00 b1 c8 ba 98 7b 96 3c
       0.04123266 -0.05843188 -0.0015311539 0.018369481
000320 c8 fd 96 bd 70 8c 53 bc 70 99 93 bc 18 a5 0b be
       -0.07372624 -0.012911901 -0.0180175 -0.13637197
000330 6c 65 c8 3d 00 17 6f bc 85 89 ff bd a0 df e9 3d
       0.0978497 -0.014592886 -0.12477402 0.11419606
000340 75 0e 9f bd 2c 50 51 3d a8 93 12 3e a0 f2 da 3b
       -0.07766429 0.05110185 0.14314139 0.006681755
000350 a0 17 2a 3d 44 e7 6a 3d 14 6a df 3d 4a 65 35 bd
       0.041526437 0.05734946 0.10908905 -0.04428605
000360 74 57 a6 bd 60 10 39 bc 48 2d e7 3d 10 55 4b 3c
       -0.08122149 -0.011295408 0.112879336 0.012410417
000370 78 63 cd 3d 00 a8 8c ba e4 64 35 3d 00 76 a4 3b
       0.10028738 -0.001073122 0.04428567 0.0050189495
000380 20 64 80 3b a5 a6 0c be 99 36 01 be a0 96 44 3c
       0.003918186 -0.13735445 -0.12618484 0.011998802
000390 d6 4d 92 3d cb 8e cf 3d 40 37 cd 3b d8 34 79 3d
       0.07143752 0.101346575 0.00626269 0.06084141
0003a0 a1 4f 6e 3d a4 e0 f7 bd 03 95 05 be e3 31 e5 bd
       0.05818141 -0.12103394 -0.13045125 -0.11191156
0003b0 80 a1 22 3b 34 ea ba bd 1d 0c 3e bd dc e7 b0 bc
       0.00248155 -0.09126702 -0.04639827 -0.021594934
0003c0 09 58 66 3d 9f c7 ee 3c 11 76 07 3e 96 1b 00 3e
       0.0562363 0.029147921 0.13228633 0.12510523
0003d0 07 95 bc bd 00 66 ee b9 c8 69 88 3c 60 53 00 3e
       -0.09208112 -0.00045470893 0.016652003 0.12531805
0003e0 36 3a 37 bd eb 7b 79 bd 74 40 bb bd 90 d1 d9 3d
       -0.04473325 -0.060909193 -0.09143153 0.10635674
0003f0 4e 7e 27 bd fa 6b 5d bd f7 f8 9f 3d 70 00 08 3e
       -0.040891938 -0.054058053 0.07811158 0.13281417

fc2.bias f4 [48]
000000 4f 2b 12 3e a0 9f 4c be df ff 04 be 67 f2 9e 3d
       0.14274333 -0.19982767 -0.12988232 0.07761078
000010 90 30 2d bd 6e c8 20 be 2e 4b cb bd 2d 4e bf bd
       -0.04228264 -0.15701458 -0.09926449 -0.09341083
000020 78 e8 4a be 94 43 8a 3c 99 8b 1a 3e 7d b5 90 3c
       -0.19815242 0.016877927 0.15092315 0.017664665
000030 4d 9d c2 bd 8b 0f 3c be 5a 3a 25 be 28 1e 5c 3c
       -0.09502659 -0.18365304 -0.1613554 0.013434924
000040 68 a1 10 3e 73 e0 a5 bd bd e1 de bd f7 80 da bd
       0.14124072 -0.08099451 -0.108829 -0.10669129
000050 90 d5 8d bc 42 7d 42 be 82 b9 34 be 67 02 3a 3e
       -0.017313749 -0.18993095 -0.1764889 0.18164979
000060 47 58 c3 bd cc a1 87 bd ea 5e 95 bd 07 eb 33 be
       -0.09538322 -0.06622657 -0.07293494 -0.17570125
000070 58 6b 10 bd 5a 9c 36 3c 3a 52 a6 bd 80 07 60 bc
       -0.03525862 0.011145676 -0.08121152 -0.013673663
000080 1f c5 bb bb 20 e1 4b be 5b b8 12 3e bb 03 13 3e
       -0.005730286 -0.19910097 0.14328139 0.14356892
000090 4a c2 17 3e d4 a3 87 bd 62 4e d1 3d b8 e1 3f be
       0.14820209 -0.066230446 0.102200285 -0.18738449
0000a0 c0 a8 4a bd c8 9c 26 bd 77 b1 9a bd 66 3e ab 3d
       -0.04947734 -0.040676862 -0.0755338 0.08361511
0000b0 30 a3 ba bd 98 e5 bd bc f8 8b 6c bd 83 4f 44 be
       -0.09113157 -0.023180768 -0.057750672 -0.19170956

fc3.weight f4 [1, 48]
000000 d5 da 09 3e e4 6c 22 3a d3 87 28 bc 52 aa dc 3d
       0.13462384 0.00061960355 -0.010286289 0.107746735
000010 1d 44 17 bb f0 e2 46 39 1c c2 97 3b 90 43 f0 3a
       -0.002308137 0.00018967292 0.004631294 0.0018330682
000020 9c 64 35 bb a7 de 50 bc b6 76 77 3c eb 02 72 ba
       -0.0027678376 -0.012748397 0.0151039865 -0.0009232002
000030 28 a3 31 3b be 27 12 bb c8 6d 1a ba 47 cc 60 3d
       0.0027105305 -0.002230152 -0.00058909925 0.054882314
000040 93 c4 f5 bd d0 36 2f 3b e2 77 ad ba f0 94 d2 b9
       -0.12000384 0.0026735552 -0.001323458 -0.00040165288
000050 0e 85 00 bb a7 6c b6 ba f0 db 3f 3b f6 3b 2c 3b
       -0.0019610557 -0.0013917879 0.002927538 0.0026280857
000060 30 9f 67 39 f6 28 f7 bd b0 59 0e 3c c2 6d 14 3b
       0.00022089179 -0.120683596 0.008688375 0.0022648429
000070 28 d1 eb b9 f7 fe 02 b8 0f 77 1c bb 79 e5 b5 bd
       -0.00044978526 -3.123187e-05 -0.0023874675 -0.08881659
000080 b5 8e 31 3e 68 d8 ec 3a a2 f5 65 3d 17 7d 75 3c
       0.17339595 0.0018069865 0.056142457 0.014983437
000090 99 6d 5d 3d 5f ca 46 3d 6e 35 d5 3c 04 d4 43 ba
       0.0540596 0.04853284 0.026026454 -0.00074702525
0000a0 8b 90 b9 ba da 66 21 3b fb 24 bb 3c 3a 00 2a 3d
       -0.0014157457 0.0024627955 0.022844782 0.041504122
0000b0 80 74 8c 39 74 f3 2a ba 90 81 86 b9 1f 75 da 3a
       0.0002678968 -0.00065212627 -0.00025655003 0.0016666985
