financial/finance/trained_models/SAC__volatility__CjOeCriterion/actor.pth (torch, 8808 bytes, 6 tensors)

fc1.weight f4 [24, 8]
-0.059547573 -0.18902542 -0.035160825 0.0020037098 -0.0045603444 -0.10263657 0.1389845 0.11225297
-0.72843045 0.37655088 1.7336545 2.0316982 2.0190587 1.7316102 -0.52801603 0.06947514
0.17426264 -0.030151457 0.17306638 0.0010091066 -0.022141606 -0.119065955 -0.067872584 0.06577486
0.09029177 -0.0072627664 0.19449824 -0.14128104 0.07826394 0.18384966 -0.035493597 0.16205603
0.00424725 -0.145061 -0.11815998 0.07415633 -0.09656627 0.05331848 0.17919633 0.047305983
0.25244603 0.28594443 0.23792566 0.16643427 0.1804252 0.12171954 -0.38971424 -0.17172906
-0.08674623 -0.19966416 0.11057502 -0.115821935 -0.03407806 -0.17115441 -0.11515831 0.08515242
-0.015011877 -0.39227036 -0.0843711 -0.24955268 -0.14270882 -0.12613255 0.08453825 -0.21624978
0.3314848 0.28576836 0.25158468 0.28033164 0.16605969 0.22810194 -0.34309813 -0.18779388
-0.1841016 0.872256 2.6006207 2.8280544 3.020651 2.604751 -0.71850324 0.0215513
0.20319304 0.000963673 -0.16250598 -0.014886424 0.10155028 -0.066630945 -0.10689646 0.16815305
0.107984066 -0.03467925 0.010428488 -0.021588728 0.04739061 0.0072544664 -0.12352266 0.037818953
0.005338818 0.0131973475 -0.07778925 0.052301228 -0.1650642 0.061017424 0.110613525 -0.022464514
-0.4090581 -0.13726518 -0.21903068 -0.32920247 -0.29072103 0.018141776 -0.07612146 -0.19348846
-0.48388436 -0.047863945 0.0838384 0.24910067 0.17437597 0.19717015 0.32706586 -0.054657668
-0.16364107 -0.31013948 -0.105562344 -0.162008 -0.20593318 -0.3465582 -0.40782285 -0.68960875
0.008949821 -0.005095037 0.23404188 0.2048146 0.17435768 0.119856924 -0.48896247 -0.41188902
0.3385663 0.2088281 0.10638978 0.15526599 0.26901385 0.23272021 -0.35672036 -0.23512205
0.4249198 0.23808753 0.15662396 0.15719184 0.16025473 0.10238951 -0.34356344 -0.058319762
-0.12641668 0.19533327 0.14544746 0.038233936 0.09081331 0.071067214 -0.12045309 -0.0017799437
0.35078064 0.1792164 0.30755505 0.19748732 0.13829997 0.08810046 -0.5447761 -0.1639168
-0.09160876 -0.14362778 -0.022113739 -0.13754393 -0.10661442 0.10406184 -0.15359849 0.088240534
-0.23897757 0.0054170876 0.11306877 0.06915376 0.31089938 0.39310542 0.119084544 0.08125069
0.29336324 0.14133357 0.09344682 -0.015736725 0.14874005 0.043422483 -0.3622528 -0.24531655
00000000: 28e8 73bd e18f 41be cc04 10bd ac50 033b
00000010: f16e 95bb 1f33 d2bd f451 0e3e e3e4 e53d
00000020: 6b7a 3abf 47cb c03e 64e8 dd3f 5807 0240
00000030: 4238 0140 67a5 dd3f 0f2c 07bf fb48 8e3d
00000040: e871 323e 3000 f7bc 5038 313e 0044 843a
00000050: 5062 b5bc dad8 f3bd c800 8bbd f8b4 863d
00000060: e4ea b83d 80fc edbb 8c2a 473e faab 10be
00000070: d848 a03d 1643 3c3e bc61 11bd 04f2 253e
00000080: 842c 8b3b df8a 14be dcfd f1bd 46df 973d
00000090: 89c4 c5bd 7a64 5a3d 3e7f 373e ebc3 413d
000000a0: 9b40 813e 4f67 923e c9a2 733e bf6d 2a3e
000000b0: 62c1 383e 1848 f93d a088 c7be bed9 2fbe
000000c0: 02a8 b1bd c374 4cbe 2875 e23d 0d34 edbd
000000d0: 7095 0bbd 1a43 2fbe 1fd8 ebbd 6464 ae3d
000000e0: 60f4 75bc a9d7 c8be c1ca acbd bd8a 7fbe
000000f0: 4322 12be e428 01be 6422 ad3d 9570 5dbe
00000100: 60b8 a93e 3b50 923e b5cf 803e a187 8f3e
00000110: 8d0b 2a3e 8e93 693e 8faa afbe 0a4d 40be
00000120: 2185 3cbe 2b4c 5f3f 9270 2640 d8fe 3440
00000130: 5952 4140 3eb4 2640 d4ef 37bf 5a8c b03c
00000140: d611 503e 009f 7c3a f867 26be 30e6 73bc
00000150: 98f9 cf3d ce75 88bd 88ec dabd 5030 2c3e
00000160: c026 dd3d d40b 0ebd 40dc 2a3c d8da b0bc
00000170: a81c 423d e0b6 ed3b 73f9 fcbd 0ce8 1a3d
00000180: 40f1 ae3b b039 583c f84f 9fbd d039 563d
00000190: 9706 29be 68ed 793d 5889 e23d 8007 b8bc
000001a0: 1070 d1be 3e8f 0cbe 9449 60be 3a8d a8be
000001b0: 63d9 94be 109e 943c 91e5 9bbd d721 46be
000001c0: b1bf f7be fc0c 44bd 78b3 ab3d 3f14 7f3e
000001d0: 9d8f 323e f9e6 493e 2d75 a73e b8e0 5fbd
000001e0: 8691 27be 9aca 9ebe 1231 d8bd 6de5 25be
000001f0: 26e0 52be 1470 b1be 28ce d0be 338a 30bf
00000200: 45a2 123c 45f4 a6bb ada8 6f3e ebba 513e
00000210: d28a 323e 8c77 f53d 4a59 fabe 1ee3 d2be
00000220: 9058 ad3e 09d7 553e e3e2 d93d 0cfe 1e3e
00000230: 2fbc 893e 354e 6e3e 0da4 b6be d6c3 70be
00000240: 178f d93e 38cd 733e 0862 203e e6f6 203e
00000250: d119 243e 97b1 d13d 8ce7 afbe b4e0 6ebd
00000260: 6073 01be 7205 483e 2ef0 143e 309b 1c3d
00000270: 54fc b93d b08b 913d 1cb0 f6bd 004d e9ba
00000280: 8599 b33e 8184 373e db77 9d3e 1e3a 4a3e
00000290: 829e 0d3e 046e b43d 7276 0bbf ced9 27be
000002a0: 609d bbbd 2913 13be df27 b5bc 51d8 0cbe
000002b0: a958 dabd 601e d53d ec48 1dbe 74b7 b43d
000002c0: 89b6 74be d381 b13b 9990 e73d 7da0 8d3d
000002d0: 342e 9f3e 1d45 c93e 99e2 f33d c366 a63d
000002e0: b533 963e bfb9 103e 0c61 bf3d 4eea 80bc
000002f0: 504f 183e c6db 313d 3379 b9be 4334 7bbe

fc1.bias f4 [24]
-0.25210685 0.56681967 -0.24923185 -0.19462554 -0.22835991 0.00039295683 -0.21068712 -0.030605476
-0.00085553085 0.15194635 -0.2672581 -0.24271873 -0.20529485 -0.010860084 -0.27268308 0.011351144
0.013798852 -0.001327229 -0.008695009 -0.069890976 -0.002948481 -0.08898257 -0.21573429 0.0028245777
00000000: 2614 81be 181b 113f a236 7fbe eb4b 47be
00000010: 2ed7 69be c605 ce39 5dbe 57be 56b8 fabc
00000020: b445 60ba d397 1b3e 0ed6 88be 428b 78be
00000030: d038 52be 7eee 31bc 1e9d 8bbe 26fa 393c
00000040: 9514 623c 6af6 adba 8375 0ebc 0023 8fbd
00000050: 4d3b 41bb 7e3c b6bd 73e9 5cbe 8d1c 393b

fc2.weight f4 [48, 24]
0.059007764 -0.10502391 -0.030629247 0.06411928 0.10873616 0.03263837 -0.053844072 -0.06278184
0.081014186 0.026780054 0.12150395 0.054355502 0.11627576 -0.11630846 0.11603701 -0.0663165
-0.038636938 0.0008639097 -0.027067885 0.028550804 0.12861875 -0.08623956 0.044598445 -0.11600472
0.020951161 0.66913265 0.0973244 0.12360528 0.06947514 -0.6892358 0.03768605 -0.007272047
-0.54047287 -1.8670075 -0.105643556 0.12480241 -0.0021418482 -0.30326638 -0.27996337 -0.18971555
-0.62513167 -0.7306568 -1.0612434 -0.07434914 -0.9785023 0.108876556 -0.20424755 -0.5255187
-0.005542174 -0.041658193 -0.07721605 -0.025381386 -0.050081626 0.080677554 -0.07158249 0.022206739
-0.08145176 -0.045048483 0.11362597 -0.07086053 -0.008679107 0.13784942 0.04940203 -0.07346766
-0.08666071 -0.050615452 -0.045199193 0.06284268 -0.03208983 0.12173307 -0.079195365 -0.045134895
0.050320037 0.6120786 0.13807231 0.023102373 -0.0032805707 -0.7334435 0.08155343 -0.10870267
-0.7121591 -2.39167 -0.13875793 0.08067775 0.009805888 0.07749554 -0.10139048 0.13883404
-0.705913 -0.72911626 -0.8648582 0.069407284 -0.9779742 -0.004315473 -0.23823893 -0.50658596
-0.104749456 0.03350632 -0.10610908 0.070032775 -0.0859977 -0.047147937 -0.06845255 0.113927245
-0.1016452 0.07370074 0.07238966 0.1020574 0.036164373 0.07868545 0.11409885 0.028431058
0.049077317 -0.11286245 -0.038715646 0.013087362 0.017487705 -0.050994627 -0.14308728 -0.037536472
0.055258334 0.104646586 -0.13034104 0.06891173 -0.13695815 -0.87613446 -0.09039061 -0.019064594
-0.7312195 -0.9042508 0.11120343 0.13052505 0.008880556 0.013702873 -0.34298223 0.23612045
-0.8778169 -0.7039598 -1.1126577 -0.1155765 -1.1372477 0.04161638 -0.13886474 -0.77046585
0.047175765 -0.09609664 0.07125217 -0.007995591 0.095555685 0.2282627 0.12013903 0.07382688
0.13011171 0.054961834 -0.08478126 0.13613719 0.1410448 0.038435206 -0.14314882 -0.24383679
0.026398068 0.28482884 0.2161306 0.0587025 0.39954332 -0.036162354 0.06962261 0.25565556
0.040222153 -0.19297305 0.013961002 -0.109588265 -0.04234419 0.053483423 0.12652391 -0.16422747
0.017386599 -0.2427019 0.036402702 -0.111095026 0.046699077 -0.09991417 -0.07037528 -0.11415934
0.09606718 0.19043794 0.14261538 -0.01090467 -0.061122518 -0.04769738 -0.029905777 0.12168066
0.055149734 0.30475 0.06399563 0.04123266 -0.05843188 0.022506306 0.018369481 -0.12909774
0.008268216 0.94913024 -0.13637197 0.0978497 -0.014592886 -0.2876535 0.11020341 -0.16359527
0.08575054 0.17465489 0.091811135 0.041526437 0.083351895 0.10893244 -0.041855324 0.09471711
-0.01820832 0.10394109 0.012410417 0.10028738 -0.01634386 -0.5857418 0.0050189495 0.003989975
-0.8375273 -0.8693766 0.011998802 0.07143752 0.09695913 -0.15783939 -0.21068476 0.30477184
-0.8709782 -0.76529604 -1.00898 0.00248155 -1.1595312 -0.046189904 -0.35640877 -0.6098706
0.03346595 0.23440556 0.13019115 -0.09208112 -0.00045470893 0.061498135 0.12600648 0.00039364962
-0.01079616 0.49588588 0.10635674 -0.040891938 -0.054058053 0.33859718 0.56537455 -0.19650437
00000000: 20b2 713d c716 d7bd 30ea fabc f850 833d
00000010: 10b1 de3d d0af 053d 9a8b 5cbd c493 80bd
00000020: c4ea a53d d861 db3c 10d7 f83d e0a3 5e3d
00000030: fc21 ee3d 2133 eebd d0a4 ed3d f2d0 87bd
00000040: c441 1ebd 0078 623a 78bd ddbc 60e3 e93c
00000050: a2b4 033e 5e9e b0bd dcac 363d e293 edbd
00000060: c5a1 ab3c 474c 2b3f 0452 c73d c424 fd3d
00000070: fb48 8e3d c271 30bf b05c 1a3d 5a4a eebb
00000080: 6e5c 0abf 1afa eebf a65b d8bd 6898 ff3d
00000090: 405e 0cbb bb45 9bbe 5c57 8fbe cb44 42be
000000a0: a108 20bf 530c 3bbf d3d6 87bf 5d44 98bd
000000b0: 207f 7abf acfa de3d 4526 51be 6588 06bf
000000c0: 209b b5bb c8a1 2abd 7323 9ebd a0ec cfbc
000000d0: 6422 4dbd 463a a53d d799 92bd e8ea b53c
000000e0: 2ed0 a6bd c284 38bd bcb4 e83d 531f 91bd
000000f0: d032 0ebc 6628 0d3e c859 4a3d 3676 96bd
00000100: 2c7b b1bd 2652 4fbd ca22 39bd aab3 803d
00000110: a070 03bd 304f f93d 2e31 a2bd 5edf 38bd
00000120: 621c 4e3d 2fb1 1c3f d462 0d3e 3041 bd3c
00000130: d8fe 56bb f4c2 3bbf 7c05 a73d 819f debd
00000140: 0f50 36bf 1f11 19c0 8f16 0ebe 603a a53d
00000150: e0a8 203c fbb5 9e3d d0a5 cfbd 832a 0e3e
00000160: b7b6 34bf 5da7 3abf 5967 5dbf 6825 8e3d
00000170: 845c 7abf d068 8dbb e8f4 73be 9eaf 01bf
00000180: e286 d6bd ec3d 093d b84f d9bd 586d 8f3d
00000190: 901f b0bd 321e 41bd da30 8cbd b052 e93d
000001a0: 5c2b d0bd 6af0 963d 0841 943d 7803 d13d
000001b0: 1821 143d d625 a13d a8ac e93d 40e8 e83c
000001c0: 4c05 493d 6e24 e7bd 4c94 1ebd 606c 563c
000001d0: 6042 8f3c bedf 50bd 7985 12be d8bf 19bd
000001e0: 9056 623d f350 d63d 1f78 05be 9821 8d3d
000001f0: c23e 0cbe 594a 60bf b61e b9bd 5a2d 9cbc
00000200: 3331 3bbf fb7c 67bf a0be e33d 5ca8 053e
00000210: c07f 113c 0482 603c 5e9b afbe 8fc9 713e
00000220: 9cb8 60bf b636 34bf 916b 8ebf 5fb3 ecbd
00000230: 5591 91bf f075 2a3d 8f32 0ebe 403d 45bf
00000240: 603b 413d 51ce c4bd a8ec 913d f0ff 02bc
00000250: b3b2 c33d b2bd 693e 740b f63d 8c32 973d
00000260: 013c 053e a91f 613d cca1 adbd 8c67 0b3e
00000270: 0c6e 103e 3c6e 1d3d 9b95 12be 5ab0 79be
00000280: c340 d83c 16d5 913e 5751 5d3e 0872 703d
00000290: f190 cc3e fa1e 14bd 4d96 8e3d 49e5 823e
000002a0: fcbf 243d ba9a 45be b0bc 643c d06f e0bd
000002b0: 1a71 2dbd 6f11 5b3d 7c8f 013e 3f2b 28be
000002c0: 576e 8e3c d986 78be 001b 153d ca85 e3bd
000002d0: 8847 3f3d cd9f ccbd ea20 90bd 5fcc e9bd
000002e0: dfbe c43d 2a02 433e c409 123e 80a9 32bc
000002f0: 9b5b 7abd 545e 43bd f6fc f4bc b633 f93d
00000300: b0e4 613d 3108 9c3e 2410 833d 94e3 283d
00000310: 4456 6fbd 255f b83c 987b 963c 3332 04be
00000320: 6977 073c 33fa 723f 18a5 0bbe 6c65 c83d
00000330: 0017 6fbc 5247 93be 53b2 e13d 8585 27be
00000340: fb9d af3d bbd8 323e 7a07 bc3d a017 2a3d
00000350: 66b4 aa3d f917 df3d 7d70 2bbd 0bfb c13d
00000360: 9d29 95bc 11df d43d 1055 4b3c 7863 cd3d
00000370: 8fe3 85bc 2df3 15bf 0076 a43b 56be 823b
00000380: 3068 56bf 778f 5ebf a096 443c d64d 923d
00000390: 8292 c63d a6a0 21be bfbd 57be 0e0b 9c3e
000003a0: 6df8 5ebf 71ea 43bf 4226 81bf 80a1 223b
000003b0: 856b 94bf a031 3dbd 367b b6be 7b20 1cbf
000003c0: 9813 093d 0308 703e d450 053e 0795 bcbd
000003d0: 0066 eeb9 78e5 7b3d d807 013e c262 ce39
000003e0: 61e2 30bc c1e4 fd3e 90d1 d93d 4e7e 27bd
000003f0: fa6b 5dbd 9c5c ad3e 63bc 103f 7138 49be

fc2.bias f4 [48]
-0.16133076 0.12701757 -0.11639886 0.195826 -0.19445755 -0.071042 -0.05932137 -0.0010575756
0.2508582 -0.083577 -0.02290386 0.051031098 0.34112388 -0.13207895 -0.081407435 -0.07791889
0.3840155 0.13008733 -0.08633838 -0.07075609 -0.1261214 0.1356022 -0.027581183 0.37591133
0.0717273 0.13116138 0.12805732 -0.1326485 -0.04746774 -0.061826188 0.04770303 0.33797884
-0.0012337572 -0.14117405 -0.18243098 0.0527126 -0.12515014 0.05843103 0.13190408 0.09681851
-0.045394443 -0.11242374 0.21729484 -0.04718342 -0.018763613 0.43261012 0.1868682 -0.049845506
00000000: e433 25be e510 023e 8762 eebd 9c86 483e
00000010: e11f 47be 787e 91bd f7fa 72bd 599e 8aba
00000020: 7c70 803e 6b2a abbd e0a0 bbbc fc05 513d
00000030: caa7 ae3e b43f 07be f1b8 a6bd f093 9fbd
00000040: ae9d c43e 9d35 053e 2dd2 b0bd 92e8 90bd
00000050: f825 01be 4edb 0a3e eff1 e1bc 7377 c03e
00000060: c3e5 923d 2b4f 063e 7521 033e 02d5 07be
00000070: 886d 42bd 753d 7dbd 4164 433d 900b ad3e
00000080: 06b6 a1ba ee8f 10be 30cf 3abe 2be9 573d
00000090: 5c27 00be 6055 6f3d dd11 073e c848 c63d
000000a0: 86ef 39bd 6b3e e6bd 8a82 5e3e 6743 41bd
000000b0: 26b6 99bc 137f dd3e 615a 3f3e cd2a 4cbd

fc_mean.weight f4 [1, 48]
0.0012953724 0.6522062 0.00019313837 0.45059872 -0.0011357624 0.4905675 0.018784272 -0.00046509827
-0.6019068 0.64417636 -0.27852106 0.7070273 -0.48452386 -0.0018178544 -1.4187722 0.0005148505
-0.7603775 0.6006489 0.5311087 -0.0004997442 0.0012375796 0.6440243 0.014652748 -0.56107473
0.69861573 -0.9410832 -0.991154 0.002998902 0.4838116 0.01572914 0.67367226 -0.59436613
0.024163406 0.0016993484 -0.00046796142 0.8257492 -0.78817755 0.16534366 0.69392025 0.35761845
0.6025993 0.00089221285 0.963524 0.013439392 -0.26802886 -0.6134255 0.4808445 0.46270072
00000000: 7cc9 a93a fcf6 263f 3085 4a39 e0b4 e63e
00000010: dddd 94ba aa2b fb3e 79e1 993c 6fd8 f3b9
00000020: 9016 1abf bee8 243f 509a 8ebe beff 343f
00000030: 8313 f8be 1245 eeba 549a b5bf 08f7 063a
00000040: 1aa8 42bf 20c4 193f bdf6 073f 4401 03ba
00000050: 4836 a23a c7de 243f 1412 703c 98a2 0fbf
00000060: 7bd8 323f d4ea 70bf 45bc 7dbf 3a89 443b
00000070: 27b6 f73e 66da 803c c975 2c3f 6128 18bf
00000080: 56f2 c53c acbc de3a b858 f5b9 4d64 533f
00000090: 01c6 49bf d94f 293e c2a4 313f c419 b73e
000000a0: f343 1a3f 64e3 693a 82a9 763f e530 5c3c
000000b0: 143b 89be 7409 1dbf 4031 f63e 1ce7 ec3e

fc_log_std.weight f4 [1, 48]
0.00061960355 0.16379052 0.00010248972 -0.11352957 0.00018967292 -0.10777138 -0.10302181 -0.0058132196
-0.52694756 -0.05601472 -0.87984854 0.22828075 -0.15793878 -0.00058909925 0.5090327 -0.0009513083
0.24712452 0.26296002 0.00817775 -0.0019610557 -0.0013917879 0.39044276 -0.08132634 -0.20034584
0.48259118 0.6580908 0.6182089 -0.00044978526 0.08489177 -0.021648262 0.5658418 -0.42456102
0.007446849 0.00031063636 -0.0020357112 0.566321 1.1832061 0.076861024 0.33534282 0.34810016
-0.038281586 0.00100565 0.16666777 -0.020375649 -0.10170798 -0.23935476 -0.030795451 -0.1648469
00000000: e46c 223a b4b8 273e c0ef d638 3182 e8bd
00000010: f0e2 4639 3eb7 dcbd 19fd d2bd d27c bebb
00000020: 09e6 06bf b16f 65bd c13d 61bf 6ec2 693e
00000030: b4ba 21be c86d 1aba f84f 023f 3861 79ba
00000040: 360e 7d3e b2a2 863e f8fb 053c 0e85 00bb
00000050: a76c b6ba 1de8 c73e 6d8e a6bd 7627 4dbe
00000060: 3116 f73e a378 283f f042 1e3f 28d1 ebb9
00000070: bcdb ad3d b257 b1bc 02db 103f 1060 d9be
00000080: b204 f43b e8dc a239 9169 05bb 6afa 103f
00000090: 4c73 973f 5069 9d3d 0eb2 ab3e 2f3a b23e
000000a0: 27cd 1cbd 04d0 833a f5aa 2a3e d5ea a6bc
000000b0: 464c d0bd 6a19 75be be46 fcbc a0cd 28be
