financial/finance/trained_models/DDPG__volatility__ExponentialUtility/actor.pth (torch, 8116 bytes, 5 tensors)

fc1.weight f4 [24, 8]
000000 63 24 31 be b8 c3 f3 3d 24 6e df 3d aa cf 43 3e
       -0.17299037 0.11902565 0.109096795 0.19122186
000010 90 61 8c bd 90 11 2a 3c 60 c8 23 3d 98 a6 50 3e
       -0.06854546 0.010380164 0.039986014 0.2037605
000020 80 b6 f1 3d 16 2b fb bd 55 b6 32 be 11 e3 cd bd
       0.11802387 -0.12264077 -0.17452367 -0.10053075
000030 ab ac 9e bd 76 01 23 3e a3 e7 59 3f ab 48 26 3f
       -0.077477776 0.15918526 0.85119075 0.6495463
000040 ac ee 1a 3e 00 f1 41 3b 22 8c 01 be 78 1c 4c 3e
       0.15130109 0.002959311 -0.12651113 0.19932735
000050 1e ac 27 3e 7c fd b4 3d 08 5d e4 bd 02 aa 24 3e
       0.16374251 0.08837411 -0.11150557 0.16080478
000060 08 32 98 3c 94 36 0a 3e 88 7a ae 3d 70 fc dd 3d
       0.018578544 0.13497382 0.08519465 0.10839164
000070 ac 69 37 be 7c cc e7 bd 74 bb fa 3d 24 30 2e bd
       -0.17911404 -0.11318299 0.12242785 -0.04252638
000080 8c d8 35 be e2 15 3e 3e c0 a5 90 bb 98 9d 28 3e
       -0.17758387 0.18563035 -0.00441429 0.16466367
000090 41 60 23 be 44 ee 8f 3d 06 77 9d bd 98 eb af bd
       -0.15954687 0.070278674 -0.076887175 -0.08589858
0000a0 3d d0 27 bc 0c 03 17 3d 2b 98 be ba dc 4e 82 bd
       -0.010242519 0.03686814 -0.0014541199 -0.063626975
0000b0 42 a7 0c 3d 79 9a 55 bc 99 f4 22 bf 84 40 02 bf
       0.034339197 -0.013037317 -0.63654476 -0.50879693
0000c0 98 65 3f be 28 e8 73 bd e1 8f 41 be 48 e7 1a bd
       -0.18691099 -0.059547573 -0.18902542 -0.037818223
0000d0 40 a5 5a 3b 20 86 57 bc f5 59 cd bd 4a 13 11 3e
       0.0033362657 -0.0131545365 -0.100269236 0.14167514
0000e0 6c 6f eb 3d 7c fe 4d bd 2a 2c a5 bd 28 69 03 3e
       0.114958614 -0.050291523 -0.08065064 0.12833083
0000f0 ee da 35 3e c0 63 3f be 40 a5 34 bd b0 2e 9b bc
       0.17759296 -0.18690395 -0.044102907 -0.01894316
000100 40 6e fe 3b 5d 56 0c 3d 45 f4 76 3b b4 94 12 3d
       0.0077646077 0.03426205 0.0037682217 0.035786346
000110 aa 01 eb 3c 14 d2 87 bc fe 22 fe be f2 bd b1 be
       0.028687317 -0.016579665 -0.49636072 -0.3471523
000120 ed 76 f2 bd d7 7c 06 3e 31 95 f6 3d 18 c3 17 bd
       -0.118390895 0.1313356 0.12040175 -0.03705129
000130 cd 7d 09 be e7 86 e1 bb a5 c4 63 3e ad 13 a2 3e
       -0.13426895 -0.0068825367 0.22242983 0.31655636
000140 04 f2 25 3e 00 85 5c 3b a1 86 1c be d8 58 e5 bd
       0.16205603 0.003364861 -0.15285732 -0.11198586
000150 74 9a 9b 3d b9 e8 b4 bd e8 16 49 3d 6c bb 4d 3e
       0.07597819 -0.08833451 0.04909411 0.20091027
000160 8c 00 8e 3d d8 7f 9c bc 48 fc 50 3d d0 da f0 bd
       0.06933698 -0.01910393 0.051021844 -0.11760485
000170 e1 a1 2f be 62 1f 1d be 4f 64 2f be 20 95 2b 3d
       -0.17151596 -0.15344003 -0.17128108 0.041890264
000180 58 db 22 3d 02 a8 b1 bd c3 74 4c be 28 75 e2 3d
       0.039759964 -0.08674623 -0.19966416 0.11057502
000190 0d 34 ed bd 70 95 0b bd 1a 43 2f be 1f d8 eb bd
       -0.115821935 -0.03407806 -0.17115441 -0.11515831
0001a0 b3 c2 f5 3c 5f 0c 6a be 7c c4 96 bd c2 87 0d 3d
       0.030000066 -0.22856282 -0.07361695 0.034553297
0001b0 bc a6 24 be 60 6c b4 3c 5a 35 17 bd c8 81 80 3f
       -0.16079229 0.022024333 -0.036916114 1.0039606
0001c0 2f 39 b9 bc 00 b0 b1 3c 37 29 c5 3d 5f 3c 0c 3e
       -0.022610275 0.021690369 0.09627002 0.13694905
0001d0 84 47 88 3d fb 8d a5 bd d6 7e 55 3f c6 8d 0d 3f
       0.066542655 -0.08083721 0.8339666 0.55294454
0001e0 20 4e c0 3d 4b af 85 bd 7a a2 21 bd ab 26 b9 3d
       0.09389901 -0.06527575 -0.03946159 0.090405785
0001f0 ff dd 2a 3d 1d 0d 95 3c f6 ee cb be 06 d8 9a be
       0.04171562 0.01819473 -0.3983075 -0.30242938
000200 7c ab d0 3c ff 4f 16 3c 1f 1e c7 bc f9 87 29 bd
       0.025472395 0.009174346 -0.024306355 -0.04138944
000210 4e af f4 bc 08 3b e7 bc 30 b4 c7 be be ce ad be
       -0.029868748 -0.02822639 -0.3900466 -0.33946794
000220 a9 b9 54 3c 54 59 62 3d 05 00 66 3c 5f 77 3d bd
       0.012983718 0.05526097 0.014038091 -0.04625642
000230 8c 44 13 3d d7 0c 69 bc 99 8b 9b 3d ee 0e c7 be
       0.035954043 -0.014224253 0.075949855 -0.38878578
000240 99 4b a9 3c 2b c4 84 3a 81 10 cb bc 79 b3 4c ba
       0.02066593 0.0010129263 -0.024788143 -0.0007808726
000250 2a 5d a2 3c 10 32 19 be 11 3c 4f 3f a4 3e 11 3f
       0.019819815 -0.14960504 0.8095103 0.56736207
000260 fc 91 85 3c 4f 78 44 be d3 1b da bc b5 ff 0e 3e
       0.016304962 -0.19186519 -0.026624596 0.13964732
000270 26 9f 44 be 02 ac cc bd 0b 01 6c 3f 73 1c 1a 3f
       -0.19201335 -0.099937454 0.9218909 0.6019966
000280 f2 8b 96 bc af d0 c3 3c c3 65 23 3e 33 5e 10 3e
       -0.018377278 0.023903219 0.15956788 0.14098434
000290 62 d3 80 3d 84 fb 55 3d 53 27 3b 3f 10 a7 35 3f
       0.06290318 0.052241817 0.7310688 0.7095804
0002a0 e0 42 fa 3c ab ed 17 be 40 36 88 bd 74 2c 45 3e
       0.030549467 -0.14836757 -0.06650972 0.19255239
0002b0 cb bc cb 3d 95 08 75 3e 44 0b 45 3f 7c f5 16 3f
       0.09948119 0.23929055 0.76970315 0.5896833
0002c0 21 8c 33 bd 91 b6 85 bd e1 cb 6b bd bf ad 1d 3c
       -0.04383481 -0.065289624 -0.05756748 0.009623944
0002d0 20 4a 5c 3c 1d 6e 1f bd ab 4e 02 bf ad 00 f2 be
       0.013445407 -0.03892337 -0.5090129 -0.4726614
0002e0 84 88 a7 bd 17 c8 82 3d 6f 5d 81 bc c0 dc 2c bd
       -0.08180335 0.0638582 -0.015791623 -0.04220271
0002f0 f6 24 bc bd d6 e5 80 3d e4 ca 59 3f 54 85 9c 3d
       -0.09186737 0.06293838 0.8507521 0.07642618

fc1.bias f4 [24]
000000 cc 5f 7f be 4d 5c fc 3e a2 36 7f be eb 4b 47 be
       -0.24938887 0.4928917 -0.24923185 -0.19462554
000010 40 f6 52 be 41 e9 85 3e 5d be 57 be 00 c2 fc bb
       -0.2060175 0.2615452 -0.21068712 -0.0077135563
000020 e2 4e 0f 3e 0f 25 22 3f 0e d6 88 be 42 8b 78 be
       0.13994935 0.63337797 -0.2672581 -0.24271873
000030 d0 38 52 be 78 fa 06 3f 76 53 c2 3e 37 4a 9d 3e
       -0.20529485 0.52725935 0.379543 0.30720684
000040 dc 47 07 3f 06 0f 47 3e 51 bc d0 3e 59 c2 c0 3e
       0.52844024 0.19439325 0.40768674 0.37648275
000050 86 49 ff 3e 38 32 9f 3e bc 28 86 3c 64 02 25 3f
       0.4986078 0.31093 0.016376846 0.6445677

fc2.weight f4 [48, 24]
000000 25 7a 94 bd 42 bd 8e 3d 28 38 ce 3c b6 65 01 be
       -0.0724986 0.06969692 0.025173262 -0.12636456
000010 72 90 bf bd c4 66 01 3d 6a e9 b6 3d ec ee 3d bd
       -0.09353723 0.031592146 0.08931239 -0.04637043
000020 22 ef 8e 3d 28 12 b7 bd b6 6f 0d 3e 62 a1 d2 3d
       0.06979205 -0.0893901 0.13812146 0.102846876
000030 80 79 dd 3c 00 83 83 3d 28 d5 4d 3d 48 6f ae bd
       0.027035475 0.06421471 0.05025211 -0.08517319
000040 00 f8 a4 ba c4 a6 1d 3d 9a 71 05 bd d6 bb 0d 3e
       -0.0012586117 0.03848912 -0.032579042 0.13841185
000050 a8 fd 63 bd 47 ff 03 be cd ba 8c bd 28 2c 09 be
       -0.055661827 -0.1289035 -0.06871567 -0.1339575
000060 64 97 f3 3d cf 9a 2f be 85 fa cf bd 80 a2 7f bc
       0.1189411 -0.17148899 -0.10155205 -0.015602708
000070 16 2e c7 bd 05 b7 89 3f 9a b3 96 3d 0c f0 dd bd
       -0.09725587 1.0758978 0.07358475 -0.10836801
000080 ee 3d 4d 3f 1c e9 54 3e 00 be a9 b9 3a 42 83 3d
       0.8017262 0.20792049 -0.00032375753 0.06409116
000090 b2 95 a5 bd cd f3 9f 3e b2 81 ad bd b3 a3 16 3e
       -0.08085193 0.31240693 -0.08472003 0.14710884
0000a0 38 bd 85 3f 56 3b d7 be 04 44 39 be 70 3d 35 be
       1.044837 -0.42037457 -0.18092352 -0.17699218
0000b0 d8 71 47 be f2 c8 05 be b1 2e 30 3f a7 96 80 be
       -0.19477022 -0.13064936 0.68821245 -0.2511494
0000c0 32 89 ea bd 2e 79 84 3e c7 16 d7 bd 30 ea fa bc
       -0.11451949 0.25873703 -0.10502391 -0.030629247
0000d0 f8 50 83 3d bc 18 8d 3f d0 af 05 3d 9a 8b 5c bd
       0.06411928 1.1023173 0.03263837 -0.053844072
0000e0 b6 65 a1 3e e4 49 89 3e d8 61 db 3c 10 d7 f8 3d
       0.31522912 0.26814187 0.026780054 0.12150395
0000f0 e0 a3 5e 3d 56 4a d6 3e 0c 18 80 bc 6f 22 30 be
       0.054355502 0.4185359 -0.015636466 -0.17200635
000100 b2 67 98 3f 97 bf a0 3e 4c af 49 3e 2e 35 ef 3d
       1.1906645 0.3139617 0.19695777 0.11680065
000110 4e a9 94 3e b6 4d a9 3e 2c a6 2a 3f 15 2a c3 3d
       0.2903542 0.330671 0.6665981 0.09529511
000120 e2 93 ed bd 94 fd c3 bc 7c 85 f3 3d 04 52 c7 3d
       -0.11600472 -0.023924626 0.118906945 0.0973244
000130 c4 24 fd 3d 5c c1 86 3f 60 a7 43 bc b0 5c 1a 3d
       0.12360528 1.0527759 -0.011941761 0.03768605
000140 f0 d4 f1 3e cd b0 5e 3e 90 02 94 3d a6 5b d8 bd
       0.4723277 0.21747132 0.07227051 -0.105643556
000150 68 98 ff 3d be 52 4b 3e aa 2a 35 be 1d 16 cf bd
       0.12480241 0.19855782 -0.17692056 -0.1011164
000160 af 1b 38 3f 75 40 7f be 93 2d 2c be 97 2a 91 be
       0.7191724 -0.24926932 -0.1681426 -0.28352806
000170 6e df 3e bd 62 ed 0c be 22 67 51 3f ac 64 c4 bd
       -0.046599798 -0.1376243 0.81797993 -0.09589514
000180 86 1c b1 bd 20 9b b5 bb c8 a1 2a bd 73 23 9e bd
       -0.086480185 -0.005542174 -0.041658193 -0.07721605
000190 a0 ec cf bc 64 22 4d bd 46 3a a5 3d d7 99 92 bd
       -0.025381386 -0.050081626 0.080677554 -0.07158249
0001a0 e8 ea b5 3c 2e d0 a6 bd c2 84 38 bd bc b4 e8 3d
       0.022206739 -0.08145176 -0.045048483 0.11362597
0001b0 53 1f 91 bd d0 32 0e bc 66 28 0d 3e c8 59 4a 3d
       -0.07086053 -0.008679107 0.13784942 0.04940203
0001c0 36 76 96 bd 2c 7b b1 bd 26 52 4f bd ca 22 39 bd
       -0.07346766 -0.08666071 -0.050615452 -0.045199193
0001d0 aa b3 80 3d a0 70 03 bd 30 4f f9 3d 2e 31 a2 bd
       0.06284268 -0.03208983 0.12173307 -0.079195365
0001e0 5e df 38 bd f6 8c 16 3c c0 15 ec 3d d4 62 0d 3e
       -0.045134895 0.009188881 0.11527586 0.13807231
0001f0 30 41 bd 3c ea f5 2c bf d7 70 84 bd 7c 05 a7 3d
       0.023102373 -0.67562735 -0.06466835 0.08155343
000200 89 a0 cb be 43 65 80 3d 76 10 f7 bd 8f 16 0e be
       -0.39770916 0.06269314 -0.120636865 -0.13875793
000210 60 3a a5 3d 57 f5 60 bd 39 48 81 3d 94 16 0c 3f
       0.08067775 -0.054921474 0.063126035 0.5472195
000220 3d 20 66 bf c2 6a 9a bc f6 c3 d1 bd a8 c7 77 3c
       -0.8989294 -0.018849734 -0.10242455 0.015123285
000230 72 2f 82 3c 0b b8 c1 bd 12 e9 49 bf 11 8a 06 3e
       0.015891764 -0.094589315 -0.7887126 0.13138606
000240 00 e1 27 3a 49 ec b2 be ec 3d 09 3d b8 4f d9 bd
       0.0006404072 -0.34945896 0.03350632 -0.10610908
000250 58 6d 8f 3d da be 5a 3d 32 1e 41 bd da 30 8c bd
       0.070032775 0.053404666 -0.047147937 -0.06845255
000260 19 a9 8d 3e 59 4f d6 bd 6a f0 96 3d 08 41 94 3d
       0.27668074 -0.10464353 0.07370074 0.07238966
000270 78 03 d1 3d 0c 53 93 3d fa 35 41 be 37 49 35 3e
       0.1020574 0.07193574 -0.18868247 0.1770371
000280 c1 c9 2f 3e f8 25 99 3d 79 a0 c0 be b5 95 ae be
       0.17166807 0.07477945 -0.3762243 -0.34098592
000290 4a 1b 23 be 69 ee 59 be 22 78 8a 3d b8 7e 9c be
       -0.15928379 -0.21282353 0.06761195 -0.3056543
0002a0 d8 bf 19 bd 64 b9 d1 3c 0c 89 fe 3d 1f 78 05 be
       -0.037536472 0.025601096 0.12428483 -0.13034104
0002b0 98 21 8d 3d 45 22 42 bf cf 57 0d be b6 1e b9 bd
       0.06891173 -0.7583354 -0.13803028 -0.09039061
0002c0 31 5e a5 be 10 40 2a 3e 44 cf e0 bd a0 be e3 3d
       -0.32298425 0.16626 -0.10977033 0.11120343
0002d0 5c a8 05 3e 72 6f c5 bc 79 69 99 3d 1a 7b c9 3e
       0.13052505 -0.024100993 0.074908204 0.39351732
0002e0 0f 30 8b bf 43 06 69 bd 85 ba 0d bd f4 07 18 be
       -1.0874041 -0.056890737 -0.034601707 -0.14846784
0002f0 0f 9f 1e be a4 aa 9e bd a4 2a 4b bf 90 24 87 3e
       -0.15490364 -0.07747391 -0.7936194 0.26395082
000300 e8 0a 71 bd b4 32 b0 3c 1a 93 6e bd a8 ec 91 3d
       -0.05884829 0.021508552 -0.058245756 0.07125217
000310 f0 ff 02 bc 75 ea 05 bf 5c 3a a4 3d 74 0b f6 3d
       -0.007995591 -0.5231088 0.08018944 0.12013903
000320 f5 c8 e3 bd d2 8f 95 3d 28 be fe 3d cc a1 ad bd
       -0.11122314 0.07302822 0.12438613 -0.08478126
000330 8c 67 0b 3e e4 11 c8 3d 3f f8 ea 3d 8b e3 8f 3e
       0.13613719 0.09769037 0.114731304 0.2810329
000340 86 0d 6a bf 6b 72 4f be 18 40 e5 ba c6 f0 0c 3d
       -0.91426885 -0.2025849 -0.0017490415 0.034409307
000350 38 5e 9d 3c 8e 32 8a 3c 84 1c 45 bf b9 e9 5f 3d
       0.019209966 0.01686981 -0.76996636 0.054666255
000360 30 2c 46 3d 76 ba 97 bc 00 6f ac bd b0 bc 64 3c
       0.048381984 -0.018521529 -0.08419609 0.013961002
000370 d0 6f e0 bd 90 41 38 bf 60 08 68 bd 7c 8f 01 3e
       -0.109588265 -0.7197504 -0.056648612 0.12652391
000380 64 d8 ee be 64 51 35 bb a5 a4 10 be 00 1b 15 3d
       -0.46649468 -0.002766692 -0.14125307 0.036402702
000390 ca 85 e3 bd 6f 81 06 bd 66 57 2e be 07 ed a0 3e
       -0.111095026 -0.03283828 -0.17025527 0.31430838
0003a0 a2 81 9a bf e0 02 b3 bd aa 38 7c 3d 54 08 8f 3d
       -1.2070811 -0.08740783 0.061577477 0.0698401
0003b0 e0 9d a5 bd 1c f2 92 be 65 7d 60 bf 78 26 2d 3d
       -0.08086753 -0.2870034 -0.87691337 0.042273015
0003c0 88 7e fb bc fc d7 d9 bb 08 c2 94 3d 24 10 83 3d
       -0.030699983 -0.006648062 0.07263571 0.06399563
0003d0 94 e3 28 3d 7a 6c 4e bf 00 b1 c8 ba 98 7b 96 3c
       0.04123266 -0.8063427 -0.0015311539 0.018369481
0003e0 0c db d7 be a8 3d 72 3d 70 99 93 bc 18 a5 0b be
       -0.42159307 0.05914083 -0.0180175 -0.13637197
0003f0 6c 65 c8 3d 71 46 c5 bd 25 f8 50 be 79 77 02 3f
       0.0978497 -0.09632576 -0.2040716 0.5096355

fc2.bias f4 [48]
000000 e4 33 25 be e6 d7 aa 3e 41 f4 33 bd 76 59 5b 3e
       -0.16133076 0.33367842 -0.04393411 0.21420845
000010 e1 1f 47 be ee 85 07 3e e1 f5 d2 3c af 78 6c 3e
       -0.19445755 0.13234684 0.02575201 0.23092912
000020 4d bb fa 3d 33 30 4c 3e 6c a1 cb 3d 4c 08 00 3c
       0.12242756 0.19940262 0.09942898 0.007814478
000030 d1 9e ec 3d b4 3f 07 be 28 12 42 bc f1 6a 98 bd
       0.11553729 -0.13207895 -0.011845149 -0.074422725
000040 7f 0a 54 3e f9 58 7b 3e c3 6c 06 3d 2b 7e bb bc
       0.20707129 0.24545659 0.032818567 -0.02288731
000050 04 55 0b 3d 52 ad a9 3d ab 69 1e bc 40 b9 f9 3d
       0.034016624 0.08285011 -0.009668748 0.12193537
000060 f0 6c 84 3d 33 e2 af 3e e4 69 dc 3d 02 d5 07 be
       0.06466091 0.34352264 0.107623845 -0.1326485
000070 34 03 05 3e fe cd 33 bc af a8 81 3e 88 58 96 bc
       0.12989503 -0.010974405 0.25324008 -0.018352762
000080 22 56 74 bd ca 55 0b be 7b f3 02 be 3c 56 91 3c
       -0.059652455 -0.13606945 -0.12788193 0.017741315
000090 64 db e3 bc 40 08 c2 3d 87 1c 40 3e bf 90 ae bd
       -0.027814575 0.0947423 0.18760882 -0.08523702
0000a0 d4 0f 26 3e 2f 38 5a 3d 04 3d 2d 3d e5 da 7b 3d
       0.16216975 0.053276237 0.042294517 0.06148805
0000b0 6e 3e e6 3d f7 65 b4 3e bf 64 8d 3e 6c 5b 24 3e
       0.11242376 0.35234043 0.27615926 0.160505

fc3.weight f4 [1, 48]
000000 6c d0 3a 3a 47 34 e8 bd c9 41 ba 3e 44 e4 11 bd
       0.0007126394 -0.11338096 0.36378315 -0.03561808
000010 86 27 21 3b 2f f6 fd bd 63 2a 89 be 70 b8 4e be
       0.0024590208 -0.124004714 -0.2679015 -0.20187545
000020 2b a8 37 bd eb 7e bc be 68 5b de be 39 cb 02 40
       -0.04483811 -0.3681558 -0.43429112 2.0436537
000030 11 dc fa 3f d0 cf 8c b9 fe 00 09 3f bd c5 9c 3f
       1.9598409 -0.00026857713 0.5351714 1.2247845
000040 d5 be 72 3e 7a 8d 3c bd 9e ab 24 be 7c e9 ce be
       0.23705609 -0.04603336 -0.16081092 -0.4041251
000050 47 b7 5f bf f6 fb 00 40 d9 28 37 bc 89 e3 f6 3f
       -0.87389034 2.0153785 -0.011179172 1.9288188
000060 84 2c 02 40 23 f1 ec bd 54 c3 00 40 d0 3b 46 b9
       2.033967 -0.11569431 2.011922 -0.00018905033
000070 cb d6 83 3e 90 34 99 3e c7 33 53 be 20 37 87 3a
       0.25749812 0.29922915 -0.2062522 0.0010316111
000080 65 1a fe 3f 78 82 04 3f e1 4e ed 3e 5d 00 01 40
       1.9851805 0.5176158 0.46349242 2.0156472
000090 bb 56 f4 3f d3 55 8f 3e 0f 40 72 3e 20 ad fa b8
       1.9088968 0.27995166 0.23657249 -0.00011953176
0000a0 73 83 33 be 08 64 89 be 64 c1 4e 3a fd 99 da bd
       -0.17530613 -0.2683413 0.0007887094 -0.10673902
0000b0 d0 63 02 40 52 3a c9 be 0d 18 6b bd ea d0 96 3f
       2.037342 -0.39302307 -0.057395983 1.1782506
