financial/finance/trained_models/DDPG__volatility__ExponentialUtility/critic.pth (torch, 8318 bytes, 5 tensors)

fcs1.weight f4 [24, 8]
00000000: 9865 3fbe 28e8 73bd e18f 41be 48e7 1abd
00000010: 40a5 5a3b 2086 57bc f559 cdbd 4a13 113e
00000020: 95d1 193c fc1b 653b f611 cfbb 93e8 e6bb
00000030: d78a c83b 645c 2a3b 5b3d 9bbe d4cb 5b3d
00000040: b45b 97bd e871 323e 3000 f7bc 5038 313e
00000050: 0044 843a 5062 b5bc dad8 f3bd c800 8bbd
00000060: f8b4 863d e4ea b83d 80fc edbb 8c2a 473e
00000070: faab 10be d848 a03d 1643 3c3e bc61 11bd
00000080: 66f0 253e 8f88 593b afac 1cbe c27d e5bd
00000090: 69ca 9a3d e3b9 b5bd b275 023d a203 3c3e
000000a0: e998 7ebb 6c2f cab9 421c 0d3c aea6 033c
000000b0: 2584 3d3c cbc5 8d3c d9d6 81be fd86 0f3e
000000c0: 58db 223d 02a8 b1bd c374 4cbe 2875 e23d
000000d0: 0d34 edbd 7095 0bbd 1a43 2fbe 1fd8 ebbd
000000e0: b100 aa3d b17d 40be cce0 e9bd 71f2 1a3e
000000f0: 95bd d9bd a5f6 b4bd 49c4 96bd 6f50 903d
00000100: 0c3c 873a 1ae0 f53b be76 433a f91b 19bb
00000110: 7117 0a3c 4e5b 333c cf73 e8be 974f 463e
00000120: 1ff5 b237 03b9 a13b b200 98bb 7acc 19bc
00000130: 1059 a2bc 4460 febc b671 b43e de10 8dbd
00000140: d02a 68bc d611 503e 009f 7c3a f867 26be
00000150: 30e6 73bc 98f9 cf3d ce75 88bd 88ec dabd
00000160: 5030 2c3e c026 dd3d d40b 0ebd 40dc 2a3c
00000170: d8da b0bc a81c 423d e0b6 ed3b 73f9 fcbd
00000180: 0ce8 1a3d 40f1 ae3b b039 583c f84f 9fbd
00000190: d039 563d 9706 29be 68ed 793d 5889 e23d
000001a0: 4c1c 23bb 412d e13a d995 90bc 340b a9bc
000001b0: 4c0b 653c ad27 013d 87f0 413e bfe1 30bc
000001c0: b8ae e73d 76cd 103e acee a03d 9045 eb3d
000001d0: c870 0a3e 5051 43bd 5092 d4bc 100b 153e
000001e0: 8be5 1b3c 791f 6f3c b213 2bbd 1d0d 9bbd
000001f0: 054a e6bc d55e da3b a52d c03d 8dbd 9fbd
00000200: 508c 573c 65f0 1d3c 1070 edbc b622 08bd
00000210: da79 7abb a86f aebc c88e 713d 32f8 b0bd
00000220: 71ff 393c 551f 053c 98bb 993b 37d3 133b
00000230: 0512 903b ec8f fb3a 109b d83e 8828 803c
00000240: 2933 3e38 9627 e83a 17b9 823b 38e6 1d3c
00000250: dd1c 323c 479d fa3b 467f e63e 5518 27bd
00000260: b023 ca3d 6073 01be 7205 483e 2ef0 143e
00000270: 309b 1c3d 54fc b93d b08b 913d 1cb0 f6bd
00000280: 3a8c 223c aea2 a23b 3e49 ddbb 0891 b1bb
00000290: aa91 183c 6289 653b 73db a1be f601 623d
000002a0: c03e 2c3e 34aa bbbd 2610 13be d8c2 b4bc
000002b0: 70d7 0cbe 5360 dabd cc1f d53d 04ef 1cbe
000002c0: 96c1 883c 5c93 9d3b 77c9 afbb 27fc 78bc
000002d0: fe20 18bb a2c8 7b3c 6797 acbe 44f1 adbd
000002e0: 882d d13d ebc4 11be b0ad e13d fc14 2fbe
000002f0: fad5 85be 518e 7f3e d6b4 4fbf 34fa 36be
-0.18691099 -0.059547573 -0.18902542 -0.037818223 0.0033362657 -0.0131545365 -0.100269236 0.14167514
0.009388347 0.0034959307 -0.00631928 -0.007046768 0.0061200666 0.002599501 -0.30320248 0.053661183
-0.07390538 0.17426264 -0.030151457 0.17306638 0.0010091066 -0.022141606 -0.119065955 -0.067872584
0.06577486 0.09029177 -0.0072627664 0.19449824 -0.14128104 0.07826394 0.18384966 -0.035493597
0.16204986 0.0033192968 -0.15300249 -0.11205627 0.07558138 -0.08873346 0.031850524 0.18360761
-0.0038848466 -0.00038563774 0.008612694 0.008035345 0.01156715 0.01730623 -0.25359228 0.14016338
0.039759964 -0.08674623 -0.19966416 0.11057502 -0.115821935 -0.03407806 -0.17115441 -0.11515831
0.08300913 -0.18797947 -0.1141983 0.15131547 -0.10631863 -0.08836106 -0.07361657 0.070465915
0.0010317578 0.0075035216 0.00074563536 -0.002336262 0.00842844 0.010947062 -0.45400855 0.19366299
2.1333397e-05 0.004935385 -0.0046387548 -0.00938713 -0.019817859 -0.031051762 0.35243005 -0.06887983
-0.014170364 0.20319304 0.000963673 -0.16250598 -0.014886424 0.10155028 -0.066630945 -0.10689646
0.16815305 0.107984066 -0.03467925 0.010428488 -0.021588728 0.04739061 0.0072544664 -0.12352266
0.037818953 0.005338818 0.0131973475 -0.07778925 0.052301228 -0.1650642 0.061017424 0.110613525
-0.0024888692 0.0017179624 -0.017649578 -0.020635225 0.013979744 0.03153198 0.1893941 -0.01079601
0.11312622 0.14140877 0.07858023 0.11487877 0.13519585 -0.047684968 -0.025948673 0.14555001
0.0095151765 0.014594906 -0.04176683 -0.075708605 -0.028111467 0.006664137 0.09383706 -0.07799826
0.013156012 0.009639834 -0.0289841 -0.033236228 -0.0038219602 -0.021293476 0.058974057 -0.086410895
0.011352406 0.008125146 0.0046915524 0.0022556314 0.0043966793 0.0019192672 0.42305803 0.015644327
4.5347177e-05 0.0017711993 0.0039893496 0.009637408 0.010871139 0.0076481435 0.45018977 -0.04079469
0.09870088 -0.12641668 0.19533327 0.14544746 0.038233936 0.09081331 0.071067214 -0.12045309
0.009921128 0.0049632406 -0.006753116 -0.0054189004 0.009312073 0.0035024513 -0.3161274 0.05517765
0.16820812 -0.09163323 -0.14361629 -0.022065565 -0.13754058 -0.10662904 0.104064554 -0.15325552
0.016693871 0.0048088264 -0.0053645927 -0.015196837 -0.0023213024 0.015367659 -0.3370926 -0.084932834
0.102137625 -0.14235274 0.110194564 -0.17097849 -0.26139814 0.24956633 -0.8113531 -0.17868882

fcs1.bias f4 [24]
00000000: cc5f 7fbe d67d 4a3e a236 7fbe eb4b 47be
00000010: 2694 64be 8301 da3d 5dbe 57be c0d5 ccbc
00000020: ae9c ca3e 61df 91be 0ed6 88be 428b 78be
00000030: d038 52be b2b3 3abe e623 02be 5422 4ebd
00000040: 8674 b6bc 6206 e2be 72bd d2be 0023 8fbd
00000050: 9592 523e d856 a5bd 0f81 803e f175 6dbb
-0.24938887 0.19774565 -0.24923185 -0.19462554 -0.22322139 0.106448196 -0.21068712 -0.025004268
0.39572662 -0.28490737 -0.2672581 -0.24271873 -0.20529485 -0.18232611 -0.12709007 -0.050325707
-0.02227236 -0.44145495 -0.4116016 -0.069890976 0.20563729 -0.08073205 0.25098464 -0.0036233629

fc2.weight f4 [48, 25]
00000000: 3289 eabd ec09 413e c716 d7bd 30ea fabc
00000010: 8ba7 5f3d e475 123e d0af 053d 1758 72bd
00000020: 3890 9bbd 20fb db3d d861 db3c 10d7 f83d
00000030: e0a3 5e3d a303 943e 2133 eebd 4614 0e3e
00000040: 02d5 d3bd 6c60 7b3e 569e b2bb 78bd ddbc
00000050: 4e22 5a3e a2b4 033e bef8 d5bd 7aff c63e
00000060: 2587 2fbe 38a8 b93c 7c85 f33d 0452 c73d
00000070: c424 fd3d 6a04 a03d 60a7 43bc b05c 1a3d
00000080: d809 77bd 34ea fa3d 9002 943d a65b d8bd
00000090: 6898 ff3d 405e 0cbb 603e d2bb f6cd 21bd
000000a0: f2fb 1bbd 80b8 ec3b 7b4f 90bd 737c 09be
000000b0: 5d44 98bd 084c ebbc 2439 df3d 5076 d93d
000000c0: 861c b1bd 209b b5bb c8a1 2abd 7323 9ebd
000000d0: a0ec cfbc 6422 4dbd 463a a53d d799 92bd
000000e0: e8ea b53c 2ed0 a6bd c493 42bd 0792 e03d
000000f0: 531f 91bd d032 0ebc 6628 0d3e e79b 353d
00000100: 3676 96bd b58b bbbd 2ca9 50bd 02d1 3fbd
00000110: 31b8 773d a070 03bd 304f f93d 2e31 a2bd
00000120: 70d5 41bd 283f 573d 46a7 dd3d d462 0d3e
00000130: 3041 bd3c 205c c73b d770 84bd 7c05 a73d
00000140: a158 abbd 6a65 1bbd 7610 f7bd 0765 19be
00000150: c82e 8a3d e0a8 203c c4a5 eb3d 8038 eb3d
00000160: d7a9 803d f898 6c3d 8f8f 4dbd fcd2 8f3d
00000170: 14b5 6c3d ea45 1c3d c087 88bb e09d b03c
00000180: 00e1 273a b456 ecbd ec3d 093d 2120 00be
00000190: 586d 8f3d 4137 cfbf 321e 41bd da30 8cbd
000001a0: 89ea e73d ad82 a2bf 6af0 963d 8a06 6f3d
000001b0: cc19 af3c d163 013d d625 a13d a8ac e93d
000001c0: 40e8 e83c 0ab4 56bc 6e24 e7bd 8d56 90bd
000001d0: f8db febd 5a11 3d3c 2ae6 25bd 7985 12be
000001e0: 5a30 46bf 9056 623d f9dd 1a3d 1b31 04bf
000001f0: 1dbd 533c c23e 0cbe cf57 0dbe b61e b9bd
00000200: 502d 9cbc d41e 253d 44cf e0bd a0be e33d
00000210: 5ca8 053e 488c 6cbc 0ae6 bb3d fdd2 85bd
00000220: d4e0 69bd a895 98bc cd42 3dbc 7635 cebd
00000230: 24a7 12be 6753 493d 2b73 aa3c 68c0 f13d
00000240: e80a 71bd 68c7 503d 1a93 6ebd 3e6a 483d
00000250: f0ff 02bc fd30 a03d 5c3a a43d 740b f63d
00000260: c4e8 973d 40b1 b13b 28be fe3d cca1 adbd
00000270: 8c67 0b3e 0c6e 103e f107 083e 5916 99bd
00000280: bba0 9cbd 609e 153c b819 383d c0bc 813d
00000290: 0872 703d e4e2 e83d fa1e 14bd 2633 4ebd
000002a0: 1133 323d fcbf 243d 006f acbd b0bc 643c
000002b0: 3b05 e9bd 1a71 2dbd 87f0 82bd 7c8f 013e
000002c0: 130c 05be 1788 aebd a5a4 10be 001b 153d
000002d0: ca85 e3bd 8847 3f3d 5054 cdbd 9c5b bdbd
000002e0: 3b04 97bd 9071 b13c e6cf 073e 9872 0a3e
000002f0: 80a9 32bc 72c5 10be e851 43bd bc50 61bd
00000300: 887e fbbc b0e4 613d 08c2 943d 2410 833d
00000310: 94e3 283d 4456 6fbd 00b1 c8ba 987b 963c
00000320: c8fd 96bd 708c 53bc 7099 93bc 18a5 0bbe
00000330: 6c65 c83d 0017 6fbc 8589 ffbd a0df e93d
00000340: 750e 9fbd 2c50 513d a893 123e a0f2 da3b
00000350: a017 2a3d 44e7 6a3d 146a df3d 4a65 35bd
00000360: 7457 a6bd 6010 39bc 482d e73d 1055 4b3c
00000370: 7863 cd3d 00a8 8cba e464 353d 0076 a43b
00000380: 2064 803b a5a6 0cbe 9936 01be a096 443c
00000390: d64d 923d 2aaf bf3d 6c5a cd3b d834 793d
000003a0: bfc1 6b3d 9440 0cbe 85f2 0fbe e331 e5bd
000003b0: 80a1 223b 34ea babd 1af3 76bd dce7 b0bc
000003c0: 9da1 2c3d afc6 e23c 8dff f83d fd35 f43d
000003d0: 0795 bcbd 0066 eeb9 e041 c33c 0823 ea3d
000003e0: 363a 37bd 1480 90bd 7440 bbbd 1e34 873e
000003f0: 4e7e 27bd fa6b 5dbd 736e ab3d cbf0 253e
-0.11451949 0.18851441 -0.10502391 -0.030629247 0.05460314 0.14302784 0.03263837 -0.05916604
-0.07595867 0.10741258 0.026780054 0.12150395 0.054355502 0.28909025 -0.11630846 0.13874921
-0.103433624 0.24548501 -0.005451004 -0.027067885 0.21302149 0.12861875 -0.104478344 0.38866788
-0.17141397 0.02266322 0.118906945 0.0973244 0.12360528 0.07813342 -0.011941761 0.03768605
-0.060312122 0.12251702 0.07227051 -0.105643556 0.12480241 -0.0021418482 -0.006416127 -0.03950306
-0.03808207 0.0072241426 -0.0704641 -0.1342638 -0.07434914 -0.028722778 0.108995706 0.106182694
-0.086480185 -0.005542174 -0.041658193 -0.07721605 -0.025381386 -0.050081626 0.080677554 -0.07158249
0.022206739 -0.08145176 -0.0475042 0.109653525 -0.07086053 -0.008679107 0.13784942 0.044338133
-0.07346766 -0.091575064 -0.050942585 -0.046830185 0.060478393 -0.03208983 0.12173307 -0.079195365
-0.04732269 0.052550465 0.108229205 0.13807231 0.023102373 0.00608398 -0.06466835 0.08155343
-0.08366514 -0.037938513 -0.120636865 -0.14979945 0.06747204 0.009805888 0.11506227 0.11485386
0.062823944 0.05776307 -0.050185736 0.07022664 0.057789877 0.038152613 -0.0041665733 0.021559656
0.0006404072 -0.11539975 0.03350632 -0.12512256 0.070032775 -1.6188737 -0.047147937 -0.06845255
0.11324031 -1.2696129 0.07370074 0.058355846 0.021374606 0.031589333 0.07868545 0.11409885
0.028431058 -0.013104448 -0.11286245 -0.07047758 -0.124442995 0.0115397815 -0.040502705 -0.14308728
-0.7741753 0.055258334 0.037809346 -0.5163743 0.012923506 -0.13695815 -0.13803028 -0.09039061
-0.019064575 0.040312603 -0.10977033 0.11120343 0.13052505 -0.0144377425 0.09174736 -0.065343834
-0.05709918 -0.01862605 -0.011551571 -0.100687906 -0.14321572 0.049151804 0.02080687 0.11804277
-0.05884829 0.05097142 -0.058245756 0.048929445 -0.007995591 0.07821844 0.08018944 0.12013903
0.074174434 0.005422741 0.12438613 -0.08478126 0.13613719 0.1410448 0.1328428 -0.074749656
-0.076478444 0.009131998 0.044946402 0.06334829 0.0587025 0.11371401 -0.036162354 -0.050341748
0.043505732 0.040222153 -0.08419609 0.013961002 -0.11377951 -0.04234419 -0.06393533 0.12652391
-0.12992887 -0.08522051 -0.14125307 0.036402702 -0.111095026 0.046699077 -0.10025847 -0.09245989
-0.07373854 0.021660596 0.132629 0.13520277 -0.01090467 -0.1413782 -0.047685534 -0.055008635
-0.030699983 0.055149734 0.07263571 0.06399563 0.04123266 -0.05843188 -0.0015311539 0.018369481
-0.07372624 -0.012911901 -0.0180175 -0.13637197 0.0978497 -0.014592886 -0.12477402 0.11419606
-0.07766429 0.05110185 0.14314139 0.006681755 0.041526437 0.05734946 0.10908905 -0.04428605
-0.08122149 -0.011295408 0.112879336 0.012410417 0.10028738 -0.001073122 0.04428567 0.0050189495
0.003918186 -0.13735445 -0.12618484 0.011998802 0.07143752 0.09359582 0.0062668826 0.06084141
0.057557818 -0.1369651 -0.14057358 -0.11191156 0.00248155 -0.09126702 -0.060290433 -0.021594934
0.042146314 0.02768263 0.121581174 0.1192436 -0.09208112 -0.00045470893 0.023835123 0.11432463
-0.04473325 -0.07055679 -0.09143153 0.2640695 -0.040891938 -0.054058053 0.08370676 0.16205136

fc2.bias f4 [48]
00000000: f351 283d a09f 4cbe ef31 ffbd 0423 973c
00000010: fb95 28bd c027 3fbe 5bb9 cbbd 2d4e bfbd
00000020: 78e8 4abe 908f 903b cb6c 363e 991e 1abd
00000030: a5e9 cbbd 8b0f 3cbe 5a3a 25be 8c5a 94bd
00000040: 3a8f 5d3d af4a debd bde1 debd f780 dabd
00000050: 90d5 8dbc 427d 42be 2b12 42be c539 303e
00000060: 793c eabd a794 52bd 2935 ccbd 07eb 33be
00000070: 586b 10bd f527 6e3d 3a52 a6bd 5487 f8bc
00000080: b7d6 7fbd 20e1 4bbe 19ba 9e3d aa53 ee3d
00000090: a290 7d3d 1714 6ebd c5eb 07bd b8e1 3fbe
000000a0: f9ba a3bd c89c 26bd d58f b2bd f24b c8bc
000000b0: 30a3 babd 98e5 bdbc f88b 6cbd 153f 4fbe
0.041093778 -0.19982767 -0.12460696 0.018449314 -0.041158658 -0.18667507 -0.09947463 -0.09341083
-0.19815242 0.0044116452 0.17814939 -0.037626836 -0.099566735 -0.18365304 -0.1613554 -0.07243833
0.05409167 -0.108540885 -0.108829 -0.10669129 -0.017313749 -0.18993095 -0.18952243 0.17209537
-0.114373155 -0.051411297 -0.09971077 -0.17570125 -0.03525862 0.058143575 -0.08121152 -0.030337967
-0.062460627 -0.19910097 0.07750339 0.116370514 0.06190551 -0.058124628 -0.03318383 -0.18738449
-0.079946466 -0.040676862 -0.0871884 -0.024450276 -0.09113157 -0.023180768 -0.057750672 -0.20238908

fc3.weight f4 [1, 48]
00000000: 3c23 0b3b e46c 223a 2af9 f0b7 227e 8f3b
00000010: d3eb f6bd f551 81bc 5f88 863b 9043 f03a
00000020: 9c64 35bb 8aae a7bb 4b44 df3d 2d4d dd38
00000030: 4627 263b be27 12bb c86d 1aba 7079 a83e
00000040: aeae d1bb 76a9 fabb e277 adba f094 d2b9
00000050: 0e85 00bb a76c b6ba 9c7b 6bbb 3797 d0bc
00000060: a4cf 82bc 4131 24bd 2fd0 8a3c c26d 143b
00000070: 28d1 ebb9 14fb 843a 0f77 1cbb a362 aebb
00000080: 6afb e73e 68d8 ec3a 70b0 acbd 50dd 02bd
00000090: 416a dd3b 27ce 9bbc 8b9a 8b3b 04d4 43ba
000000a0: 597c 503b da66 213b 9a5d c2b9 ec4d ea3a
000000b0: 8074 8c39 74f3 2aba 9081 86b9 8974 5abc
0.0021230718 0.00061960355 -2.8726256e-05 0.00437905 -0.12056699 -0.01578615 0.004105612 0.0018330682
-0.0027678376 -0.005117242 0.10901698 0.00010552476 0.0025352999 -0.002230152 -0.00058909925 0.3290515
-0.0063989973 -0.007649596 -0.001323458 -0.00040165288 -0.0019610557 -0.0013917879 -0.0035931831 -0.02546273
-0.015968151 -0.040086035 0.016944973 0.0022648429 -0.00044978526 0.0010145628 -0.0023874675 -0.005321817
0.45309 0.0018069865 -0.0843209 -0.03194934 0.006757051 -0.0190192 0.0042603663 -0.00074702525
0.0031812398 0.0024627955 -0.00037072302 0.0017876006 0.0002678968 -0.00065212627 -0.00025655003 -0.013333448
